nn10_25.pt (torch, 34510 bytes, 23 tensors)

model.0.weight f4 [25, 10]
000000 c3 0a 02 be 72 70 9a be a9 e3 3a be e6 66 0f 3e
       -0.12699418 -0.30163914 -0.18250908 0.14004096
000010 80 ba 71 bd 07 d9 9e 3e e4 46 e2 bd 65 91 5a be
       -0.05901575 0.31024954 -0.110486776 -0.21344526
000020 27 44 6d 3d 09 77 10 3d cc d2 11 be a8 af 28 be
       0.057926323 0.03526977 -0.14240569 -0.16473258
000030 90 a3 e3 3d 89 38 69 be 53 2a e8 3d 11 f7 62 be
       0.111151814 -0.22775473 0.11336198 -0.22164561
000040 51 39 56 be cb d1 7e bd 27 2b dc 3d 29 50 89 3e
       -0.20920302 -0.062211793 0.10750418 0.2681897
000050 7f 5d 32 bd b1 e5 6f 3e dd be 90 bd db a8 dd 3d
       -0.043546196 0.23427464 -0.07067654 0.10823222
000060 62 83 fd 3d b2 0f d7 3e 1a bf 81 3e c7 89 33 3e
       0.12378575 0.42004162 0.2534111 0.17533027
000070 3a fa 00 3f 0c d7 ea bd 3f 6a 8d 3d 59 b5 62 3d
       0.50381815 -0.11466798 0.069050305 0.055348728
000080 95 0f d5 3e a0 40 45 3e d9 4e 9f 3d 68 6e 9c be
       0.4161345 0.19262934 0.07778711 -0.30552983
000090 f9 a9 c6 be 96 24 f5 bd b3 44 f7 bd 43 e3 d6 bd
       -0.38801554 -0.11969869 -0.1207365 -0.104925655
0000a0 48 b3 82 3e 32 27 4c 3e ab 6b 99 3c ac 43 80 be
       0.25527406 0.19936827 0.018728098 -0.2505163
0000b0 50 47 fc be 7b de a7 be 09 9e 1c 3d 12 77 82 be
       -0.49273157 -0.32786927 0.03823665 -0.25481468
0000c0 f7 83 67 bd df a5 60 bc 6a c3 37 be d3 1b 1a be
       -0.056522336 -0.013711422 -0.17945638 -0.15049677
0000d0 49 b5 6e be 61 79 6c 3c ad ce f5 bd f6 e9 80 be
       -0.23311342 0.014433236 -0.12002311 -0.25178498
0000e0 b5 7a 5b be 35 06 46 be 20 37 01 3d 3c 50 5d bd
       -0.21433528 -0.19338305 0.031546712 -0.054031596
0000f0 5f 07 c5 3c 08 18 dc 3d 62 61 38 be 9f de ba bd
       0.024051366 0.10746771 -0.18005899 -0.09124493
000100 5a cf 18 bd 86 29 10 be e0 73 9a 3d 38 71 81 bd
       -0.03730712 -0.1407834 0.07541633 -0.06320423
000110 96 d1 91 3d d1 6a d6 3e 6b 5e 11 3e b1 0c 7c bd
       0.071200535 0.4187837 0.14196174 -0.06153554
000120 03 c4 53 3e 46 3b 22 3d 3b a0 9f 3e 25 70 93 3d
       0.20680241 0.03960731 0.31176934 0.07199124
000130 7c c6 26 be 32 24 1c 3e 16 ba 38 be 09 27 6c 3e
       -0.16286653 0.15248182 -0.18039736 0.23061766
000140 e9 80 11 3e 42 4e 83 3e c8 31 a6 bd 74 21 22 3e
       0.14209332 0.25645643 -0.08114964 0.15833074
000150 48 5a 86 be 9b f6 c4 bd 47 2e 10 be 0b e0 a0 3e
       -0.26240754 -0.09617349 -0.14080153 0.3142093
000160 c9 ac 14 3e 49 3b 07 be cc 18 b9 3e a9 e4 bd 3e
       0.14519037 -0.13206209 0.3615173 0.37088516
000170 be e6 7b 3e 15 88 c6 3d 23 7f 65 3e fc 32 b9 bd
       0.2459974 0.09693924 0.2241178 -0.090429276
000180 8f 18 47 ba 39 55 78 be aa 72 d7 3c f0 a4 cf be
       -0.0007594907 -0.2425126 0.026299793 -0.40555525
000190 be 82 01 be ef 95 50 be 64 4d 73 be b4 6f 91 3e
       -0.1264753 -0.20369695 -0.23759991 0.28405535
0001a0 cd 76 db 3d ef 0e 21 3e f9 ba 3e be fd bb 9d 3e
       0.10716019 0.15728353 -0.18626012 0.30807486
0001b0 6b f6 10 be 57 54 8d 3e b2 f4 da 3b 3e 20 a9 3e
       -0.14156501 0.2760341 0.006682002 0.3303241
0001c0 81 25 3c 3e ba f7 7c 3d 56 ef 81 be a6 42 d4 3c
       0.18373682 0.061759688 -0.2537791 0.025910687
0001d0 45 be e8 3e 8e 36 d8 bd 59 85 0f 3f 33 25 59 3e
       0.45457664 -0.105572805 0.5606285 0.21205597
0001e0 ef 3e 6e 3e 8a 75 bc be 59 e8 31 be ae 91 44 be
       0.23266195 -0.36808425 -0.1737379 -0.19196197
0001f0 2e 01 77 3e 54 74 9e 3e ca 80 39 3d e2 ad 8f 3e
       0.24121544 0.30948126 0.04528884 0.2806235
000200 11 81 3f 3e bc 10 dd 3d 34 0e 58 be 1d 9f ea 3e
       0.18701579 0.107942075 -0.21099168 0.4582452
000210 06 40 73 3e 16 fb 16 be b1 24 b3 3e ce 87 32 3e
       0.23754892 -0.14744219 0.3498893 0.17434618
000220 15 e2 92 be 52 5a ad be 3f e0 2c be 0b cd 13 3e
       -0.28688112 -0.3385797 -0.16882418 0.14433686
000230 a7 d9 38 3c d7 52 10 3e 9c 64 bb 3e 63 cd d0 bd
       0.011282361 0.14094101 0.36600196 -0.101954244
000240 c6 79 83 be e0 e7 1d 3e 57 cb 65 be 91 1c 09 3e
       -0.25678843 0.15420485 -0.22440849 0.13389803
000250 c8 ae b3 be 78 74 54 be 44 6a 34 be ce 1d a9 be
       -0.35094285 -0.20747554 -0.17618662 -0.33030552
000260 1e 0a c1 3e 74 c4 a1 3e b2 02 1e bc 93 47 3f bd
       0.3770303 0.31595194 -0.009644197 -0.046699118
000270 e1 44 92 3e b2 b6 e9 3c 8a f6 98 be c3 e3 00 bd
       0.28568175 0.028529499 -0.29875594 -0.03146721
000280 02 5b 18 bc 2a 9f d0 bd 47 29 91 3e 34 05 d7 bb
       -0.009299042 -0.10186608 0.28351805 -0.0065618996
000290 5c 5c 26 3d a9 7f b6 be 44 41 bf 3e b5 54 49 3e
       0.040615425 -0.35644272 0.3735448 0.1966122
0002a0 9b 8e f5 bd 1f 9d db 3c f8 0b 79 be 40 22 c8 bd
       -0.119900905 0.02680832 -0.24320972 -0.09772158
0002b0 cd 00 6b be 1f be ab 3e 96 cd 6f 3e 9a 95 16 be
       -0.22949524 0.33543488 0.23418269 -0.14705506
0002c0 59 18 a9 3e 24 b8 3a bd c4 23 b9 bd d7 7c 37 be
       0.33026388 -0.045585766 -0.09040025 -0.17918716
0002d0 6c d3 c3 bd 98 24 84 be 22 f5 07 be 90 51 91 3d
       -0.0956181 -0.2580917 -0.13277104 0.07095635
0002e0 23 23 3f 3e dd f0 4b be 61 85 cf 3c 82 92 9c be
       0.18665747 -0.19916101 0.025332155 -0.30580527
0002f0 0e 69 a5 3d 76 05 65 3e 04 f6 cc bd 43 70 e6 bd
       0.08076678 0.22365364 -0.10007861 -0.11251881
000300 b0 b1 04 bf 53 a3 8a bd 63 8d 81 3d a0 15 a3 3e
       -0.5183363 -0.06769433 0.063257955 0.31852436
000310 71 26 13 3e 04 27 80 3b a1 96 b2 be 00 8e 1d 3b
       0.14370133 0.003910901 -0.34880546 0.0024040937
000320 71 c7 f7 bd 9e 0d 60 be fb 00 2b 3d f1 c9 22 be
       -0.12098587 -0.21880195 0.041748982 -0.15897347
000330 29 af 26 be 3b 43 f0 bd 1d b1 18 3e 40 72 3e bd
       -0.16277756 -0.11731573 0.14911313 -0.046495676
000340 1c 3d 33 be 2e 7e 67 3e 75 0d 2a be 48 13 23 bc
       -0.1750378 0.22606727 -0.16606696 -0.0099533275
000350 24 ad 4a be 49 57 af bd 42 36 54 be ff 75 7a be
       -0.1979261 -0.0856157 -0.20723823 -0.24459074
000360 bc 9d 4a 3c 34 4e 71 3e 0b da 8b bd fe 4f 2f bd
       0.012366708 0.23564988 -0.06828698 -0.042800896
000370 d3 ac f7 3c c6 08 a7 3e 72 6d e0 3e 9c 4e 93 bd
       0.030233776 0.3262388 0.438335 -0.07192728
000380 33 1f 51 bd 11 a4 ad be 82 2e cf 3e 4b 6f ce 3e
       -0.051055145 -0.33914235 0.4046517 0.40319285
000390 69 41 e2 3e db 51 30 3e 22 36 2b be 5f be 25 bc
       0.4419053 0.17218725 -0.16719869 -0.010116189
0003a0 8d 38 9e be d1 bc c2 3d ee dd 88 3e de 84 90 bd
       -0.3090252 0.0950867 0.2673182 -0.070565924
0003b0 1d b3 ef bd 54 82 6a bd 08 2b 9c be d7 81 20 bd
       -0.11704085 -0.057253197 -0.3050158 -0.039186325
0003c0 4d a1 3b 3d d8 ca 88 be 33 0d 82 be e2 07 4b 3e
       0.045808125 -0.26717257 -0.25400695 0.19827226
0003d0 9f 29 9c be 4e d8 3b 3e 79 39 95 be ec 2f d3 3d
       -0.30500504 0.18344232 -0.2914541 0.10311875
0003e0 17 84 85 3e f5 24 80 3e
       0.2607734 0.25028196

model.0.bias f4 [25]
000000 dc b6 81 be 74 ac a3 bd 37 e2 0a 3e 99 8f 4b 3e
       -0.25334823 -0.07991877 0.13562857 0.19878997
000010 dd 7b 94 be b4 96 46 be f4 14 8e 3e 6f 91 46 3d
       -0.2900075 -0.19393426 0.2775036 0.04847854
000020 e5 7b 9d 3e 1b 3e 13 be 77 ba 97 bd 67 75 f0 bd
       0.30758587 -0.1437916 -0.07408612 -0.11741143
000030 f3 62 06 3e ab f8 c6 3d a9 01 99 be 24 c1 bc 3d
       0.13123684 0.097153984 -0.2988408 0.09216526
000040 3f a7 a8 bd 77 b1 0d be eb 5b 34 be fd 26 89 bd
       -0.08235025 -0.13837229 -0.17613189 -0.066968895
000050 d4 ac a3 bd 0e c9 0b be f2 aa a4 be c9 87 96 3e
       -0.07991949 -0.13650915 -0.3216167 0.2940047
000060 b5 6c 87 3e
       0.26450124

model.2.weight f4 [25, 25]
000000 3b 30 0b be 21 d1 49 be 09 43 31 3e 4d 84 df bc
       -0.13592617 -0.19708683 0.17310728 -0.027284766
000010 d4 3e 53 be 22 c9 26 be 84 b6 87 3d 90 66 08 3e
       -0.20629436 -0.16287664 0.06626609 0.13320374
000020 ac 97 43 bd 79 a7 e7 3c b7 f0 0e 3e db 62 12 be
       -0.047752067 0.0282781 0.13959013 -0.14295523
000030 5f a3 9e 3d f7 fc 51 bd bb a1 79 bc 55 79 06 bd
       0.07746004 -0.051266637 -0.015236313 -0.032830555
000040 54 31 22 3e 2c dd c5 3c cb 59 9f bd 90 69 7e bb
       0.1583913 0.024153315 -0.077807985 -0.0038820244
000050 f7 f0 c9 3d e3 72 9f bd c8 7d 1c 3e 23 c9 fc 3d
       0.098604135 -0.07785585 0.15282357 0.12343051
000060 1e 80 1f be 08 e7 43 3e ea 3c 2b 3e 8b d3 cc bb
       -0.15576217 0.191311 0.16722456 -0.006250804
000070 56 d2 5f 3d 2a bd 86 3c f3 0e a5 bd f2 61 a2 3c
       0.05464395 0.016447622 -0.08059492 0.019822095
000080 de f7 55 be 35 e6 e8 3d a3 b9 cf bc ec 37 a3 bd
       -0.20895335 0.113720335 -0.025357073 -0.079696506
000090 c9 d7 f3 3d 5b e6 27 be e9 07 9b 3b 86 40 f9 3d
       0.11906392 -0.16396467 0.0047311676 0.1217051
0000a0 88 30 80 3d e4 1d 91 bc 19 bf f6 bc e2 01 23 bd
       0.062592566 -0.017714448 -0.03012042 -0.039796717
0000b0 34 8a f8 3c a0 b7 33 be 83 41 46 3e 48 db 50 be
       0.030339338 -0.17550516 0.19360928 -0.20396149
0000c0 1f e4 cc bd 97 6d a7 3d f4 a1 1b 3e 55 7a 32 3d
       -0.10004448 0.081751995 0.15198499 0.043573696
0000d0 9f fe 75 3e cf 44 01 3e c6 98 d8 bd 6f 82 32 be
       0.24022911 0.12623905 -0.10576014 -0.17432569
0000e0 58 32 5a 3d 43 55 74 bc 93 2e 1b 3e d9 f4 eb 3d
       0.053270668 -0.014912906 0.15154485 0.1152131
0000f0 2b 1e ac 3d dd 36 d7 3d ed 0b 6c 3b 50 23 96 3d
       0.084041916 0.10508511 0.003601785 0.07330954
000100 5e 54 8a 3e c4 42 24 3d 55 ee 41 be 56 3c 7f bd
       0.27017492 0.040102735 -0.18938573 -0.0623134
000110 26 0f d1 3d d7 72 0e be 11 20 74 3c ed 00 dd 3d
       0.102079675 -0.13910995 0.014900223 0.10791192
000120 d6 29 61 3d 25 3b 35 bc be db 73 be 3f 10 19 be
       0.05497154 -0.011061464 -0.23814294 -0.14947604
000130 39 35 d3 bd dd ad 6c 3d 05 55 a7 3d 4e 66 f2 3d
       -0.10312886 0.057782996 0.08170513 0.11835919
000140 93 1c 65 3d f4 35 d9 3c e4 49 ed bc b9 c7 fa bd
       0.055935454 0.026514985 -0.028965898 -0.12245125
000150 4f 95 41 bd 6a 74 94 bd 86 09 a2 3c f7 28 a7 3d
       -0.047261532 -0.07248767 0.019779932 0.0816211
000160 26 69 2c bb 2b dd 4d 3e 07 e7 60 be 85 0e 35 3d
       -0.002630779 0.201039 -0.2196313 0.0442033
000170 26 eb 89 bd 71 08 04 be ec bc d5 3d 9e 55 ea 3d
       -0.06734304 -0.12893845 0.104364246 0.114421114
000180 13 ba 3d 3d 45 bb 16 3e c3 b1 8a 3d 3a e8 57 be
       0.046320032 0.14719875 0.067721866 -0.21084681
000190 b5 7b 14 3e 2a 19 34 3d 9d 05 65 3c 01 f7 ba bc
       0.14500315 0.04396931 0.013978389 -0.022822859
0001a0 b4 77 7e 3e da 2f 88 3d 32 9c db 3d 21 40 27 3e
       0.2485035 0.06649752 0.10723151 0.16333057
0001b0 1c 8b 57 bd c2 3c 4b 3e b6 9e a3 3c 6b 56 9e bd
       -0.0526229 0.19847396 0.01997314 -0.07731327
0001c0 2a 76 a3 3d ed 7b 8b bd b7 e9 43 be aa 26 25 3e
       0.079815224 -0.06810746 -0.19132124 0.1612803
0001d0 84 93 8b bd d0 6e e2 ba 28 96 ae bb 6f 18 0f be
       -0.06815246 -0.0017275456 -0.0053279586 -0.13974164
0001e0 34 18 16 be 03 3c 1d be 0d 18 d3 3d 75 9a 53 3b
       -0.1465767 -0.15354924 0.10307322 0.0032288108
0001f0 da 3c 33 3e 75 ba 3d 3e d3 57 e3 3d c2 02 40 be
       0.17503682 0.18528159 0.111007355 -0.18751052
000200 d5 7e 20 bd c4 db 40 3e b3 d0 35 3d 9c f0 1f be
       -0.039183456 0.18833834 0.044388484 -0.15619129
000210 37 52 df bd 90 b9 e5 bd dc 31 ba 3d f3 2c e5 bc
       -0.10904353 -0.11217034 0.09091541 -0.027975535
000220 52 93 e0 bc da 91 ba bd 13 76 05 3e a2 db 37 3e
       -0.027413998 -0.0910985 0.13033323 0.17954877
000230 20 de a4 bd d7 43 31 be 4d 60 63 3d 87 91 cc 3d
       -0.080501795 -0.17311035 0.05551176 0.09988695
000240 6a f5 19 be 2e 6e 33 be 1a b1 0f be 5f f0 28 be
       -0.15035024 -0.17522499 -0.14032403 -0.16497944
000250 f0 1c 82 3d 4c 03 ab bd 80 59 f2 bd 43 24 3f 3e
       0.06353176 -0.08350238 -0.11833477 0.18666176
000260 28 35 19 be 0b 0b 50 3e e8 a8 38 3d 17 7a 3f 3e
       -0.14961684 0.20316713 0.045082957 0.18698917
000270 0a fc d4 3d bf 64 37 bb 2a 55 21 be 88 68 31 be
       0.10399635 -0.0027983633 -0.15755144 -0.17325032
000280 3a a3 39 bd 97 6d be bd 4a 51 8f bc 2e e1 36 3e
       -0.04532168 -0.09298246 -0.017494816 0.17859337
000290 3f 19 d2 bc 6b ed 87 bc 9d 61 15 3e 78 fb b1 3d
       -0.025646804 -0.016592702 0.14588018 0.08690542
0002a0 09 9c 2f 3e fa d5 4b be 70 07 24 3e b3 da 12 bd
       0.17149366 -0.19905844 0.16018462 -0.0358531
0002b0 b8 c8 06 3e 08 11 f1 3c 96 76 ac bd 2f 80 45 3e
       0.13162506 0.029427066 -0.08421056 0.1928718
0002c0 4e 97 41 be 50 78 29 be 82 e3 fd bd c0 67 43 3d
       -0.18905374 -0.16549802 -0.12396909 0.047706366
0002d0 8d cd 61 bd 2c 61 45 3e 78 7d 60 3c 09 40 70 3e
       -0.05512767 0.1927535 0.013701789 0.23461927
0002e0 04 f8 e2 3d f1 88 22 3e 39 56 ed bd 39 e1 a0 bd
       0.110824615 0.15872552 -0.11588711 -0.07855458
0002f0 5e 97 b0 3d 3f 77 6f 3e df 4a be 3d b6 e1 fe bc
       0.08622621 0.23385333 0.09291624 -0.031113487
000300 91 dd 8e bb ea 03 bc 3d d1 21 be bb 17 64 a2 bd
       -0.004359909 0.09180434 -0.005802371 -0.07929247
000310 9a ee 91 bc 91 20 85 bc d7 30 3a be 54 c0 61 3e
       -0.01781397 -0.01625088 -0.18182693 0.22046024
000320 10 d7 a5 3d 2d a2 28 3e 66 29 c0 3c 02 be 27 3e
       0.080976605 0.16468115 0.02345724 0.16381076
000330 c3 d9 ae 3c e3 1d 29 be c8 59 f8 bc 45 12 d9 bd
       0.021344071 -0.16515307 -0.030316249 -0.10599188
000340 9c 29 d9 bd 3f 99 5a 3c 91 a5 2d 3e 49 ef 28 be
       -0.106036395 0.013342201 0.1695769 -0.1649753
000350 4b 8b fe bd 91 1b a3 3d ea 0b ee 3d 92 65 0f bd
       -0.12428912 0.07964242 0.11623366 -0.035008974
000360 2e 5c c1 bd bb fc 2e be 43 b6 a1 3c 56 49 00 3d
       -0.0944141 -0.17088597 0.01974023 0.03131994
000370 af 92 8e 3d e3 ec d2 3d 67 58 4a be e8 37 b8 bd
       0.069615714 0.10299089 -0.19760285 -0.08995038
000380 19 be 5c 3d 3e 06 bc 3d c7 ec ea 3a a4 3e 48 3d
       0.05389223 0.09180878 0.0017923348 0.048887864
000390 40 17 8d 3e 56 fe a8 3d 8b 8e 1f 3e 8e fe 90 3d
       0.275568 0.08251636 0.1558172 0.070798025
0003a0 9e 75 69 3e c1 64 47 3c df ac 8c 3e df 60 cd bd
       0.22798774 0.012170018 0.2747564 -0.10028242
0003b0 2a fd 8e be ec 84 f4 bd 6f 92 5d 3e 8c cf af 3e
       -0.27927524 -0.11939415 0.21637891 0.34338033
0003c0 30 c2 8c 3e 0b d7 4b be 45 57 00 be 9d fe e5 3d
       0.27491903 -0.19906251 -0.1253329 0.11230204
0003d0 03 bf 37 3e 14 3a 2a be 7d d7 af 3d 89 ef a7 be
       0.17943959 -0.16623718 0.08586023 -0.32799938
0003e0 e5 60 58 be f5 3e ec 3d 57 74 bc bd 6c 2a e0 3d
       -0.21130712 0.115354456 -0.092018776 0.10945591
0003f0 4e 4d aa bd eb 48 7a 3b af c3 95 bd 3a 9c e6 3d
       -0.08315526 0.0038190435 -0.07312714 0.112602666

model.2.bias f4 [25]
000000 06 26 a0 3d a3 cb 8b 3d 56 1e 71 3d 75 c0 b2 bd
       0.078197524 0.0682595 0.05886682 -0.087281145
000010 83 5c 87 3e 01 ee 2a be ee b4 b0 bc 80 ae 1b 3e
       0.26437768 -0.16692354 -0.021570649 0.15203285
000020 97 7f 50 be 44 66 85 be 0d 90 d8 3c e0 ab 04 3e
       -0.20361172 -0.26054585 0.026435876 0.1295619
000030 99 6f 7d bd 4c 84 6e bd 04 b1 d9 bd 81 87 80 bd
       -0.061874006 -0.058231637 -0.10629466 -0.06275845
000040 fe 1a 32 3e 68 13 f0 bd e3 66 1a 3e d3 1c 0f 3e
       0.17393109 -0.117224514 0.1507831 0.1397584
000050 e3 1f 8c 3d ea e7 56 3e a6 fd c1 3d bd 75 7f bd
       0.068420194 0.20986906 0.09472208 -0.062368143
000060 9b 82 c7 3d
       0.09741708

model.4.weight f4 [25, 25]
000000 57 7f 17 3e 1a c7 8f bd d1 91 4f 3e 45 e2 02 3e
       0.1479467 -0.070203975 0.20270468 0.12781627
000010 91 ec cc bd 08 92 03 be 61 96 34 bc dc 5d 84 bd
       -0.10006059 -0.12848675 -0.011022181 -0.06463215
000020 d6 b1 27 bd a2 46 b8 bc d5 f7 3a 3c 29 1a f4 3c
       -0.040941082 -0.022494618 0.011411627 0.02979763
000030 e3 86 86 3d 8d ee 6c be d9 2a 8a be 6e 4d 5b 3b
       0.06568696 -0.23137875 -0.26985815 0.00334629
000040 67 fc da 3d 6f ed a1 ba 14 dd 43 bc 68 16 f6 3d
       0.10692673 -0.0012354086 -0.011954565 0.120159924
000050 97 02 1a 3e d6 2c e2 3d 63 50 2b bc 19 dc 3e be
       0.1504005 0.11043708 -0.010456177 -0.18638648
000060 77 c3 10 3e ae 44 21 3e 69 04 07 bb 6e 9a 07 be
       0.14137064 0.15748855 -0.0020601994 -0.13242504
000070 75 da 3a 3d 84 5d e2 bd 02 45 31 be 19 89 14 3e
       0.045618493 -0.11052993 -0.1731148 0.14505424
000080 d3 2f df 3d 13 85 1a 3e 08 12 01 be 9e 75 0c bc
       0.108977936 0.15089826 -0.12604535 -0.008572964
000090 69 d2 a2 3d 7d a3 71 3e 3a a6 20 3e c7 22 01 bc
       0.07950289 0.23597522 0.1568841 -0.007881827
0000a0 80 0a e4 bd eb d3 d8 bc 13 5b 71 be 9a 24 1e bc
       -0.11134815 -0.026468238 -0.23569898 -0.009652281
0000b0 bd fb b6 3d d8 a4 ce 3c b0 bb 3c 3e 28 2c 29 3e
       0.08934734 0.025225088 0.18430972 0.1652075
0000c0 50 38 b5 bd 95 66 29 3e 47 88 e1 bd 4b 13 35 be
       -0.088486314 0.16543038 -0.11012321 -0.17683141
0000d0 4f f6 63 bb 4e 49 26 be 74 59 14 be f3 99 82 3d
       -0.0034784263 -0.16238901 -0.14487249 0.0637702
0000e0 73 6e d0 3d 8c b6 65 bd 56 39 c9 bd f1 6a 0c be
       0.101773165 -0.056082293 -0.09825389 -0.1371267
0000f0 25 00 05 be 0a 1b 22 be 05 f9 a5 3d fd 4b b2 bd
       -0.12988336 -0.15830627 0.08104137 -0.087059
000100 0d d4 34 be 58 32 92 3d d5 40 ee 3d fc 3f 1d 3e
       -0.17659016 0.071385086 0.116334595 0.1535644
000110 57 77 c6 bd 93 ba 28 be 5c a4 10 3c 9e 40 c7 3d
       -0.09690731 -0.16477422 0.008828249 0.097291216
000120 a8 3b 5f 3d 4a a0 c1 bd 73 df 4e 3d 74 48 8b 3c
       0.054500252 -0.09454401 0.050506067 0.017002322
000130 b4 41 d2 bd 5c 38 f3 bd 55 63 ca 3d 23 8c f9 3c
       -0.10266438 -0.11875984 0.09882227 0.03046233
000140 b8 24 1b 3e 8c 2d 34 3e ef 6f 21 be b3 c2 4b be
       0.15150726 0.175955 -0.15765356 -0.1989849
000150 0c 40 49 be c8 15 26 be 96 74 25 3e d6 43 86 bd
       -0.19653338 -0.16219246 0.16157755 -0.065559074
000160 68 79 3b be 7f 4d 06 3d f0 f1 d3 3d 22 0c 2d be
       -0.18308032 0.03278875 0.1034888 -0.1689916
000170 ee 51 9d 3d fd 10 ea 3d 7a a9 e4 bd 73 5e 60 bd
       0.076816425 0.114290215 -0.111651376 -0.054777574
000180 e1 2a 48 be ab 94 25 3e 02 3c 61 3d b5 78 1c 3d
       -0.19547607 0.16169994 0.05498887 0.038201053
000190 19 8a fc 3c 4a 3c 1c be a7 9a 33 be da 04 8a 3d
       0.030827569 -0.15257373 -0.17539464 0.067392066
0001a0 e6 e4 e6 bd d3 ad d5 bd b3 d0 c2 3d 4c 76 5e 3e
       -0.11274128 -0.10433545 0.095124625 0.21724814
0001b0 9f 07 cd 3d 84 45 3c 3e 9c 0b 48 3d 50 16 5f be
       0.10011219 0.18385893 0.048839197 -0.21785855
0001c0 e1 95 a3 be 1f c3 38 be 0a 46 9f 3e de 60 dc bd
       -0.31950286 -0.18043183 0.31108123 -0.107606634
0001d0 71 df 00 3e ad d2 51 be 3b 33 19 3e 18 69 83 be
       0.12585236 -0.20490523 0.14960949 -0.25666118
0001e0 a8 6c 94 3d f2 c7 45 3d 90 37 70 bd 1b 08 e1 3d
       0.07247287 0.048286386 -0.05864674 0.10987874
0001f0 bf 87 87 3e 79 22 94 3c 6f 0f 00 3e f4 05 4f 3e
       0.26470754 0.018082844 0.12505887 0.20217115
000200 98 a2 87 3c 7a db f6 3d aa 9e 0a bd 19 6d 07 3e
       0.016557023 0.120535806 -0.03384272 0.13225211
000210 cf f0 4d 3d 50 f2 3d be 0c 9f 01 be bc 7f 0f be
       0.05027848 -0.18549466 -0.12658328 -0.1401357
000220 9a 18 ab bb 9c 12 84 3e 2c 31 22 be 55 e7 82 bd
       -0.0052214386 0.25795448 -0.1583907 -0.06391779
000230 87 ae 2d be 2b 6d 33 bd ad 4d ee bd 9e 37 c1 3c
       -0.16961108 -0.043805283 -0.11635909 0.02358609
000240 fe 19 2a 3e 90 c7 fc 3d d0 48 8e be de a4 62 3e
       0.16611478 0.12342751 -0.27789927 0.22133204
000250 8c 64 60 bd e6 86 f9 bd e3 92 8f 3d 3d e7 d0 bb
       -0.05478339 -0.12183933 0.07010438 -0.006375222
000260 b0 2b 71 be 7b 38 6a be 3b 67 c1 bc b8 d0 b9 bc
       -0.23551822 -0.22873108 -0.023608794 -0.022682533
000270 be 06 33 3e 69 75 44 3e 8d 28 b1 bd 8e ba 34 3e
       0.1748304 0.19185413 -0.086503126 0.1764929
000280 f2 86 2a be 75 61 5a 3d 54 51 5c 3d 23 2c 51 bd
       -0.1665304 0.0533156 0.053788498 -0.051067483
000290 34 26 20 3e 65 36 b6 3d 06 32 5b be 2a 11 05 3e
       0.15639573 0.08897094 -0.21405801 0.12994829
0002a0 49 5e 92 bd 27 10 31 3d 21 a1 57 3d 96 f7 00 bd
       -0.0714689 0.043228295 0.0526439 -0.031486116
0002b0 d0 a3 02 be 0e 2e 69 3d 21 cd 13 be 75 19 93 3b
       -0.12757802 0.056928687 -0.14433719 0.0044891187
0002c0 d0 2f 34 be 53 79 c9 3d 97 b1 9a bd 09 9e 07 3d
       -0.17596364 0.09837594 -0.07553404 0.0331097
0002d0 61 cf ab bd 53 93 10 bd 9f 77 c0 3c 92 92 d0 bd
       -0.08389164 -0.03529675 0.02349454 -0.10184206
0002e0 5d ff 72 be 9b ae 6c 3d e8 b0 61 3e dd 20 38 3e
       -0.23730226 0.057783704 0.2204014 0.17981286
0002f0 70 dc 10 3e d5 3c 13 3e 3e 47 01 be 85 9d 76 3e
       0.1414659 0.14378674 -0.12624833 0.24083526
000300 3c 71 f1 3c fb 90 ae 3c 72 dd c2 3c e3 47 19 3e
       0.02947294 0.021309366 0.023787234 0.14968829
000310 2b f4 44 be ff 2b 86 3e 3f 58 bf 3c 37 93 10 3e
       -0.19233768 0.2620544 0.023357509 0.14118658
000320 8c 82 4f be 71 10 de 3d 60 54 00 3e 1e 22 eb bd
       -0.20264643 0.1084298 0.12532187 -0.11481117
000330 9b 65 f0 bd 5c a0 8a bd 61 30 07 be 1c bb d7 bd
       -0.1173813 -0.067688674 -0.13202049 -0.10533735
000340 e8 99 08 be e5 77 89 3e 5b be 1b 3d eb a7 bd 3d
       -0.1333996 0.26849285 0.038023334 0.092605434
000350 f3 c7 0d be 6c b9 34 bd 5e c3 8f 3c fe 77 69 bc
       -0.13845806 -0.044122145 0.017549213 -0.0142498
000360 82 f0 02 3e 37 bc 73 3e a9 90 28 be 24 7d 13 bd
       0.12787059 0.23802267 -0.16461433 -0.036008015
000370 e2 b6 14 3d 2a c1 6d bd 86 65 42 3d 84 7c d3 bc
       0.036307223 -0.058045544 0.0474601 -0.02581621
000380 84 a0 80 bd 75 31 b9 3d 55 71 b8 bd 0f 3a 7d bd
       -0.06280616 0.09042636 -0.09005991 -0.061822947
000390 9c 42 e1 bd 39 cf c1 bc 1e b7 a4 3d e5 5d 33 3e
       -0.10999033 -0.023658382 0.08042739 0.17516287
0003a0 59 89 00 be 2e f9 3f 3c 44 a8 a1 3d 4d 1d 46 3e
       -0.12552394 0.011717124 0.07893422 0.19347115
0003b0 ab ba d2 3d 9d a6 3c be a2 c2 5d 3c eb 90 26 be
       0.1028951 -0.18422933 0.013535174 -0.1626622
0003c0 71 ee f0 bd f4 29 44 3e 8a fe a6 3d a4 17 48 3e
       -0.11764229 0.19156629 0.08154018 0.19540268
0003d0 c1 70 7c bd 43 37 46 be e5 60 13 bb 62 90 cb 3d
       -0.061630968 -0.19357018 -0.0022488174 0.09939648
0003e0 64 03 12 3e fd 86 0f be 6a c8 6f 3d 74 7f 1a be
       0.14259106 -0.14016338 0.05854074 -0.15087682
0003f0 fd 17 e7 bd 16 48 fe bb d9 4b bc 3c 70 4d 91 3d
       -0.11283872 -0.007760058 0.022985386 0.07094848

model.4.bias f4 [25]
000000 91 bf 53 3d 80 5d 82 be 36 1d 2c be 31 cc 30 be
       0.051696364 -0.2546196 -0.16808018 -0.17265393
000010 6c db d2 3d a5 5f 37 bd 72 eb 1e 3e ac 25 a0 bd
       0.10295758 -0.044768948 0.15519503 -0.07819685
000020 77 c8 67 bc 9e f3 49 3e d6 60 7a 3d 2b 8b b1 3d
       -0.014146916 0.19721839 0.061127506 0.08669122
000030 df d5 f4 bd d3 0f 22 bd 14 6e b0 be 96 b5 0d be
       -0.11954855 -0.039565872 -0.34458983 -0.13838801
000040 be 0a 84 bd 09 d4 2e be f4 79 1e 3e c9 d5 4f 3e
       -0.064473614 -0.17073072 0.15476209 0.20296396
000050 4f c5 12 3e c7 1e f9 3d d8 a0 16 bd d5 a2 42 3c
       0.1433308 0.121640734 -0.036774486 0.0118796425
000060 18 16 32 bd
       -0.0434781

model.6.weight f4 [25, 25]
000000 34 fb 33 3d 68 2e ab 3d 41 ce 36 3e ae 37 e4 bd
       0.043940738 0.08358461 0.17852117 -0.111434326
000010 d8 4b 82 3e c8 94 7f be 47 be ca bd 74 2f 1e bc
       0.2544849 -0.249591 -0.09899574 -0.009654868
000020 ff 13 07 3e fe cd 18 be 94 94 43 bd c9 f4 16 3e
       0.13191222 -0.1492233 -0.047749117 0.14741816
000030 a3 20 2b be e8 88 6b 3e be 8f 51 bd 38 6a b4 3c
       -0.16711669 0.23001444 -0.051162474 0.022023305
000040 9a c2 21 3e 93 5a 16 be bf 7e 91 3d 21 a4 85 3e
       0.15796891 -0.14682989 0.07104253 0.26101783
000050 8a 13 32 3d 65 63 79 bc 25 03 8d 3d fd 7b 2b 3e
       0.043475665 -0.015221451 0.068853654 0.16746517
000060 6f 73 b5 bd a3 e3 b9 bb a3 de 8e 3e 99 cf 37 3d
       -0.08859908 -0.0056728884 0.27904233 0.044875715
000070 8c 13 32 3e 40 7f 22 be 96 38 dd 3d 32 b2 09 3e
       0.17390269 -0.15868855 0.108018085 0.13446882
000080 2b d3 fe 3d c1 6f 30 3e eb 26 72 be a0 bf 0e 3d
       0.12442621 0.1723013 -0.23647659 0.034850717
000090 2c a0 ec bc 3a be 08 3e eb ea 86 be 39 4d 2d 3e
       -0.02888497 0.13353816 -0.26351103 0.1692399
0000a0 96 28 1d be 68 98 77 be ad b1 4c be ea 13 a7 3e
       -0.15347514 -0.24179232 -0.19989653 0.3263238
0000b0 e8 0b 3f be 85 82 16 be 24 de 73 b8 e6 88 f1 3d
       -0.18656886 -0.14698227 -5.81426e-05 0.117936894
0000c0 0a b3 15 be 4a 27 31 be 80 8d 18 3e 19 05 06 be
       -0.14619079 -0.17300144 0.14897728 -0.13087882
0000d0 12 ca 09 3e dc 5f f6 37 96 78 31 be 3d 6e 12 3d
       0.1345599 2.9370123e-05 -0.17331156 0.035749663
0000e0 23 51 20 3e 05 ec a3 bd 9f dd 53 3e 8d a1 38 3e
       0.15655951 -0.080040015 0.2069001 0.18030377
0000f0 0f 49 37 bd aa 25 40 3e 89 11 0c 3e 25 7c 31 be
       -0.04474741 0.18764368 0.13678564 -0.17332514
000100 e9 35 2a 3e 19 48 e9 3d 0d 30 3a be 3e 92 fb bc
       0.16622128 0.11390705 -0.18182392 -0.030709382
000110 9b b9 47 3e 06 f3 fb 3d 79 3b d2 bd 7d 81 ae 3d
       0.19504397 0.123022124 -0.1026525 0.08520792
000120 06 3f 35 3e f8 fe 2f 3e 93 bf 39 3e c0 33 41 3e
       0.17699823 0.17187107 0.18139486 0.18867397
000130 8d ee 2a be 13 da 98 bd 95 d6 17 be 97 3d 79 bd
       -0.16692562 -0.07463469 -0.1482795 -0.060849752
000140 c4 c4 b9 3d 63 a9 cd 3d ef 03 9c 3d d8 4f a1 bd
       0.09070733 0.100420736 0.07617938 -0.07876557
000150 31 33 53 3e 7c 6e cc 3d 76 40 40 3e 32 d2 34 3e
       0.20624997 0.09982011 0.1877459 0.17658308
000160 06 fb a0 3d fe 2f a2 bc 38 91 3c 3e 3f a7 2b be
       0.07860379 -0.019798275 0.18414772 -0.16763018
000170 17 de 79 bd 98 89 0f be 0e 17 de bd 68 74 13 3e
       -0.061002817 -0.14017332 -0.10844241 0.14399874
000180 47 c7 28 bd 9c 9e 78 3e 0c 7e 1c 3e 77 e1 1a 3e
       -0.04120567 0.24279255 0.15282458 0.1512507
000190 35 ab 3b be 5a 5d 94 bd 0d 0b c1 3c 86 7f 82 3d
       -0.18327029 -0.07244368 0.02356484 0.063719794
0001a0 f4 a6 0b be b8 27 f1 3d 23 28 ff 3c 8e 2c eb bc
       -0.13637906 0.11775154 0.031147068 -0.028707769
0001b0 14 59 26 be 14 27 3c 3e 49 f7 ec bd c7 d6 49 be
       -0.16244918 0.18374282 -0.115706034 -0.19710837
0001c0 93 2e b2 bd 70 3b 67 3d 12 f3 d2 3c f7 57 42 3e
       -0.087002896 0.05645317 0.02575067 0.18978868
0001d0 8b f2 c8 3d 0f 31 1c be 47 15 44 bd c6 8f 09 bd
       0.098118864 -0.1525309 -0.047871854 -0.03358438
0001e0 d7 7e af bd 60 b0 16 bd c4 3d dc bd f3 3d 96 3c
       -0.08569115 -0.036789298 -0.10753968 0.018340087
0001f0 8f 1e e5 bd 67 e9 87 bd 59 db 2a 3e 1a b0 13 3d
       -0.11187469 -0.06636315 0.16685237 0.036056615
000200 8a 2b 6f bd f8 94 e8 3d d4 d8 07 be 2e d5 e4 3c
       -0.05839113 0.113565385 -0.13266307 0.027933683
000210 f8 ad 82 be c3 56 18 3e 84 71 14 bd be 8c 04 be
       -0.25523353 0.14876847 -0.03624107 -0.12944314
000220 d8 87 1e 3e 66 f4 81 bb da c3 22 3d fe 25 10 be
       0.15481508 -0.003965902 0.03973756 -0.14076993
000230 06 82 38 3e 14 18 59 be e9 a5 c6 3d 9b 19 ff 3d
       0.1801835 -0.21200591 0.096996136 0.12456056
000240 3e 36 60 3c 0c fb 6d bd c0 4e 38 be f9 45 9e 3d
       0.013684807 -0.058100745 -0.1799879 0.0772819
000250 d6 7d c9 3d 39 b7 11 3e 1b 54 57 be 6f 2b 9f bd
       0.098384544 0.1423005 -0.21028177 -0.07771956
000260 b3 b4 85 3c 0d 07 83 3c 9a 6e 39 be ef ae 96 3c
       0.016321516 0.015994573 -0.18108597 0.018393962
000270 a1 ee 2e be 34 53 17 3d 0a 03 48 3e 9a 4e e2 3d
       -0.17083217 0.036944583 0.1953241 0.11050148
000280 b7 8a e8 bd 53 40 25 bd 1c ad 02 be ea d5 33 be
       -0.11354583 -0.040344547 -0.12761348 -0.1756207
000290 fb dc b5 bd ca 15 1b 3e 66 06 18 3e 33 75 40 3d
       -0.08880039 0.1514503 0.14846191 0.04698677
0002a0 9f f4 9a bd 15 ca 80 3d cc 01 75 bd b3 d4 3f 3d
       -0.07566189 0.06288544 -0.059816167 0.046833705
0002b0 a8 73 51 3d 13 52 45 3e 6e c6 8f 3d 00 62 43 3e
       0.05113569 0.1926959 0.07020269 0.19080353
0002c0 17 5f 61 3d 19 71 f6 3c 6a 97 2a 3e ab 3e 3b be
       0.055022325 0.030083226 0.16659322 -0.18285625
0002d0 98 06 13 3e fd 63 9c bd 14 e9 a5 3d 3d 76 61 3e
       0.14357984 -0.07636259 0.08101097 0.2201776
0002e0 8b 64 a4 bd 18 f4 d7 bd 3d 1f 89 bc 9e 6e 82 be
       -0.080269895 -0.10544604 -0.016738528 -0.2547502
0002f0 7b 47 4a bd b1 9b 0d be c0 16 24 3e 89 33 bf bd
       -0.049384575 -0.13828923 0.16024303 -0.093360014
000300 bc 1c e8 3c a1 dc ff 3d 1d 00 71 3e bc fb 16 bd
       0.028334014 0.124932535 0.235352 -0.036861166
000310 a4 0b c5 bd fa 2d 57 3e 75 0a 0a be e2 4d 44 be
       -0.09621361 0.21013632 -0.13480552 -0.19170335
000320 72 a0 18 3e f2 3a 22 bd 3a e5 1a be 4a b9 46 be
       0.14904955 -0.039606996 -0.15126505 -0.1940662
000330 74 1b a0 bd a7 4a e9 3c 6c ba fc bb 67 2f ef 3d
       -0.07817736 0.02847798 -0.007712653 0.11678963
000340 e1 ed 33 be 93 4a 52 3e 01 e3 d3 bb 71 f4 32 3e
       -0.17571212 0.2053626 -0.00646627 0.1747606
000350 cc 70 bd 3e 11 91 29 3e 85 c8 88 be b1 28 dc bd
       0.3700012 0.16559245 -0.26715484 -0.10749949
000360 28 3a ed bc 90 28 e9 bd 88 7e a2 be 2e 49 64 bd
       -0.028958395 -0.1138469 -0.3173716 -0.055733852
000370 3b 7e 10 3e 7c e2 d3 3d 23 ad 98 3d 26 d5 f4 3d
       0.14110653 0.10345933 0.07454898 0.11954717
000380 68 9f 1a 3e 3a d9 c9 bd 4e cf 09 3e 57 89 a5 3d
       0.15099871 -0.09855886 0.13457987 0.08082836
000390 2d 98 1d 3e 3f 8c 4f be c5 82 c7 bd a7 b3 d6 3c
       0.15390082 -0.20268343 -0.09741739 0.026208712
0003a0 8e c3 5e 3d 09 d3 f5 bd f9 91 c4 bd ad f9 92 3d
       0.054385714 -0.120031424 -0.095981546 0.07176528
0003b0 cf b5 4c be 71 95 3d 3e bf 1a 24 be c5 1b 98 3d
       -0.1999123 0.18514039 -0.16025828 0.074271716
0003c0 80 fa 44 be 89 7b c3 bd 4d f2 24 3e a2 8f 75 3e
       -0.19236183 -0.09545047 0.16108055 0.23980573
0003d0 fa 26 4c 3d cf fd 86 3d 5f 02 1f bd d6 ed 53 be
       0.04984186 0.06591379 -0.03882062 -0.20696196
0003e0 e9 0e a5 bc 81 88 81 be 32 ea 67 bd 60 32 72 bd
       -0.020148711 -0.25299457 -0.05661983 -0.059130073
0003f0 fd dc 0c 3e 22 1a 14 be af ef fd 3c 28 8f 99 bd
       0.13756175 -0.14463094 0.03099808 -0.07498008

model.6.bias f4 [25]
000000 e3 d6 61 bb e1 db 48 3e e4 fc 8d bd b0 fe 09 3d
       -0.0034460358 0.19615127 -0.06933001 0.033690155
000010 a6 fd 3a be 92 2d 3b 3e 8e aa 0e be ec b3 8c 3d
       -0.18260822 0.18279102 -0.13932249 0.06870255
000020 58 e1 37 3e 84 1c 92 bc f2 5f 04 3d 4c 34 87 bc
       0.17957056 -0.017835863 0.032318063 -0.01650443
000030 2c 38 0c be 71 66 bd 3d 6d ce a3 3d 00 27 ab 3d
       -0.13693303 0.09248055 0.07998357 0.08357048
000040 51 e8 ca 3d 0b e8 1d 3e f2 ce a2 3d e8 8c 7d bb
       0.09907592 0.15420549 0.07949628 -0.0038688723
000050 48 1b 7b bd be 21 90 3d 13 47 06 3e 02 30 13 3e
       -0.061305314 0.07037686 0.1311305 0.14373782
000060 db f9 07 3e
       0.13278906

model.8.weight f4 [25, 25]
000000 fc 2c 5b 3e cb 4b 15 bc 3f 0c 34 3e 93 7c a5 3d
       0.21403879 -0.009112309 0.17582797 0.08080401
000010 70 04 86 bd 85 b8 55 bd d7 4f b4 3d bc 52 60 be
       -0.06543815 -0.052177925 0.08804291 -0.2190656
000020 b3 b4 61 be 06 61 11 3e c6 10 34 be d5 34 85 3d
       -0.22041588 0.14197168 -0.17584524 0.065042175
000030 70 41 33 3d 67 72 06 ba 3b d8 04 3e c9 f2 5a 3e
       0.043763578 -0.00051287416 0.1297311 0.21381678
000040 32 a8 2e 3e 6c 5c 06 be 84 7c 18 3e 94 39 2a be
       0.17056349 -0.13121194 0.14891249 -0.16623527
000050 74 8f 35 bd 9a db 93 3e fc 32 40 3d fb 6a a6 3d
       -0.04432626 0.2887848 0.046923622 0.08125874
000060 29 5f 05 be 7c 7f 32 be 35 4a e4 bd 29 63 62 3c
       -0.13024582 -0.17431444 -0.11146966 0.013817587
000070 64 a0 46 3a 62 bb 49 be f0 f8 45 3e 24 15 d6 ba
       0.00075770007 -0.19700387 0.19333243 -0.0016333205
000080 5f d5 1e 3e 82 63 10 be 5e a3 3d be eb 5c 2d 3e
       0.15511082 -0.14100459 -0.18519351 0.16929977
000090 94 62 1b 3e b1 e9 14 be 08 82 94 3d 7d f5 24 3e
       0.15174323 -0.14542271 0.07251364 0.16109271
0000a0 57 c5 b7 3d 1b eb 2f 3d 9f 0a 48 be e8 db 18 3d
       0.089731865 0.042948823 -0.19535302 0.037319094
0000b0 39 35 19 3e e7 c2 3e 3d ad 29 2a 3e b0 72 ff 3d
       0.14961709 0.046572592 0.1661746 0.12473047
0000c0 3f 06 79 bd 1c 22 83 3c 7e 7d a5 bd 62 6b 3b 3c
       -0.060796972 0.016007476 -0.08080576 0.011439176
0000d0 72 a6 bd bd a3 58 cb 3d 33 d4 33 3b 3b 07 a0 bc
       -0.092602625 0.099290155 0.0027439713 -0.019534698
0000e0 8c 54 a4 3d a3 8e a0 bd ef 70 3a 3c 27 09 59 ba
       0.080239385 -0.07839706 0.0113794645 -0.0008279257
0000f0 f2 47 82 bc 1f f0 09 bc ca 40 2f be 90 e1 de 3d
       -0.015903447 -0.008419066 -0.17114559 0.108828664
000100 d7 e8 93 bb 3e b9 2c be dd 6c 39 3d 8b a4 00 3e
       -0.0045138407 -0.1686754 0.045269836 0.12562768
000110 4b 15 af 3d 55 65 90 3d c5 38 0e 3e dd 35 50 be
       0.08548983 0.070505776 0.13888843 -0.20333047
000120 74 85 81 3d 90 d9 1b 3e 07 bc 5c 3c 62 1e 35 3e
       0.06324282 0.15219712 0.013472564 0.17687371
000130 3a 51 c7 bc db 60 9d 3d 7a 9c 31 bd fb 87 df 3d
       -0.024330724 0.07684489 -0.04336212 0.10914608
000140 12 8f 2e be d1 96 64 bd c0 c7 4b 3e 1a af 49 be
       -0.17046764 -0.055807892 0.19900417 -0.19695702
000150 ac 80 15 bd 6f 69 df bc 27 93 ab bd e4 86 30 be
       -0.036499664 -0.027271954 -0.083776765 -0.17238957
000160 33 be 8e 3d 2c b6 89 3d 77 23 72 be 8f 7c 8e 3e
       0.06969871 0.067242 -0.23646341 0.27829406
000170 c5 ca ad 3d 48 6a 5b 3d 68 07 24 3e a1 23 4a 3e
       0.08485941 0.053568155 0.1601845 0.19740154
000180 31 42 9f be bc f6 39 3d 65 5a eb 3d 01 6f eb bd
       -0.31105188 0.04540132 0.11491851 -0.11495782
000190 81 fc 09 be 91 2a 91 3e ee c4 31 3e 29 b2 73 be
       -0.13475229 0.28352788 0.17360279 -0.23798431
0001a0 70 c6 0e bd a2 ae 0b be 67 38 9e 3c 6e ab 25 3e
       -0.034857213 -0.13640836 0.019314004 0.16178676
0001b0 29 fb ae 3d 7b 11 94 3c 45 43 d3 bd c6 d1 3a 3e
       0.08543999 0.018074742 -0.10315565 0.18244085
0001c0 35 ee df 3d 8c 93 7e bb 4f 09 11 be 88 b8 2a 3e
       0.10934106 -0.003884527 -0.14163707 0.16671956
0001d0 52 a7 22 be 63 cb 85 3d 32 24 11 3e a8 86 90 3d
       -0.1588414 0.065329336 0.14173964 0.07056934
0001e0 60 a1 a3 3d 1a 9d 4a 3c de dd 77 3e 82 6b 19 be
       0.07989764 0.0123665575 0.2420573 -0.14982417
0001f0 d4 c4 30 3d 64 90 2f 3e a3 90 33 be 5f 85 2b be
       0.04315646 0.17144924 -0.17535643 -0.16750096
000200 fc c8 7a 3d 97 f6 4b be e3 76 68 be 29 11 34 bd
       0.06122683 -0.19918285 -0.22701602 -0.043961678
000210 39 cd 1e bc 14 1f 0f 3e 40 3b 54 be fd 46 11 be
       -0.009692484 0.13976699 -0.20725727 -0.14187236
000220 dd eb 0e 3e 78 2b 04 3e 76 4d ef 3d dc 5b 2b 3c
       0.13957162 0.12907207 0.116846964 0.010458913
000230 11 74 f0 bd fc 0c 76 be 3d 5f 4b 3e 25 26 de 3d
       -0.11740888 -0.2402839 0.1986055 0.10847119
000240 2c 2e 7d 3e e4 7c 8b 3d 32 0b 0d bd a5 72 1e be
       0.24724644 0.0681093 -0.034434505 -0.15473421
000250 20 dd 09 3e 95 15 25 bd a6 35 ac bd e7 d9 11 be
       0.13463259 -0.040303785 -0.0840867 -0.1424328
000260 71 e4 53 3e 21 33 a0 3d fe 58 46 3d bf df fd bd
       0.20692612 0.07822252 0.048424713 -0.12396192
000270 36 33 1c 3e a1 04 e2 3d 13 c4 fb 3d ac c1 66 3d
       0.1525391 0.11036039 0.122932576 0.056337044
000280 7c dc 3f 3e 00 b4 f7 3d 30 1c 14 3d 6f 71 56 be
       0.18736452 0.12094879 0.036159694 -0.20941709
000290 c4 2c 50 3e 86 4f 17 3e 45 72 4d 3c db 3e 16 be
       0.20329577 0.1477643 0.012539451 -0.14672415
0002a0 31 1b 5f 3c 1f a1 32 3e 4f 13 b6 bd 0d f3 53 bd
       0.013617323 0.17444275 -0.088904016 -0.051745463
0002b0 05 f6 cc bd cc e4 08 bc 06 f5 56 be 54 4f a5 bd
       -0.10007862 -0.008355331 -0.20991907 -0.08071771
0002c0 29 70 54 bb 94 2f 06 3e 72 6f b1 bd 6a 12 f5 3d
       -0.0032415485 0.13104087 -0.08663835 0.11966403
0002d0 9b c1 81 3d b2 3f 38 3d fa c6 01 bd c3 66 85 3d
       0.063357554 0.04498262 -0.0316839 0.06513741
0002e0 2f 13 12 3e 3d 14 a4 bc 19 0e 80 3c 44 f0 0a be
       0.1426513 -0.020029182 0.015631722 -0.13568217
0002f0 39 0e 12 be 44 3a 71 bd 31 8b 53 3e e0 00 26 bd
       -0.14263238 -0.058893457 0.20658566 -0.04052818
000300 71 ce 15 bc a7 a2 d7 3c 18 7f 83 be ad a3 33 be
       -0.009143458 0.026322676 -0.25682902 -0.17542906
000310 50 b2 f6 3d b6 82 26 be d7 98 38 3e de c5 03 3e
       0.12045729 -0.162608 0.18027054 0.12868449
000320 cf 94 c0 3d 0e 71 e7 bd 34 3f 15 3d 24 20 e9 bd
       0.09403383 -0.1130086 0.03643723 -0.113830835
000330 39 ea ea bc 53 7a d3 bd 3f 75 1a 3e 8a fc f7 bd
       -0.02867614 -0.10326066 0.15083788 -0.12108715
000340 0a ff 91 3e 1b 33 40 be 2e fc 12 bd 76 81 d5 3c
       0.28514892 -0.18769495 -0.03588503 0.026062708
000350 61 89 f4 bd 3a 85 1d be 5e ad a4 3d 65 5d 68 3e
       -0.119402654 -0.15382853 0.0804088 0.22691877
000360 a2 f4 8a be e1 e4 29 3e 08 66 3b be 0e b8 41 3e
       -0.27139765 0.16591217 -0.1830064 0.18917868
000370 e6 33 1c be d6 4e 4f 3e 87 41 89 be 8c 01 46 3e
       -0.15254173 0.20244917 -0.26807806 0.19336528
000380 4a 90 32 be fc 73 fb bd a2 a4 75 be 77 90 ce bd
       -0.17437854 -0.12277982 -0.23988584 -0.10086148
000390 cf 0f cc bd d5 ff 22 3d ea 16 0e be e8 16 01 3e
       -0.09963953 0.03979476 -0.13875929 0.12606394
0003a0 c7 1f 33 be a1 58 71 3e 94 c7 08 be 23 71 09 be
       -0.17492591 0.23568965 -0.13357383 -0.13422064
0003b0 c6 69 35 3e b2 c1 3f 3d 15 d9 46 3e 01 2f 01 3e
       0.1771613 0.04681558 0.19418748 0.12615587
0003c0 b9 b9 dc bd 9b 82 9d bd 37 10 63 3e 31 3e c9 bb
       -0.10777611 -0.07690927 0.22174154 -0.006141447
0003d0 56 13 23 be 11 1e 1a 3e f2 12 d4 bd 13 5b 41 be
       -0.15925345 0.15050532 -0.10355176 -0.18882398
0003e0 7d fb 43 3e 5b 4f 92 3b ba 37 5c 3c 64 27 0f be
       0.19138904 0.0044650263 0.013441021 -0.1397987
0003f0 19 d7 00 be ec 32 de bd d3 dd 86 bd df 26 f0 bd
       -0.12582053 -0.10849556 -0.06585278 -0.11726164

model.8.bias f4 [25]
000000 02 77 26 3d f1 02 d1 bd 42 d6 a1 bd b0 cd e0 3d
       0.04064084 -0.10205639 -0.079021946 0.10976732
000010 d8 a8 db 3d c2 c8 d7 3c 99 a0 25 3e 3a 32 01 bc
       0.10725564 0.026340846 0.16174544 -0.00788551
000020 b3 71 f5 3d 2d 0a 5c 3e ee 8a f0 3d 27 0e 03 3e
       0.11984577 0.21488257 0.11745249 0.12798367
000030 62 fa 20 3c 47 bf 0a 3b 2e 76 6f bc 15 5e 32 be
       0.009825321 0.002117114 -0.014615579 -0.17418702
000040 9a e3 b9 3d 27 49 0e bd d8 3d 21 3e 68 df bc 3d
       0.09076615 -0.034737732 0.15746248 0.09222299
000050 61 d4 01 be 34 50 db 3c 6f 28 5d 3e b8 f7 b5 bd
       -0.12678672 0.026771642 0.21597455 -0.08885139
000060 d6 11 93 bd
       -0.07181136

model.10.weight f4 [25, 25]
000000 89 db c3 bd bf af 8f bc 65 aa ff 3d 1c a3 b2 bd
       -0.095633574 -0.017539857 0.12483672 -0.08722517
000010 27 59 17 3c c8 0e 87 3e 02 c0 01 be a6 5f 07 3d
       0.009237564 0.26378465 -0.12670901 0.0330502
000020 d2 22 5a 3e 2d 8c 62 3e cd 2d ac 3c 7d 0f 71 3e
       0.21302345 0.22123785 0.021017933 0.23541065
000030 de ab d5 3d ea 0f 0a bd 57 29 6f 3c 6b 14 0e be
       0.10433172 -0.033706583 0.0145972585 -0.13874976
000040 b0 07 98 3d 01 e8 56 be 56 37 4e 3e d0 a5 fa 3d
       0.07423341 -0.2098694 0.20138296 0.122386575
000050 7e 7e c7 bd 3f be 58 3d 7d 9b b2 bd 88 3d c3 bd
       -0.09740923 0.052915808 -0.08721063 -0.095332205
000060 bc 60 95 3d 2c e0 1e be f6 97 ab 3d 47 4c 1c 3c
       0.07293841 -0.15515202 0.083785936 0.00953967
000070 a4 68 07 bd dd 38 d9 bd ac ad 64 be 6b 9a 91 3d
       -0.033058777 -0.10606549 -0.22331876 0.07109531
000080 b7 9c 32 3e c5 d7 30 be 73 ef 05 3e 47 52 f2 bd
       0.17442594 -0.1726981 0.13079624 -0.118320994
000090 c4 ba 23 bd 54 36 0a be 87 98 b1 bc 65 af 3a 3e
       -0.039973035 -0.13497287 -0.021679176 0.1823097
0000a0 21 77 5b be 6b 34 2a 3e 64 98 c0 3d 89 b4 ca 3d
       -0.21432163 0.16621558 0.09404066 0.098977156
0000b0 5c bb 30 3e 84 1e 32 3d f9 4e 80 bd 59 10 e5 3c
       0.17258972 0.043486133 -0.06265063 0.027961897
0000c0 13 9d 33 be b1 4a a0 bc 78 26 67 3e 0b 81 24 be
       -0.17540388 -0.019566866 0.22573268 -0.16064851
0000d0 e5 32 3f 3d 3c e8 9d bd 09 f1 fb bb e0 17 4e be
       0.046679396 -0.07710311 -0.0076886457 -0.20126295
0000e0 e0 f2 c1 bc 72 11 06 3e 60 20 c2 bc e1 2c 12 bd
       -0.023675382 0.13092592 -0.023697078 -0.03568733
0000f0 a9 2e fb 3d c9 3d 07 bd 5e ff 85 bd f6 f6 cc 3d
       0.12264759 -0.033017907 -0.06542848 0.100080416
000100 2c 71 2c 3d 4e 06 86 be fd 35 49 3d 27 85 7f be
       0.042100117 -0.26176685 0.049123753 -0.24953137
000110 b8 8d 2a 3d 3c 2f 03 bc 4c b9 a3 bc df 27 f9 3d
       0.04163906 -0.008006867 -0.019985817 0.12165808
000120 0f 68 3d 3b c7 b2 8a bd 04 4c fc 3d 9a 37 cb bc
       0.0028901135 -0.0677238 0.12319186 -0.024806786
000130 8d df e4 3c c0 0a 1a 3d 65 85 20 be e0 4e c4 3d
       0.027938629 0.03760791 -0.15675886 0.09585357
000140 6a 30 ac bd ad c2 65 bd 9a 89 ae 3b 6a 97 96 3d
       -0.08407672 -0.05609386 0.005326462 0.07353099
000150 33 d4 ed 3b 93 7e b5 3d 30 6d 4a be fd da 39 be
       0.007257962 0.08862033 -0.19768214 -0.18149944
000160 48 57 48 3e 73 2a ec bd 9d 23 b2 bd f3 bb 09 bd
       0.19564545 -0.11531534 -0.08698199 -0.033626508
000170 df e8 34 be 9a ec ba bc da c0 1d be 3a 40 3e be
       -0.17666958 -0.022817899 -0.15405598 -0.18579188
000180 67 9e 14 3d c7 42 ea 3d 57 0f ec bd 6a 1d 06 3e
       0.036283877 0.11438518 -0.11526363 0.13097158
000190 6d 97 85 bd 03 f0 4a bd 31 28 14 bd 33 63 e8 bd
       -0.06523023 -0.0495453 -0.036171142 -0.11347046
0001a0 84 42 46 be ac fe b3 3d e5 c2 c1 bd 38 cd a6 bd
       -0.19361311 0.08788809 -0.09461001 -0.08144611
0001b0 38 05 42 3d 76 45 16 bd 40 c8 38 3c 0d 4c 2e 3e
       0.04736826 -0.036687337 0.011278212 0.17021199
0001c0 ae 91 1e 3e 30 79 f0 3d a9 53 19 3e 03 71 80 bd
       0.1548526 0.11741865 0.1497332 -0.06271555
0001d0 54 8d 32 be ed d9 c8 3d 6d 0e 61 3d 2f 61 34 bd
       -0.17436725 0.09807191 0.054945398 -0.044037994
0001e0 29 28 5c 3e f1 ff 10 be 23 3c 39 be aa 37 d2 bb
       0.21499695 -0.14160134 -0.18089347 -0.006415327
0001f0 34 f7 18 3d 2f 5c 9e 3d 50 92 21 be 21 de f0 3d
       0.037345126 0.077324264 -0.1577847 0.11761118
000200 29 f4 d2 bd f8 c9 7c 3e 33 52 4d be da 74 e5 bd
       -0.10300476 0.2468642 -0.20050888 -0.11203928
000210 20 0a b6 bd 06 6f 19 be d9 c5 12 3d 2c 6c 1b be
       -0.0888865 -0.14983758 0.035833213 -0.15177983
000220 c7 9f 5f 3e d1 c4 33 3e 91 52 10 be 80 5c 38 3e
       0.21838294 0.17555548 -0.14093997 0.18004036
000230 55 55 0f 3e e6 39 34 3e f8 3d de 3d 6b 7b 2c 3e
       0.13997395 0.17600212 0.10851663 0.16843955
000240 bd 39 a9 3d 6b 44 25 3e 55 21 33 be 1c 5f 0d 3d
       0.08262966 0.1613938 -0.17493184 0.03451453
000250 1d 68 35 3e b5 35 4f be 20 a1 12 3e 5c 54 38 bd
       0.17715497 -0.20235331 0.14319277 -0.045002326
000260 63 ab ef bd 67 25 96 bd e3 71 1b 3d 19 17 4e 3e
       -0.11702611 -0.07331353 0.037950408 0.20125999
000270 6f b9 3f bc 8b ae f8 3d 40 25 d5 3d 44 e0 fa 3c
       -0.011701926 0.121426664 0.104074955 0.030624516
000280 e7 68 05 3c 76 ce 23 3d b2 88 f2 bd da 7f b8 3d
       0.008142686 0.03999182 -0.11842479 0.09008761
000290 a3 5e 16 be 6d a0 83 bd 20 0d d8 bc ef a4 f2 bd
       -0.14684539 -0.06427083 -0.026373446 -0.11847865
0002a0 17 39 13 bd 61 81 d4 bc 07 00 55 3e e9 db 74 3e
       -0.035943117 -0.025940599 0.20800792 0.23912014
0002b0 10 e0 07 bd f9 6a 10 be e0 bf da 3d 9a bf 0d 3e
       -0.033172667 -0.14103307 0.106811285 0.13842621
0002c0 8b e1 10 3e 4d 0f 73 bd da cb 1a 3e b0 99 11 3d
       0.14148538 -0.059340764 0.15116826 0.03554696
0002d0 a6 2f c4 3d 24 a3 74 3e 12 f3 e1 3d 5e 00 45 3e
       0.09579401 0.23890358 0.1103269 0.19238421
0002e0 f1 00 88 bd 41 2c 13 be b8 0b 18 3e 5c 33 ee bd
       -0.066408046 -0.1437235 0.1484822 -0.1163089
0002f0 a1 96 f2 3d 6f 41 b1 3c db d1 be 3d 1f fc 55 3e
       0.118451364 0.021637646 0.093173705 0.20896958
000300 dc 07 8d bd ae ab 63 3e d1 70 06 bb 2a d4 63 3e
       -0.06886265 0.2223346 -0.002051402 0.22248903
000310 0f 2d 9b bd b1 0a 6a 3d 7c f9 0d be 1e af 05 be
       -0.075769536 0.057139102 -0.13864702 -0.13055083
000320 6b fd b8 bd 77 46 c5 3d 45 4e 0b bd c1 9f 3d 3e
       -0.09032711 0.09632581 -0.03401019 0.18517973
000330 c2 97 44 bd 85 79 ee 3a 03 72 c5 bd 5a 79 ec 3c
       -0.04799629 0.0018194175 -0.09640887 0.028866459
000340 2f 27 1a be 00 b4 66 be 18 0f 12 3e a7 cc 44 be
       -0.1505401 -0.22529602 0.1426357 -0.19218694
000350 11 19 63 bc 5a fb 8b 3d 12 88 e8 bd 68 dc 15 be
       -0.013860957 0.06835051 -0.11354078 -0.1463486
000360 64 f5 77 3c cf 2f 0a be b1 a8 ec 3c 55 cb 32 be
       0.015134189 -0.134948 0.028889032 -0.17460378
000370 a0 98 37 be fa 80 05 3d 59 a5 0b be a0 01 7c bd
       -0.17929316 0.032593705 -0.13637294 -0.061524987
000380 e1 b2 1e 3e bc a6 35 be 93 7e c8 3d 1b 7a 0e 3e
       0.15497924 -0.17739385 0.09789767 0.13913767
000390 55 09 f3 bc 60 47 bf 3b 28 a5 26 be ec 16 2c 3d
       -0.029667536 0.005837366 -0.1627394 0.042014048
0003a0 67 65 13 be 38 82 81 be 26 82 de 3d 7a ee 40 3d
       -0.1439415 -0.25294662 0.108646676 0.04710243
0003b0 6f 73 15 be df a3 0a be 20 56 57 bc 3d 0e 70 bd
       -0.14594816 -0.13539074 -0.013143092 -0.05860733
0003c0 9a 54 18 be 45 2c 35 be 05 16 35 3b 7e a8 4a be
       -0.14876023 -0.17692669 0.0027631533 -0.19790837
0003d0 1d d4 1e be 51 10 16 be 49 81 c8 3d 38 b6 e5 3d
       -0.15510602 -0.14654662 0.09790284 0.11216396
0003e0 d3 17 19 3e 6b 5f 8a bd c6 a2 52 be 0f 0e 1b be
       0.14950494 -0.06756481 -0.20569906 -0.15142082
0003f0 60 2a 0f be 6c 01 a8 bd be 3e 57 bc 8c 48 3c 3e
       -0.13981009 -0.08203396 -0.0131375175 0.1838705

model.10.bias f4 [25]
000000 47 0a f6 3c 88 df 04 3e ae 92 33 3e ba 85 4b be
       0.030034197 0.12975895 0.17536423 -0.19875231
000010 bb 0e 81 be 42 be 56 bd b9 26 70 be 81 8b ef bc
       -0.2520655 -0.052427538 -0.23452272 -0.029241325
000020 7e 0e e1 3d da 3e 3f 3e 26 4c c9 3d f9 ba 2d 3d
       0.10989092 0.1867632 0.09828977 0.04241464
000030 e2 cc 0a be 32 25 59 be ad d5 96 bd 79 28 01 bd
       -0.13554719 -0.21205595 -0.07364974 -0.03153274
000040 67 25 85 3d 39 d8 42 be fa b7 a4 bd 2e fc e2 3d
       0.065012746 -0.19027795 -0.08042903 0.11083256
000050 3e 85 db 3d a7 48 38 3e d0 0d 55 bd f5 e2 40 be
       0.10718773 0.17996465 -0.052015126 -0.18836577
000060 1c b3 68 3d
       0.056811437
