nn4_40.pt (torch, 32034 bytes, 11 tensors)

model.0.weight f4 [40, 10]
000000 02 3f 70 be cf f6 33 be e0 be 95 be ab df 27 3c
       -0.23461536 -0.17574619 -0.2924719 0.010246198
000010 09 2a a1 be ea ce ab bd 63 99 59 be dc 1d ca bd
       -0.31477383 -0.08389075 -0.21249919 -0.098689765
000020 1c 15 53 be 0e db 6e be 83 78 9b bd d2 0b 88 be
       -0.20613521 -0.2332575 -0.07591345 -0.26571518
000030 03 dc 6c 3e 8e de 38 3d 34 98 ca 3d fd fa 3f bd
       0.23130803 0.04513412 0.09892312 -0.04687022
000040 dd e7 94 be c5 87 dd 3a ea ce 02 be a3 19 8a be
       -0.29083148 0.0016901424 -0.12774244 -0.26972684
000050 a6 b7 11 3e aa 59 85 bd 32 b5 85 3e f4 bb 82 be
       0.14230213 -0.06511243 0.26114804 -0.25534022
000060 ce 9f eb bd d7 80 31 be e2 83 b8 bd e1 9b 7a be
       -0.1150509 -0.17334305 -0.0900953 -0.24473526
000070 45 1f 6b 3e 8f ce 72 3e c9 aa 8b bd f3 7f 9a be
       0.22961147 0.23711608 -0.06819684 -0.30175743
000080 36 7c cd bd ca 7f f2 3d 0d a8 ce 3d ba 3f 25 bd
       -0.10033457 0.1184078 0.10090647 -0.040343978
000090 62 21 1b be db cd 17 3e 17 bf 8f bd 83 f1 fa 3c
       -0.15149453 0.14824621 -0.07018869 0.03063274
0000a0 fc 4d 42 bd 67 de 08 be d7 4e 1d 3b 6e b4 27 be
       -0.047437653 -0.1336609 0.002400329 -0.16377422
0000b0 1e 73 c0 3b f1 2f 31 3d 94 7f 86 bc b9 34 b6 3d
       0.005873098 0.04325861 -0.016418256 0.08896775
0000c0 b6 ae 60 be fc ce 9e 3e 62 71 56 be 0d df 6a be
       -0.21941647 0.31017292 -0.2094169 -0.2293665
0000d0 f1 73 d0 bd 6c 04 9a be 22 08 bf 3c 20 76 64 3e
       -0.10178364 -0.300815 0.023319308 0.22310686
0000e0 13 73 9d 3e eb aa e4 bd 4f e2 40 bd d1 9c dd bd
       0.30751857 -0.111654125 -0.047090825 -0.10820926
0000f0 84 ae ce bd ea 9b 84 be 22 40 9a bd d5 de 9a 3e
       -0.1009188 -0.25900203 -0.075317636 0.30248132
000100 44 c0 8b 3e 54 28 96 3e df 27 7c 3e d7 e9 4d be
       0.27295125 0.29327643 0.24624585 -0.20108734
000110 be 53 9c 3e fb 58 59 3e f5 5d fd bd 37 76 c6 bd
       0.3053264 0.2122535 -0.123714365 -0.096905164
000120 4e 83 58 3e 5a 01 29 bc ec 3a 99 3e 82 74 8c be
       0.21143839 -0.010315264 0.29927766 -0.27432638
000130 26 4a 9c be 88 08 a6 bd 2c 42 9c 3e 3e 29 4b bd
       -0.3052532 -0.08107096 0.30519235 -0.04959988
000140 ef 18 ee bc 61 c3 68 3d 10 c8 c0 3c 9b b7 6e 3e
       -0.029064624 0.056826953 0.023532897 0.23312227
000150 2c 76 53 3d 0b 3c 85 bc df 7c 93 be 1d 7b 3b be
       0.05162637 -0.016263982 -0.28806207 -0.18308683
000160 7c b9 7e 3e 5d 8d 9c 3c 55 3e 0a 3e 74 44 a5 be
       0.24875444 0.019110376 0.1350034 -0.32278788
000170 98 c4 0a be 5c 0e 66 be fe c1 94 3e f3 c7 18 3e
       -0.13551557 -0.22466415 0.29054254 0.14920025
000180 42 94 76 be f7 2b 17 be 2f c7 7f bd db 3f 31 be
       -0.24079993 -0.14762865 -0.062445816 -0.17309515
000190 68 15 9f bd b7 f6 32 be 17 ad 38 3e 87 90 4e be
       -0.07767755 -0.17476927 0.18034779 -0.2017232
0001a0 f9 77 9f 3d d9 ef 14 3e d7 95 90 3e 8d 5f 42 3e
       0.07786555 0.1454462 0.2823932 0.18981762
0001b0 13 8b b0 bc 7b a5 1b be 4d 2f 39 bd e4 a4 2c be
       -0.02155069 -0.15199845 -0.045211125 -0.16859776
0001c0 eb 93 8e be 16 42 3a 3e 64 c8 13 be 8c f4 e8 bd
       -0.27847227 0.18189272 -0.14431912 -0.113747686
0001d0 61 89 5f 3e 46 8d db 3d 92 86 90 be dc 1f 8e 3d
       0.2182975 0.10720305 -0.2822767 0.069396704
0001e0 ed aa 86 bc 77 5d 24 3e 78 70 e9 3c b3 20 af 3d
       -0.016438926 0.16051279 0.028496012 0.08551159
0001f0 ac 03 b1 bd 89 a0 80 be 2f a7 75 3e 6c 73 4b be
       -0.086432785 -0.2512248 0.23989557 -0.19868249
000200 3b a1 11 3e ce d3 28 3c da ff a5 bd 64 88 0e be
       0.14221661 0.010304404 -0.081054404 -0.13919216
000210 b4 8e 68 be 96 c5 89 be f1 d9 b3 bd f4 05 38 3e
       -0.22710687 -0.2690856 -0.087818034 0.17971021
000220 f0 5b 0e 3e 9c f4 42 be 35 ea 9c be f0 9b d6 bd
       0.13902259 -0.19038624 -0.30647436 -0.104789615
000230 5e 55 1d 3e af d8 95 3e b2 2d bb bc cd ca 92 bc
       0.15364596 0.2926688 -0.022848938 -0.017918969
000240 76 f7 53 be 40 a1 35 bd 65 a1 b8 be b8 d3 9c be
       -0.20699868 -0.044343233 -0.36060634 -0.3063028
000250 a7 c8 97 be f9 b1 85 3d a4 a8 20 be f6 56 20 be
       -0.29645273 0.06528086 -0.15689331 -0.15658173
000260 1b ee d2 3b 6f 2f 25 3e 00 5c 41 be 61 c9 de bd
       0.006437076 0.16131376 -0.18882751 -0.10878254
000270 88 08 6d 3e 27 3f 5e be 66 f4 83 3e 58 fc 67 3e
       0.23147786 -0.21703778 0.257724 0.22654855
000280 b2 21 24 3e 25 2d 29 3e 18 9c 19 be 4e 1d bd 3d
       0.16028479 0.16521128 -0.15000951 0.09234105
000290 8b 7b ed 3d 74 8b 75 3e a4 94 6a be 6e a3 39 be
       0.115958296 0.23978978 -0.22908264 -0.1812875
0002a0 22 48 9c 3d f5 e1 20 3d dc 56 83 bd 72 15 f6 3d
       0.07630946 0.03927799 -0.064130515 0.12015809
0002b0 cf e4 90 be 19 22 5f be d9 6e 7a be c1 d6 b6 3c
       -0.28299567 -0.21790351 -0.24456348 0.0223192
0002c0 ba 50 13 3e 21 60 55 bc ed cf f6 bd d3 2e 5d 3e
       0.14386263 -0.013023407 -0.120513774 0.21599893
0002d0 09 e9 73 3e 41 cc 57 3d f4 a1 91 3e 0f 6c 82 be
       0.23819365 0.052685026 0.28443873 -0.25473067
0002e0 74 b3 53 3d 7a 9f 3a be 4c 46 0a be 43 f4 2a 3e
       0.05168481 -0.18224898 -0.13503379 0.16694741
0002f0 06 03 f9 bb aa f7 3c 3e 60 65 ba 3d d4 aa 9a be
       -0.0075992374 0.18453851 0.09101367 -0.30208457
000300 59 04 62 be f8 8c 96 be 65 39 4a 3e 6b b0 04 be
       -0.22071971 -0.29404426 0.19748457 -0.12957923
000310 cc c4 01 3d 3e 74 ae bc 79 56 95 be f2 52 61 be
       0.03168182 -0.021295663 -0.29167536 -0.22004297
000320 82 32 b9 3d 75 9c a2 3d 4d 9d 39 3e 0b b2 8f 3d
       0.09042837 0.07939998 0.18126412 0.07016381
000330 c6 f0 43 3e 39 16 ae 3d bf 89 5f 3e 26 a5 97 bd
       0.19134817 0.085003324 0.2182989 -0.074045464
000340 43 a8 16 3d dd 4e 4f be ea dd 81 3d 9b 26 44 be
       0.03678156 -0.20244928 0.06341155 -0.19155352
000350 46 0b 91 bd 3d 75 6c 3e 55 83 70 3e 75 3d 73 3e
       -0.07082228 0.23091598 0.23487599 0.23753913
000360 62 4c 22 3e f2 1d 2f 3e 1d 47 cb bc 06 e3 2f 3e
       0.1584945 0.17101267 -0.024814183 0.17176446
000370 53 85 b1 3b ac 5a 89 be 6f 9b 31 bc 90 bd 18 3d
       0.005417505 -0.2682699 -0.010840281 0.037290156
000380 27 97 c4 b8 42 87 a0 3e 5b dd 81 3e e5 97 95 be
       -9.3741626e-05 0.31353194 0.25364193 -0.2921745
000390 dc 80 57 3e 91 e3 9d 3e 67 7a 6f bd 4a 0c 55 3e
       0.2104525 0.30837682 -0.05846634 0.20805469
0003a0 91 cb 16 3e 38 25 23 be 7a 20 94 be 25 40 81 3d
       0.14726092 -0.15932167 -0.28931028 0.06311063
0003b0 91 d1 90 3e a8 fc b4 bc c7 f2 c6 3c 5f 0b eb 3d
       0.28284886 -0.022093132 0.024285687 0.11476778
0003c0 ee 3d 0c be a8 a9 7d be 65 c3 64 be 5b 97 d8 3d
       -0.136955 -0.2477175 -0.22340162 0.10575744
0003d0 d1 a0 13 be ec ce 91 be d5 4f 88 bd 13 0a 40 3d
       -0.14416815 -0.2847818 -0.06655852 0.046884608
0003e0 7c 7b f4 bc 0d 70 9b be aa 95 46 bd 25 f1 3c 3c
       -0.029844038 -0.30358925 -0.048482575 0.011532103
0003f0 90 07 81 3d 27 76 00 3d ad f0 2e 3d ea 66 4a be
       0.063002706 0.03136268 0.042709995 -0.19765821

model.0.bias f4 [40]
000000 68 48 60 bd b6 bd 80 3e ff 1a 5f bc 90 2a 8b bd
       -0.054756552 0.25144738 -0.013617276 -0.067952275
000010 fc f1 8c be 46 2b 01 3e 77 e9 59 be 52 a3 dc bd
       -0.2752837 0.12614164 -0.21280466 -0.107733384
000020 11 e1 75 3e 5d d8 95 be 18 d7 62 3d ec fc fa bd
       0.24011637 -0.29266635 0.05538091 -0.12255272
000030 41 50 3a 3e 31 55 fc 3d 2a 65 20 be ad a1 69 be
       0.18194677 0.123209365 -0.15663591 -0.2281558
000040 06 8d 12 3e 7c 14 7a be 56 5b 06 be bd 8f 52 bd
       0.14311609 -0.24421877 -0.1312078 -0.05140661
000050 28 a8 61 be eb 85 bd 3d bc 65 cb bd dd 1e 08 3e
       -0.22036803 0.092540585 -0.09931514 0.13293023
000060 e2 f1 9c bd 9b bc 9f be 9c 59 9c bc 26 8a 9e be
       -0.07663323 -0.31198582 -0.019085698 -0.30964774
000070 05 46 13 be 95 33 41 be 42 5e 87 be 5e 3e 10 be
       -0.14382179 -0.18867333 -0.264391 -0.14086291
000080 5e 46 56 be 92 aa 4a be 17 77 8a 3e a6 78 74 be
       -0.2092528 -0.1979163 0.27043983 -0.23874149
000090 81 c0 81 3e 4d 29 1a bc 3e bb 9f be 8a 2c 31 be
       0.2534218 -0.009409261 -0.31197542 -0.17302147

model.2.weight f4 [40, 40]
000000 71 4a b6 3d 6e 7d c7 3d d7 ff d0 3b c4 3f 35 bd
       0.08900917 0.09740721 0.0063781547 -0.044250265
000010 0e ff 6e bd 29 dc 52 bc 94 c5 9a bd 10 ca da bc
       -0.058348708 -0.012869873 -0.07557216 -0.026707679
000020 6c 73 00 be c2 30 6e bd aa 92 e7 bc 76 53 10 be
       -0.1254403 -0.058151968 -0.028268177 -0.14094338
000030 88 0d 90 3b 33 8e 0a be ae 83 03 3e 3f 45 a8 bd
       0.0043961443 -0.13530807 0.128432 -0.08216333
000040 0b dd 1b be 9e 1f 19 be 52 ff 5c bd 01 ba b3 3d
       -0.1522104 -0.14953467 -0.05395443 0.08775712
000050 e2 94 be 3b 31 cd eb bd 65 b4 e7 3d 8b e0 05 be
       0.005816088 -0.115137465 0.113137044 -0.13073938
000060 0c 7c 22 bd 6f 63 04 3d 49 4c 1d be 5a 8a a8 bd
       -0.03966908 0.03232139 -0.15361132 -0.082295135
000070 26 d8 aa 3d 62 51 33 bd c2 49 1f be 92 24 bc 3d
       0.08342008 -0.043778785 -0.1555548 0.09186663
000080 98 f8 4e ba 17 c9 16 3e 86 b7 c3 bd b7 5b 9f 3c
       -0.000789532 0.14725147 -0.09556489 0.019452913
000090 e5 30 8a 3d 50 cb ac bd f8 cb d8 3d d2 c1 06 3d
       0.06747607 -0.08437216 0.10585779 0.032899685
0000a0 01 63 b8 bb 42 6f 10 be 5a 01 4d be a7 55 c0 3d
       -0.0056270366 -0.14104941 -0.20020047 0.09391337
0000b0 6d ba b4 3d 31 16 8d bd 18 89 03 be 57 9e 2e bd
       0.088246204 -0.06888998 -0.12845266 -0.042631473
0000c0 52 73 e1 bd ef 8c ae bc 90 1f 06 3e 40 eb 95 bd
       -0.11008324 -0.021307437 0.13097978 -0.07320261
0000d0 ac 3b 8f 3d f9 4c 24 3d f6 be 02 be 2d 45 10 be
       0.069938034 0.04011247 -0.12768158 -0.14088888
0000e0 36 cf 5f bc 33 8a 19 3d c9 17 7d 3b b9 ef 45 bd
       -0.013660243 0.037485313 0.0038618913 -0.04832432
0000f0 91 bc 67 be e0 d3 42 be fa a6 8f bd 25 27 c7 bc
       -0.22630526 -0.19026136 -0.0701427 -0.024310658
000100 7b 8e ce 3d ab 28 15 be 91 7e 88 3d 64 a1 c6 bd
       0.1008577 -0.14566295 0.066647656 -0.096987516
000110 7e 32 c5 bd 05 0d e3 3d 9a ca ae bd 08 b0 ba bd
       -0.09628771 0.11086468 -0.08534737 -0.091156065
000120 bf f6 fd bd b4 55 fc 3c d5 23 14 bd 81 97 8d bc
       -0.12400579 0.030802585 -0.036166985 -0.017284157
000130 27 b2 86 bb 89 57 19 3e 06 0d 54 3d 67 75 2b bd
       -0.004110593 0.14974798 0.051770233 -0.04186001
000140 a4 51 10 be 8e af 8d bd c8 46 22 bd 1a 52 a0 3c
       -0.14093643 -0.0691825 -0.039618284 0.0195704
000150 f6 6a d5 bd 64 37 2a 3e 66 38 cb 3d 7d 56 17 bc
       -0.10420792 0.16622692 0.099228665 -0.009236929
000160 90 e3 c9 bd 7b 67 a7 bd 04 e9 bd 3d ec 08 49 3c
       -0.09857857 -0.08174034 0.0927296 0.012270194
000170 88 94 0a 3d ff 1d 67 3e 3b e3 f3 bd 3f aa 05 be
       0.033833057 0.22570036 -0.11908575 -0.13053225
000180 08 81 10 3e 79 10 01 be 7f 28 a0 3b e7 2b 30 bd
       0.14111722 -0.1260394 0.00488764 -0.04301062
000190 15 f3 ce 3d 3c ec 63 3c 46 ee e8 3d 0d f9 ed 3d
       0.10104958 0.013911303 0.11373572 0.11619768
0001a0 2f 2d bd bd 9d 02 f7 3d 10 72 2a bd 7f 7d 9f bd
       -0.09237134 0.12061045 -0.041612685 -0.07787608
0001b0 4d 34 7a 3a 5b 34 8f bd ca b1 5a 3d 1b 4a ce bd
       0.00095445366 -0.06992408 0.05339221 -0.10072728
0001c0 53 a5 28 be fe 30 f1 bc f8 6e 30 3e 6e 23 e2 bd
       -0.16469316 -0.029442307 0.17229831 -0.11041914
0001d0 b8 48 2d bd f7 91 a7 3d fa e2 fc bd e3 95 61 3d
       -0.042305678 0.081821375 -0.1234798 0.055074584
0001e0 0d d9 0f be 82 78 e7 bd a3 e7 16 bd 1b 03 81 3d
       -0.14047642 -0.11302282 -0.036842 0.062994204
0001f0 86 c5 c5 bd d7 84 f9 bd f6 a4 91 bc 3a 5f 9f 3d
       -0.09656815 -0.1218354 -0.017778855 0.07781835
000200 d6 ea 81 3b 9e 93 be 3d 3b a4 17 3e 7e 1a c4 3d
       0.003964762 0.093054995 0.14808743 0.095753655
000210 23 c2 18 3d b5 29 37 bd f6 05 a5 bd 78 fc 08 bd
       0.03729452 -0.04471751 -0.080577776 -0.033443898
000220 28 c7 8e be 21 fc d2 3d 71 65 52 be 29 4d fb 3c
       -0.2788632 0.10301996 -0.2054651 0.030676441
000230 a9 cc 5d be 97 a8 39 be 9f cc 43 be 5c 34 19 bd
       -0.21660103 -0.18130718 -0.19121026 -0.03740345
000240 87 93 5f 3d 0f 13 12 3e 38 f5 d3 bd 49 a7 a4 3d
       0.054584052 0.14265083 -0.10349506 0.080397196
000250 4a bf 20 3e e6 14 12 bc 57 86 0d bd 6a 32 00 bd
       0.15697971 -0.008916115 -0.034551945 -0.03129808
000260 c0 bf 09 be 96 4d 0b be 3f 42 8a 3d 83 32 22 be
       -0.13452053 -0.13603815 0.06750917 -0.15839581
000270 b8 e0 5c bd d4 c9 9e bc ac 93 98 3d ad 14 17 be
       -0.053925246 -0.019383349 0.07450041 -0.14753981
000280 01 77 03 3e bd 0c 10 bd ce ed 8c bd 8e 69 d4 bd
       0.12838365 -0.0351684 -0.06881295 -0.103716955
000290 c8 28 c2 bc ec 32 13 be c0 6b bc bd 08 77 e9 bc
       -0.023701087 -0.14374894 -0.09200239 -0.028499141
0002a0 fa fa cc bd 52 49 11 be 6c e3 d0 3d 29 21 a9 bb
       -0.100088075 -0.14188126 0.10199627 -0.0051614237
0002b0 58 ec 60 bc 50 1e ea bd 82 cd ba bd 10 88 07 3e
       -0.013728224 -0.11431563 -0.09121229 0.13235497
0002c0 fb 12 a0 be 44 03 03 bc cf d2 51 bc d6 39 cc bd
       -0.3126448 -0.007996384 -0.012806608 -0.09971969
0002d0 e3 63 b5 be 8c 9d f4 bd 8b 70 8a bd ea f9 3f 3d
       -0.3542777 -0.11944112 -0.06759747 0.046869196
0002e0 c0 01 ed 3d 9d f9 b9 bd 18 c9 04 3e 33 de 13 bc
       0.115725994 -0.09080813 0.12967336 -0.009025144
0002f0 ae 9d 91 3d 0d 66 d7 bd 49 8d d6 bc b8 cf bf 3d
       0.07110153 -0.105175115 -0.026190417 0.09365791
000300 56 a9 1c be b7 e4 00 3c ac 01 25 3d f1 a6 aa 3b
       -0.15298972 0.00786703 0.040284798 0.0052078892
000310 84 1f 2b be c3 86 6b 3d a5 26 a0 bd f0 c9 df 3c
       -0.16711241 0.057501566 -0.07819871 0.027317971
000320 cf 88 ab 3b f6 03 bd 3c dc 1b 21 3d 9c 94 07 bd
       0.0052348147 0.023073178 0.03933321 -0.03310071
000330 61 4a 6c bd 0c 62 1b be 56 aa c3 bd bb 66 09 bd
       -0.05768812 -0.1517412 -0.095539734 -0.033545237
000340 03 6f 0d bc 2e 55 d3 bd db e3 9f bd 49 22 de 3d
       -0.008632424 -0.10318981 -0.07807132 0.10846383
000350 b4 bd 0b be a4 ce 1a 3d ed fc dc bd 5a 61 fe 3d
       -0.13646585 0.037794724 -0.10790429 0.12420912
000360 cf 31 42 3d c7 f8 0a 3d e8 24 12 3e 78 73 3b 3d
       0.047410782 0.03392866 0.14271891 0.045764416
000370 b8 5c 65 be 37 f2 2a 3d 77 e2 36 38 4b ee f5 bd
       -0.2239865 0.0417349 4.3603093e-05 -0.120083414
000380 cf 83 14 be 40 4c 00 3e e1 91 a6 3d be bc dd 3d
       -0.14503406 0.12529087 0.08133293 0.10827015
000390 24 60 8a bd 25 b6 26 be 35 80 3a 3c be e7 7b bd
       -0.067566186 -0.1628042 0.011383106 -0.061500303
0003a0 67 fc 8a 3d b7 74 b5 3d 22 0f 69 3d d0 6e ce 3d
       0.06786423 0.08860152 0.056899197 0.100797296
0003b0 32 75 20 3d 55 ba 5c bd e7 6c 01 be 4a cf 93 3d
       0.039174266 -0.053888638 -0.12639199 0.072172716
0003c0 3e 8f 89 3d 80 37 8e bd e0 63 98 be df e0 12 3e
       0.067167744 -0.069441795 -0.297637 0.14343594
0003d0 ce eb 38 bd ae 28 54 3d 5f d7 e0 bc ac d3 dd 3d
       -0.045146756 0.051796608 -0.027446447 0.10831389
0003e0 d6 b4 16 be ae e2 09 bc 8b 5f d1 bc 84 4c cc bd
       -0.14717421 -0.008415861 -0.025558254 -0.09975532
0003f0 3a 1b ed bd b7 db 04 3e 6f 43 02 be 93 e4 ba bb
       -0.11577459 0.1297444 -0.12721036 -0.0057035177

model.2.bias f4 [40]
000000 98 56 5f bd 50 0a 06 3d 5b f1 3e 3d 2c 08 de bc
       -0.05452594 0.03272468 0.046616893 -0.027103506
000010 cf 8e b1 3d d2 a4 f5 3d 53 25 ea bd 18 ef f5 3d
       0.08669817 0.119943276 -0.114329 0.12008494
000020 ff 09 7e 3d 42 bb 12 3d b3 3e c1 3d e6 8e 0d 3e
       0.06202125 0.035823114 0.09435787 0.13824043
000030 86 a2 a5 bd 70 b8 44 3d 53 0f d5 3d 7e b3 d6 3d
       -0.080876395 0.048027456 0.104033135 0.10483454
000040 51 6c 4d bb 84 f0 55 3d 3c 4e 44 3e 19 82 07 3e
       -0.003134508 0.052231327 0.19170469 0.13233222
000050 bc a4 02 3e a5 18 a7 3d 86 b5 ed 3d 5f b8 1f be
       0.12758154 0.081589974 0.116068885 -0.15597676
000060 c5 7e bc bd 0f 51 cc 3d 58 e1 39 3e b1 7c 6f bc
       -0.09203867 0.09976398 0.18152368 -0.014617131
000070 95 21 09 3e 5a 7d 16 be 2d 74 e4 bb da 26 16 be
       0.13391717 -0.14696255 -0.006971857 -0.14663258
000080 75 8a 05 be b2 1a b1 bc ee 1f af bd 08 0b f4 bc
       -0.13041098 -0.021619175 -0.08551012 -0.029790416
000090 2a 01 10 3e 5b 78 0a 3e b8 32 09 3d 0a 07 d9 3d
       0.14062944 0.13522474 0.033495635 0.10597046

model.4.weight f4 [40, 40]
000000 73 e8 02 3e 59 1b 02 3e 19 e7 b0 3a 5d 9f 02 bd
       0.12783985 0.12705745 0.0013496607 -0.031890262
000010 15 96 ff 3c 12 79 08 bc fc 45 98 3d 77 73 a3 bd
       0.031199494 -0.008329647 0.074352235 -0.079810075
000020 fb da b4 3d d3 d9 5b be 75 37 98 3d ce 03 f3 bd
       0.0883083 -0.21469812 0.074324526 -0.1186596
000030 8b 13 0d 3e d2 c9 19 3e 70 b5 4a bd 1a af 4a 3c
       0.13776986 0.15018395 -0.04948944 0.012370849
000040 c3 37 03 be 0c 43 55 3d c0 11 c5 3d f7 07 2f bd
       -0.1281424 0.052065894 0.09622526 -0.042732205
000050 b7 c2 95 bb 9e 90 98 3d 44 e3 16 3d 38 3a 0c bc
       -0.004570331 0.074494585 0.03683783 -0.008558802
000060 ee ff 35 bd 0e 48 f4 bd 33 82 5b 3e a4 32 ee bd
       -0.044433527 -0.11927806 0.21436386 -0.11630753
000070 36 43 9c 3d e4 be 75 3d c1 9d c0 bd ae 2b bd 3c
       0.07630007 0.0599965 -0.09405089 0.023092117
000080 a5 72 7f bd 6a 9e e0 bc 8e e9 22 be b4 11 3a bd
       -0.062365193 -0.027419288 -0.15909407 -0.04542704
000090 65 b0 a7 3d 78 d5 13 be 5e 16 11 bd c1 a3 ff bd
       0.081879415 -0.144369 -0.03542172 -0.124824055
0000a0 23 4d a4 bd a4 60 d5 bd 20 e2 6d 3d fd b7 a8 3d
       -0.08022525 -0.10418823 0.058076978 0.08238218
0000b0 a0 62 4d bd a1 ee 24 be 5b 4a 09 3e c0 0e 5b bd
       -0.050142884 -0.16106655 0.1340727 -0.053480864
0000c0 fb 4d 41 3c 4d 23 36 3d e0 3a 0f be 89 fe a7 3d
       0.011798377 0.04446726 -0.13987303 0.082028456
0000d0 a2 44 a0 3d 5b 2e 1d 3d 7f 27 ba 3d 70 73 8f 3c
       0.07825591 0.038374286 0.090895645 0.0175111
0000e0 c5 39 e2 3c 48 d5 9d bd dd 2a f8 3d 32 81 82 3c
       0.027615437 -0.07706696 0.121175505 0.015930746
0000f0 a0 aa 4a bd 26 d6 9c bd ad 79 f9 3d a8 f0 16 be
       -0.049479127 -0.07658033 0.12181411 -0.1474024
000100 38 95 6f bd e4 c4 15 bd 4e 6e 0e be 42 8b ab bd
       -0.058491915 -0.036564723 -0.13909265 -0.08376171
000110 e0 20 8a 3d e5 0a 9b 3d b9 c6 fd 3d 12 f8 62 3d
       0.06744552 0.07570437 0.12391419 0.05541236
000120 b1 30 14 be ed c8 2f bd 15 c6 bc bd 81 95 20 be
       -0.144717 -0.042916227 -0.09217469 -0.15682031
000130 8f 21 b3 bd c0 52 f0 bd 1b a5 3b 3d d1 8e ec bd
       -0.08746635 -0.11734533 0.045811754 -0.115506776
000140 35 37 ad 3d 3c 6a 42 bc 51 28 3a bd 9e 10 19 be
       0.084577955 -0.011866149 -0.045448605 -0.14947745
000150 f4 71 87 bb 66 3f bf 39 9f 8b 19 3d 50 79 09 be
       -0.0041334573 0.00036477594 0.03748667 -0.13425183
000160 ac 04 aa bd e3 ee 87 bd 55 8e d1 3d e5 e3 90 bd
       -0.08301672 -0.06637361 0.10232226 -0.070747174
000170 dd 88 e0 bd cf 31 a4 bd 5b 51 5a bd 9a 3c a7 3c
       -0.109636046 -0.08017313 -0.053300243 0.02041464
000180 c2 25 b4 bc fa ac 3f 3b 74 d3 b8 3c c1 a3 33 3d
       -0.02199066 0.002924739 0.022561766 0.04385734
000190 38 1c e6 3d eb ce 7a 3d 29 8a cd bd b9 86 9f 3d
       0.11235851 0.06123249 -0.100361176 0.07789368
0001a0 c7 8c 08 bd fd 2c d5 bd ae 66 12 3e 4f a2 ed 3d
       -0.03333738 -0.104089715 0.14296982 0.116032235
0001b0 3a c7 a4 bd b3 dd ae bd 56 9b 04 3d ac 4f 04 3e
       -0.08045812 -0.085383795 0.032374702 0.12921017
0001c0 22 37 b0 3d b3 c9 6b bc e1 bd 05 bd a2 9b 07 be
       0.08604266 -0.014391351 -0.032651786 -0.13242963
0001d0 3f 9a 9c ba f0 8f da bd 90 65 84 bd 8d 22 a6 bb
       -0.0011947824 -0.10671985 -0.06464684 -0.0050700367
0001e0 11 dd c0 bd 1b 31 e1 bd eb c4 02 bd 28 3c f5 3d
       -0.09417165 -0.10995694 -0.031926077 0.119743645
0001f0 9d ba 6b 3d fa e5 3a bd ea 03 b8 bc c8 68 bb 3d
       0.057551015 -0.04562948 -0.022462804 0.09150845
000200 ca 2a 88 bd a2 f1 f8 bd 89 f8 11 3d 44 1d ea 3c
       -0.06648786 -0.12155463 0.035637412 0.028578408
000210 68 a8 c2 3d f9 0f 7f bb 89 f4 ab bc 84 40 8b bd
       0.09504777 -0.0038919433 -0.020990627 -0.06799415
000220 16 39 d7 bc 17 5d 24 3d 4a f3 11 be 56 f4 e8 bd
       -0.026272338 0.04012784 -0.14252964 -0.113747284
000230 6a ee 85 3d f5 4d a9 3d ea 2e 38 bd 89 0c 82 bd
       0.065396145 0.08266822 -0.044966616 -0.06350047
000240 39 e2 1d be 4f 29 45 3d 0d 7e 88 bd e8 9a bb bd
       -0.15418328 0.048135098 -0.06664667 -0.091604054
000250 eb a0 dc 3d 79 b9 87 3d 92 cb 14 3e 24 b1 f7 bd
       0.1077288 0.06627173 0.14530781 -0.12094334
000260 3a b5 38 bd 57 3f f5 3d 9c 7a 11 be 5e 50 b3 bd
       -0.045094706 0.11974972 -0.14206928 -0.08755563
000270 32 b4 a8 bd fe eb 1c 3d bb e1 9e bc 0b 94 0c be
       -0.082374945 0.038310997 -0.019394746 -0.13728349
000280 6a 63 bb bd 07 4b 43 bd 54 ff 09 be 35 18 56 3b
       -0.09149821 -0.047678974 -0.13476306 0.0032668237
000290 47 1a f8 3d aa 60 cd bd ab a1 0c be c6 87 96 3d
       0.12114387 -0.10028203 -0.13733546 0.073501155
0002a0 28 6b 35 bd 40 a4 02 be 85 52 81 bd 23 5b 11 3e
       -0.044291645 -0.12757969 -0.063145675 0.14194922
0002b0 90 96 c2 bc d5 79 27 bd a8 35 9f 3d 47 ba 1e 3d
       -0.023753434 -0.040887672 0.07773906 0.038751867
0002c0 c8 d8 25 bb a0 e5 bb bd 9e 3e c7 3d 8f cf 88 bd
       -0.0025306214 -0.09174657 0.0972874 -0.06680214
0002d0 6b 7c 7b bd ad b8 df bd 70 3f 0a be a5 dd 24 bd
       -0.06139795 -0.10923896 -0.13500762 -0.04025044
0002e0 66 be 1a 3d b2 cb a5 3d 52 d3 c4 3d 04 e8 b4 bc
       0.037779234 0.080954924 0.09610619 -0.02208329
0002f0 0f 5c 70 bd d3 42 27 bd 0f 4b 97 3c 63 60 89 bd
       -0.058681544 -0.040835213 0.018468408 -0.067078374
000300 52 f9 1c 3e 35 f5 8c bd 02 be 24 3c 74 06 10 3c
       0.15329483 -0.06882707 0.010055067 0.008790601
000310 61 fb 10 be 74 cd d3 3c ce 3b 35 bd 86 de 88 3c
       -0.14158393 0.025854804 -0.044246487 0.01670767
000320 95 21 8b 3d 45 d9 9d 3d 9e 64 46 be bf 22 e9 bd
       0.06793515 0.077074565 -0.1937432 -0.113835804
000330 06 ed c6 3b 48 5e 29 bd 6a ac 55 bd 79 f0 ab bc
       0.006070736 -0.04134968 -0.05216638 -0.02098869
000340 b1 ac 21 be 7e fb 90 3d 09 ac 87 bd fc a2 31 3d
       -0.15788533 0.07079218 -0.0662461 0.043368325
000350 4b 32 df bd f3 95 98 3d 5b 16 7e 3d 1e 11 cb 3d
       -0.108982645 0.074504755 0.06203304 0.09915374
000360 71 84 25 bd 4d 3f 15 bc dc 8c 0d 3b 3a 85 1f 3e
       -0.04040951 -0.00910933 0.0021598851 0.15578166
000370 be d5 db bd c9 4b a3 bd d3 a8 fc 3d 4d 3b ba 3d
       -0.107341275 -0.07973439 0.12336888 0.09093342
000380 50 5f ff 3d 8b 49 05 be 63 78 b5 3c ff 56 af 3c
       0.12469351 -0.13016336 0.022152131 0.021403788
000390 7d f5 99 3c 5c d9 a7 bd 27 78 9a 3d 80 80 50 bd
       0.018793816 -0.08195755 0.075424485 -0.050903797
0003a0 56 33 6f be e4 c7 d0 bd 2e db c6 bd 10 f4 23 be
       -0.23359427 -0.10194376 -0.09709774 -0.16011071
0003b0 92 13 72 bd 0f 58 b0 ba a2 6e d2 3d 60 54 70 bd
       -0.059100695 -0.0013453978 0.10275008 -0.058674216
0003c0 83 82 b1 3d 77 18 16 3e 84 c9 fd 3b 19 70 15 be
       0.08667471 0.1465777 0.00774497 -0.14593543
0003d0 4b 5e ac bd 2b e6 1a bd 70 ec e3 3d a0 7d fa bc
       -0.084164225 -0.03781716 0.11129081 -0.03057748
0003e0 c9 5f 4b 3b 4d 07 ab bd 4a 76 1f bd 55 ad 91 3d
       0.0031032434 -0.08351002 -0.03893117 0.071131386
0003f0 80 06 92 bd 77 b8 58 3d 10 e1 6c 3c 06 f8 9f bd
       -0.07130146 0.052910294 0.014457956 -0.078109786

model.4.bias f4 [40]
000000 b7 df d9 3d be f6 b4 3a b7 a5 65 3d 0a 3f 30 bc
       0.10638373 0.0013806445 0.05606624 -0.010757217
000010 1f e8 ae 3d 3e ed 34 3e d9 a5 4a 3d 41 69 db 3d
       0.08540367 0.17668626 0.04947457 0.10713435
000020 e0 a0 24 bd f5 6f db 3c 6b 34 ce 3d 3e 33 8b bd
       -0.040192485 0.026786784 0.10068592 -0.06796883
000030 75 15 0c be b1 02 75 3e ef b8 9f 3d 8a 56 09 be
       -0.1368006 0.23926808 0.07798945 -0.13411918
000040 26 61 11 be 3c 82 f5 bd fb 10 f2 bd 21 5b a3 3d
       -0.14197215 -0.11987731 -0.11819645 0.07976366
000050 fe 29 cd bd e5 b3 83 bd a8 8c b2 3d f8 47 2d 3e
       -0.10017775 -0.064307965 0.08718234 0.16921985
000060 71 e6 d6 bd 4a e5 fa bb a9 16 0b 3e ac 7b c9 bc
       -0.10493172 -0.007656728 0.13582863 -0.024595104
000070 21 a8 fc bd 9a 08 83 3c 30 72 c0 3d 3e 47 c6 3d
       -0.123367555 0.015995312 0.093967795 0.09681557
000080 af 0c 4e bd de 2b a4 3d 38 f5 27 3e 00 09 0d be
       -0.050305065 0.080161795 0.16402137 -0.13772964
000090 90 a7 ec 3d 18 c2 93 3d a6 b6 03 be 08 bc aa 3d
       0.115553975 0.07214755 -0.12862644 0.08336645

model.6.weight f4 [40, 40]
000000 56 3a 40 3d 5c 96 34 3d 46 11 ae 3d 4d 72 62 bd
       0.046930633 0.044088706 0.084993884 -0.055284787
000010 2d a6 53 3d 0d 5a 1c be 63 3d ab bd 82 0b 35 bd
       0.05167215 -0.15268727 -0.08361318 -0.044200428
000020 62 42 28 3e 5b 8d 1e be 87 15 38 bd 09 dc 18 3d
       0.16431573 -0.1548361 -0.044942405 0.037319217
000030 d5 c9 fc 3d 5b 2d c1 3d b0 ba 38 bc 95 5b 1c be
       0.12343184 0.09432479 -0.0112749785 -0.15269311
000040 97 64 19 bd 78 15 85 bb d1 a4 8c bd 8e 33 0e 3e
       -0.037449446 -0.004061397 -0.06867374 0.13886854
000050 b7 3d ab bb ee 4a 6f bd 3d 08 92 3d e0 3a 8e 3e
       -0.005225863 -0.058421068 0.071304776 0.27779293
000060 11 cc c9 bc 7b 0d d1 3d 1c 75 dd bc 04 a4 7a bd
       -0.02463344 0.10207649 -0.027033381 -0.061191574
000070 4f 7e b5 bd ad a0 d0 bd 23 5c 16 3e f3 ab ce 3d
       -0.08861982 -0.101868965 0.14683585 0.100913905
000080 6c b5 39 bc a6 7e e8 3d 15 b2 71 bd 16 d0 92 bc
       -0.011334758 0.11352281 -0.059007723 -0.017921489
000090 7f 34 75 bb aa 2c 05 3e 42 92 12 be 07 9c 22 3e
       -0.0037415323 0.13005319 -0.14313605 0.15879832
0000a0 16 fc 14 3e f6 16 04 be 75 35 f1 3d 87 a5 9c bd
       0.14549288 -0.12899384 0.11777774 -0.07648759
0000b0 21 03 28 bd 97 68 51 3d d3 61 b8 bd 61 ac 65 3d
       -0.04101861 0.051125135 -0.090030335 0.056072596
0000c0 a6 08 fb 3c 2c e0 cb bd 8b e4 8f bd e9 15 a3 3c
       0.030643772 -0.09954867 -0.07026013 0.019907909
0000d0 3d 70 36 3d 2c 44 4b 3d 86 8c 9a bc 70 5b c3 bc
       0.044540633 0.04962556 -0.018865835 -0.023847312
0000e0 e8 61 d8 3d fd 95 0e 3e 30 b4 1b 3d b3 2c bc bd
       0.10565549 0.13924403 0.038013637 -0.09188213
0000f0 d1 0d ab 3d 1f dc da 3d 9e 32 ee bd 6b 1c 15 3e
       0.08352245 0.10686516 -0.11630748 0.14561622
000100 2f e0 00 be 33 98 09 be 40 fd 94 3d fc 57 80 3d
       -0.12585519 -0.13436966 0.07274866 0.06266782
000110 b5 58 f4 bd 76 fa 7b 3d d4 1d 1b 3e 64 50 00 be
       -0.11930982 0.061518155 0.15148097 -0.12530667
000120 36 8b ee bc e2 15 b8 bc 57 ef 1e 3e 28 ea 84 bd
       -0.029119115 -0.022471372 0.15520988 -0.06489974
000130 f1 0d 74 bd db aa 9e bd de 95 68 3d 08 0c c6 bd
       -0.059583608 -0.07747432 0.05678355 -0.096702635
000140 ff 75 db bc e1 08 1f be eb bd d6 bd ca 43 9a 3d
       -0.026789663 -0.15530731 -0.10485443 0.07532461
000150 de fa bf 3d f0 3f 39 be 88 55 3c bb 8d dc 1b 39
       0.09374021 -0.18090796 -0.0028737504 0.00014864113
000160 96 bd f1 3d cf 5f 7a bd 3e 59 e5 3d c9 ed 59 3d
       0.11803739 -0.061126526 0.11198662 0.053205285
000170 27 0f c3 3b 84 a1 07 3e 1b 85 6b 3d f8 66 b3 3d
       0.005952734 0.13245207 0.057499986 0.08759874
000180 2e d9 0d 3e 99 5c 27 3e 23 6e 3f bd d3 5b e8 3c
       0.13852379 0.16343917 -0.046735894 0.028364098
000190 bf 83 d4 bd f9 82 35 3d d8 e3 08 be 4d 28 86 3d
       -0.10376691 0.04431436 -0.13368165 0.065506555
0001a0 d9 12 80 3c a0 23 b2 bc 68 d6 82 3d 13 6e e0 bd
       0.015633987 -0.021745503 0.06388551 -0.10958495
0001b0 ca 97 1d bd 36 d7 cf 3d 56 e1 e1 3d f2 86 d6 bd
       -0.038474835 0.1014847 0.110293075 -0.104749575
0001c0 eb a5 a1 3d 67 df f0 bd 3e a8 cb 3d 1d ff fe bc
       0.078929745 -0.117613606 0.09944199 -0.031127507
0001d0 6b d8 39 bd bf 1f cd 3d 80 10 cf bd b1 88 22 3e
       -0.045372408 0.10015821 -0.10110569 0.15872456
0001e0 59 a6 09 be 82 5e 88 bd 4d 4c 20 be 7d b5 88 3d
       -0.13442363 -0.06658651 -0.15654106 0.06675241
0001f0 11 99 14 be a5 ed 12 3e ca f3 45 bc dd 4e ec 3b
       -0.14511515 0.14348467 -0.01208205 0.0072115497
000200 2a e1 b9 bd 62 0f b0 3a b4 a1 df 3d 9d cc 9d bd
       -0.0907615 0.0013432319 0.10919514 -0.077050425
000210 de 93 a9 bd 4b c4 c7 3c e9 f4 a4 3d 4d 92 32 bd
       -0.082801566 0.024385592 0.080545254 -0.043596555
000220 9c 95 ac bd ec a7 09 be 82 ac c5 3c ad f8 d9 bd
       -0.08426973 -0.13442963 0.02413011 -0.10643134
000230 64 cf 5b bd 25 a3 20 be e8 9a 6a 3d ce 17 70 bd
       -0.05366458 -0.15687235 0.057276636 -0.058616452
000240 d0 36 28 bd ec 75 bb 3d 22 03 88 bd a8 37 00 be
       -0.0410679 0.09153351 -0.066412225 -0.12521231
000250 b6 6f 84 bd b6 9c 65 bd aa 13 87 bd b9 7b 15 be
       -0.0646662 -0.056057654 -0.065955475 -0.14597978
000260 e2 fd d6 bd e6 b5 98 bd fe d2 b7 bb 06 80 db bb
       -0.10497643 -0.074565694 -0.005609869 -0.006698611
000270 3c b4 42 3d 3c 14 f5 bd de 9d dc 3d 12 98 5a bd
       0.047535166 -0.1196675 0.10772298 -0.05336768
000280 5b 42 60 be b3 b3 09 3e f2 5e 8b 3d cd 8d f8 bd
       -0.21900313 0.13447456 0.06805219 -0.12136421
000290 87 b9 91 bd fe d4 b5 3d 0b fd 43 3d 03 f2 83 3b
       -0.07115465 0.08878516 0.047848742 0.004026653
0002a0 35 be 50 3d fd fd 89 3d 60 37 dd 3c 3f 96 80 bd
       0.050962646 0.067378975 0.027003944 -0.06278657
0002b0 06 de 8b bd 2b b3 80 3d c7 28 e2 bd 7d f8 14 3e
       -0.06829457 0.062841736 -0.11042934 0.14547916
0002c0 71 4c 1c 3e 08 7e 3b 3c 62 de 93 3d 29 28 56 be
       0.15263535 0.011443622 0.072201505 -0.20913757
0002d0 80 64 71 bd bf 5c 2b be a6 b9 04 be 1a 51 b0 3c
       -0.058933735 -0.16734599 -0.12961444 0.021523047
0002e0 a4 17 4f bd ec 06 5f 3d 62 98 09 bd 73 fe b8 3d
       -0.050559655 0.05444996 -0.03359259 0.09032907
0002f0 f9 f9 1a be 88 55 8a bd 27 81 8a 3d 4c 8d af 3d
       -0.1513442 -0.06754595 0.06762915 0.08571872
000300 8d 5e ff 3d c7 52 99 3d 14 64 24 bd c1 93 f2 bd
       0.12469206 0.07486492 -0.040134504 -0.11844588
000310 b0 d8 14 3e b1 c7 c8 3d ef 03 01 3e 3d 1a ee 3d
       0.14535785 0.09803713 0.12599157 0.11626098
000320 82 e7 39 3e 16 23 f7 bd c4 15 9c 3d 80 be 8d 3c
       0.1815472 -0.12067239 0.07621339 0.017302752
000330 01 37 a4 3d 8f 5d 16 be a3 87 ef 3d 93 63 3c 3c
       0.08018304 -0.14684127 0.116957925 0.01149835
000340 d0 49 45 3d 20 cf 15 3e 1e 12 1d be 90 f6 32 3e
       0.048166096 0.14629793 -0.15338942 0.17476869
000350 9e 7f 45 3c 2a cd f1 3c c3 5d 95 bd 3b 1d a9 3d
       0.012054352 0.029516775 -0.07293274 0.082575284
000360 e7 c0 62 bc 6b ff 37 3d 5a 94 07 be 8d fe bf 3d
       -0.013839937 0.04492132 -0.13240185 0.093747236
000370 7b 8a 21 3e 62 b6 0c bd 51 92 8f 3d 97 cc 0f bc
       0.15775482 -0.03435362 0.070103295 -0.008776805
000380 ba 3b 89 bd d6 8d a2 bd 2e b6 99 bd 14 68 4e 3d
       -0.06700845 -0.07937209 -0.07505451 0.050392225
000390 a1 71 96 3d 09 aa 6c 3d cc 6e 82 bd 8b 8f d9 3b
       0.07345892 0.057779346 -0.06368789 0.006639426
0003a0 5e 5e 94 bd b3 07 5b 3d f7 bc cd 3d 7a 36 04 3e
       -0.072445616 0.05347414 0.10045808 0.12911406
0003b0 45 17 d1 3d 55 2a bb bc 57 e6 40 3d 8c 0e b0 3d
       0.102095164 -0.022847334 0.04709467 0.085965246
0003c0 d1 c8 f6 3d 8f 58 ca 3d 39 64 f4 3c 27 13 b3 3d
       0.120500214 0.098801725 0.029832946 0.087438874
0003d0 ea f1 9e bd e8 6c 4a be 3a 21 0f bb be fa d9 3d
       -0.07760985 -0.19768107 -0.0021839873 0.106435284
0003e0 c3 97 72 3d cb b6 1d 3b 4f d7 67 3d 21 c9 ac bd
       0.059226763 0.0024065252 0.05660182 -0.084368
0003f0 8a af 15 bd 6f f8 ee 3c 6e bc ef bd e3 57 6a 3d
       -0.03654436 0.029171197 -0.11705862 0.05721272

model.6.bias f4 [40]
000000 bc 1a 32 bd 7e 4f 84 bc 57 0e d7 bd eb 0d ae bd
       -0.043482527 -0.016151186 -0.10500782 -0.084987484
000010 4c 41 79 bd 08 81 8a 3d a4 fc 24 3d 0b 3e 04 be
       -0.060853288 0.06762892 0.04028 -0.12914293
000020 e8 64 e1 bc 5b 0d 15 3e 75 d8 14 be 94 9e 14 3e
       -0.027513936 0.14555876 -0.14535697 0.14513618
000030 78 29 13 be 9a 4e 64 3e 16 6a d4 bd b5 ee 59 3e
       -0.14371288 0.22295609 -0.10371797 0.21282466
000040 86 81 06 3e a6 46 87 bd e8 d8 e5 3e b1 8c a2 bd
       0.13135347 -0.06605272 0.4489205 -0.07936991
000050 9b a6 91 bb 29 9a e3 bc d4 61 d7 3a da 05 17 3e
       -0.0044449097 -0.02778347 0.0016432353 0.14748326
000060 26 d6 79 3e 02 f3 e9 3d de bb c6 3c 25 19 59 3d
       0.24398097 0.11423303 0.024259504 0.053002495
000070 90 7f bc 3d 31 a7 2a be 8c 6a d4 3d 88 11 15 be
       0.09204018 -0.16665341 0.10371885 -0.14557469
000080 62 65 0e 3c 06 36 9e 3e 87 de 97 bd 73 44 0e be
       0.008691164 0.30900592 -0.074154906 -0.13893299
000090 85 4b 82 bd b3 43 15 3e 21 f0 e3 3b f2 a3 2a be
       -0.063620605 0.14576606 0.006956116 -0.16664103

model.8.weight f4 [40, 40]
000000 25 46 ca bc e6 6b c6 bd 20 04 3f bd c8 da 9b 3d
       -0.02469165 -0.09688549 -0.046634793 0.076100886
000010 f7 5a 64 3d 95 e6 82 3d b8 ba 53 3d 4f 40 6c 3d
       0.055750813 0.06391636 0.05169174 0.057678517
000020 75 39 87 bd f3 69 87 bb 6f 0a c5 bd 13 97 db bd
       -0.06602756 -0.004132503 -0.09621131 -0.107221745
000030 22 c8 6c 3b 80 1d dc bd 9d 16 f3 3d a0 26 83 bd
       0.003613003 -0.10747814 0.118695475 -0.064038515
000040 fd 1b 17 bd 19 b2 06 3e 94 f3 00 be 76 ea bb bd
       -0.036891926 0.13153876 -0.12592918 -0.09175579
000050 b8 bc ab bd 1f d8 0d 3e 3c b4 19 bd 15 42 16 be
       -0.083856046 0.13851975 -0.0375254 -0.14673646
000060 b3 3c 65 3c 38 d7 08 be 9a 12 30 3c 22 fa 12 3e
       0.013991523 -0.1336335 0.010746622 0.1435323
000070 d3 ae 61 3d 0b 24 27 be f9 bf 2c 3d df d3 4f bd
       0.055098366 -0.16322343 0.042175267 -0.050739165
000080 0d 22 cc bd 97 97 c3 bd db eb ce 3d 01 2e 0c 3d
       -0.09967432 -0.09550398 0.101035796 0.03422356
000090 51 b5 01 bd 30 55 dd 3b 21 85 a3 bd a0 7d 91 3d
       -0.031667057 0.00675454 -0.07984377 0.07104039
0000a0 bc 50 00 be 4b 6e b8 bd 9a 9b 45 bd b4 b6 8d bd
       -0.12530798 -0.09005412 -0.048244096 -0.069196135
0000b0 14 b0 d5 3d 14 16 24 be cc 18 e3 bd d5 d5 02 3d
       0.10433975 -0.16024047 -0.11088714 0.031942207
0000c0 af f7 15 be 1e cc 7a 3c cf e7 03 bc 21 63 1c 3d
       -0.14645265 0.015307454 -0.008050873 0.038180474
0000d0 e0 96 14 be 5f 19 54 3e 88 26 b9 3d 41 a5 3a 3e
       -0.14510679 0.20712803 0.090405524 0.18227102
0000e0 89 ce f3 bd 2c a0 c8 bd e7 5b a3 3d ef a9 c3 bd
       -0.11904628 -0.09796175 0.07976513 -0.09553897
0000f0 02 cd 1d 3d e1 02 e7 3d 25 90 b0 3d 63 4f f6 3d
       0.03852559 0.11279846 0.086212434 0.120268606
000100 5e 3a 38 3e 2d 69 d0 bd 7b e7 ba bd ea a4 fe bd
       0.17991015 -0.10176311 -0.09126183 -0.124337986
000110 25 f4 06 bd d1 64 e0 bd f2 7f 1c bd 4e d2 2f be
       -0.032947678 -0.10956729 -0.038207956 -0.17170069
000120 dd c4 9b bd 74 90 28 3e 1e 99 07 bd 15 54 a7 3c
       -0.07605908 0.16461354 -0.03310501 0.020425836
000130 34 01 d4 3c 29 23 da 3d c1 e5 1d bd 7e 16 e9 3d
       0.02587948 0.106512375 -0.03854919 0.11381243
000140 89 88 e2 bd a3 3a c7 3d 0f a8 a2 bc 5c 26 b0 bd
       -0.11061198 0.09727981 -0.019855527 -0.086010665
000150 3a e0 e5 bd d8 39 c1 bc 2c 92 3b bb f6 da 23 3d
       -0.112244084 -0.023587152 -0.002862106 0.04000374
000160 6d fc 92 bd 69 89 b9 3a 75 2f d4 3d 24 61 9c bd
       -0.07177053 0.0014155331 0.10360614 -0.076357156
000170 3b 88 20 3e 47 aa c3 3d 40 51 ae 3d e5 ce 14 bd
       0.15676968 0.09553962 0.08511591 -0.036330123
000180 77 f5 78 bd 73 3d 62 3d 55 8a 0e be ed aa 9f bd
       -0.06078097 0.055234384 -0.13919957 -0.077962734
000190 b7 1d 36 3d 5c b7 05 3d 25 d3 c2 3d e1 26 b9 bb
       0.044461932 0.03264557 0.09512929 -0.0056503867
0001a0 d0 8a 11 3e 87 72 09 3d fe 2d e3 bd fb 60 a7 bd
       0.14213109 0.033556487 -0.11092757 -0.081727944
0001b0 e5 d9 14 be 60 6a 29 bd b8 0d a3 3c c9 05 d3 bd
       -0.14536245 -0.041361213 0.019904003 -0.10303838
0001c0 fa 40 8c 3d 13 ba af bd fc e2 21 3d 07 10 b1 bd
       0.06848331 -0.08580413 0.03952311 -0.08645635
0001d0 27 11 02 be f2 ba 0c be 3e db de bc 80 d1 16 be
       -0.12701856 -0.13743189 -0.027204152 -0.14728355
0001e0 8d da 0c bd d4 02 56 bd f3 50 85 3b 8e 2a 93 3d
       -0.034388114 -0.05224879 0.004068488 0.07185851
0001f0 07 3f f2 bc 06 a8 34 bc ed 53 7c bd 4b c2 1b 3e
       -0.02957107 -0.011026388 -0.061603475 0.15210836
000200 c6 8e a9 3d 09 91 92 3d ba 80 63 bd 00 b3 43 3d
       0.08279185 0.071565695 -0.055542685 0.04777813
000210 92 05 83 bd 6d 73 ef 3c 14 24 22 3d 2f f6 1f 3d
       -0.06397547 0.029229844 0.039585188 0.03905314
000220 de 16 c6 3d c6 59 bb bd 31 dc c0 bc 9b 96 8d bd
       0.0967233 -0.09147982 -0.023542495 -0.06913491
000230 4d d4 c9 bd 63 e5 ab 3d 6f 69 9f be 56 75 ec 3b
       -0.09854946 0.083933614 -0.31135127 0.007216136
000240 21 df 10 be 40 ff d7 bc 10 86 1f 3e cc c0 10 3d
       -0.14147617 -0.02636683 0.15578485 0.035340115
000250 7a e6 aa 39 bb 01 08 bc 4a 01 3f be 63 16 bd 3b
       0.00032596645 -0.008301194 -0.18652835 0.005770491
000260 e7 7a 3a 3d 06 e3 08 3e 6a 30 d4 bc 33 e2 72 bd
       0.045527365 0.13367853 -0.025901992 -0.05929775
000270 c6 6e eb 3d aa f5 64 3d 7f ed 1b be 11 34 ad 3d
       0.11495738 0.055898346 -0.15227316 0.084571965
000280 1e b2 f2 3d 39 78 c7 bd 38 6b 6b 3d aa cf 26 bc
       0.118503794 -0.097397275 0.0574753 -0.010181347
000290 0c 0d 12 3e 4d bd 7e 3d ab d9 c8 3d 7a a2 a0 bd
       0.1426279 0.06219225 0.09807142 -0.0784349
0002a0 3f c5 38 be 36 98 f2 bd 06 d7 fb 3d 39 7c 9e bc
       -0.18043993 -0.11845438 0.12296872 -0.019346343
0002b0 a6 6d 65 3d 90 d1 6c 3c 89 39 13 bd ac 1b 20 3d
       0.056012772 0.0144542605 -0.03594354 0.03908889
0002c0 2d 9b 10 3e a5 d6 8d bc c3 ad ee 3d 79 b1 2a bd
       0.14121695 -0.017314265 0.11654236 -0.041673157
0002d0 86 66 06 3e 58 cb 0f bc d8 9a b2 3d 3f f0 f4 bc
       0.13125047 -0.008776508 0.0872094 -0.029899715
0002e0 b4 38 09 be c1 1d 8d bd 16 ce e6 bd 59 35 da 3d
       -0.13400537 -0.06890441 -0.112697765 0.106547065
0002f0 dd f2 57 3d 4b 89 c8 bd 2f 21 24 be af fd 7f bc
       0.052721847 -0.097918116 -0.16028284 -0.015624448
000300 87 a5 f1 3d fc b2 2a be af 5a 8a bd 2b c1 fc bc
       0.1179915 -0.1666984 -0.06755578 -0.030853828
000310 dc 38 fe 3d 45 90 62 bd a8 2e 66 bc dc 4d 92 bd
       0.12413189 -0.055313367 -0.01404921 -0.07143757
000320 e8 00 8a bb 27 cd 6a bd 33 26 00 3d b4 75 cc bc
       -0.004211534 -0.057324555 0.03128643 -0.024958469
000330 ab 6f 0d be 5a 0e 3d be c3 53 dd bd c6 ef ba b9
       -0.13812129 -0.18462506 -0.10806992 -0.0003565533
000340 a8 d0 f7 3d 38 e8 a0 3d 6c 17 31 3c 4b e4 b8 3d
       0.12100345 0.07856792 0.010808807 0.090279184
000350 b2 01 75 3d bd 27 64 3e d8 76 00 be 31 77 0e 3e
       0.05981607 0.22280784 -0.12545335 0.13912655
000360 c7 93 73 3d 4d 24 d1 bd 5a 13 96 3e 47 47 13 be
       0.059467103 -0.10212002 0.2931164 -0.14382659
000370 57 3d e9 bd 7d 4f 9a 3c 55 4b ea 3c d9 c8 57 3d
       -0.11388653 0.018836731 0.028600374 0.052681778
000380 bb 9b 4c 3e 1d 01 2b 3e 02 a5 c1 bd cb 55 af bd
       0.19981281 0.16699643 -0.09455301 -0.085612856
000390 b9 6c f4 3d df 7f f0 bd bd db 6e bd 68 e1 22 3d
       0.119348 -0.117431395 -0.058315028 0.039765745
0003a0 06 b8 0f 3e c6 c5 27 3e 29 e6 e9 3d e9 a0 18 3d
       0.14035043 0.16384038 0.11420853 0.03726283
0003b0 2d a1 0e 3d f2 58 c9 3c ab 76 37 3d 51 6b 08 be
       0.034821678 0.024578545 0.044790905 -0.13322188
0003c0 23 7c c3 3d 0f 6b 1a bd 88 18 84 3d 08 92 15 3e
       0.095451616 -0.037699755 0.064499915 0.14606488
0003d0 db 32 3f be e4 af c3 bd a0 f8 a5 3d 82 04 96 bd
       -0.18671744 -0.09555033 0.08104062 -0.073250785
0003e0 0a f4 aa 3d b5 b4 dd bd 62 f3 02 3e 2b 14 d5 3b
       0.08347328 -0.10825483 0.12788156 0.0065026483
0003f0 bc 66 cd 3d bb 9a ec bd 8b 02 15 be 6e b0 c2 3d
       0.10029361 -0.1155295 -0.14551751 0.095063075

model.8.bias f4 [40]
000000 97 5d 1c 3e 6e 07 c0 3e 95 8b 1a be ce 1a d4 bd
       0.15270077 0.37505668 -0.15092309 -0.10356675
000010 26 10 dd 3c 9f 96 19 3f 2f 3e 44 3e 91 70 b2 bd
       0.02698524 0.59995455 0.19164346 -0.087128766
000020 e2 ab 84 3c f6 fc 79 bd d6 c2 8d 3d 33 f2 c6 3d
       0.016195241 -0.061032258 0.06921928 0.097141646
000030 f0 9c 40 3e 42 c3 85 3b b3 a6 b9 bd b3 b1 de 3a
       0.18809867 0.0040821144 -0.090649985 0.0016990214
000040 4a 9c 9e bd 28 a2 0a be 84 fb 9d bd 1a 15 14 be
       -0.077446535 -0.1353842 -0.077139884 -0.14461175
000050 af 1c 03 bd 8e 4f 0f 3f 34 2c b5 bd 91 c0 ad bc
       -0.032009777 0.55980766 -0.08846322 -0.021209987
000060 db 17 0b 3d 61 9f f3 bc 06 f8 08 bd 43 0a 14 3d
       0.033958297 -0.029739084 -0.03343966 0.0361426
000070 ef 7f 71 be 4a 97 10 be 13 25 d5 3e 2d 07 ac 3e
       -0.23583959 -0.14120212 0.41629848 0.33599225
000080 16 cb e0 bd 89 ac d4 bd 3e a6 5c 3d 10 97 62 bd
       -0.109762356 -0.10384471 0.05386948 -0.055319846
000090 a9 82 df bc 53 08 4c bd 81 0c e3 bd f1 eb 82 3e
       -0.027283983 -0.049812626 -0.11086369 0.25570634

model.10.weight f4 [1, 40]
000000 e1 92 bf be e9 4a ff 3e 05 44 bc bd d7 f5 53 be
       -0.37416747 0.4986184 -0.09192661 -0.20699249
000010 73 44 21 be ca ae 3c 3f 42 2e a0 3d b5 b2 14 3e
       -0.15748768 0.73704207 0.07821323 0.14521296
000020 93 51 92 bd 84 58 b7 bd 68 27 7b bd a4 8d 01 3e
       -0.07144465 -0.0895243 -0.061316878 0.12651688
000030 e3 93 d2 3d 39 d7 a3 bd 6f 05 ae 3d ef 8f cb bd
       0.102821134 -0.08000035 0.0849713 -0.099395625
000040 7b 52 cc bd b4 ee 9b be 5c 32 a9 bd 44 07 72 bd
       -0.099766694 -0.30455554 -0.082615584 -0.05908896
000050 7d d9 1c be 5b 28 2f 3f c9 43 38 bc 47 b8 60 3d
       -0.1531734 0.6842095 -0.01124663 0.05486324
000060 24 ff 50 3c 60 ba 98 be 8a 85 cd 3b 06 d5 b8 be
       0.012756143 -0.29829693 0.0062720226 -0.36100024
000070 c0 de b0 be d3 dd ae be 29 0b 26 3f 0b 96 fa 3e
       -0.34544945 -0.34153613 0.6486078 0.489426
000080 8d 0c 30 bd 66 77 bf bd f6 02 e9 bd a8 4d ff 3a
       -0.04298072 -0.09348945 -0.11377518 0.00194781
000090 29 8b c5 bd 92 b7 65 bd e7 8a 86 3d a7 e5 a3 3e
       -0.09645683 -0.05608327 0.06569462 0.32011148
