nn4_40.pt (torch, 32162 bytes, 11 tensors)

model.0.weight f4 [40, 10]
00000000: f208 2ebe 9303 0d3e 2fa8 2abe 4c05 8fbe
00000010: 9034 6cbe f911 233e 79e5 e4bd 99fc ad3d
00000020: 57e5 87be 7e63 1ebe a247 063d c3b3 c83d
00000030: 8cc2 1abe 91da 29bd 615e 0d3e cc9f 92be
00000040: 0666 9d3b 495d 0f3d 6313 053d 819c 9f3e
00000050: d8bd 893e 5a95 413e 97d2 07be 9508 bbbd
00000060: 8f80 23be 1b7c c5bd 87bf 293d 7191 69be
00000070: 1b57 48be a8b5 8dbb a6dd bdbc 61ae 3abe
00000080: adc0 093c f00f 553e 3df5 a9be 0e05 353d
00000090: 63c9 3d3d 8ec4 75be 816f b2bd c016 95be
000000a0: 5c33 933e 904b 313d d43b 83be 4eb2 2c3e
000000b0: 68ef 4cbe 91e0 c53d 9526 95be e042 81be
000000c0: aaa6 c6bd 7e71 403e 59d2 a9bd 6b00 9f3e
000000d0: 0603 763e 8856 84be 9adb 19be 9f8d 74bd
000000e0: 9bf3 45bd eee7 5d3e f2ca 96be 9ba9 44be
000000f0: 0322 853d 9ddb 8fbe 6c68 0e3e 71bc 5dbe
00000100: 42fd 503e 5f8a efbd 8923 03be e8dc 30be
00000110: 1175 39be d6de 0a3c 38ef 32be fa7c cdbc
00000120: 2e8a 893e 466d 8dbe ef3b a03d c03e 2ebe
00000130: cd0a 863e 2e06 74be 4686 7ebe 56e3 04be
00000140: 317f 9a3d 7e94 8e3e cac7 5b3e d91d 713d
00000150: fea4 823e fe67 99be 4e03 94be 70fe 943e
00000160: 2ad0 833e f064 ce3d cca2 f9bd 004f 5a3d
00000170: b8bd aabe 6f4d c83d 61b0 6d3e a6fd 29be
00000180: 4c1d 01be bca3 2abd 9ca0 fdbd 415e 9d3d
00000190: 2508 793e d376 053e ec6b 53be 5f32 f03d
000001a0: 5c28 cd3d 8ed7 26be 8e3a 23be 96c5 6c3d
000001b0: 8bb4 6dbd 776a a53e ae3a 76be a868 99bd
000001c0: cd06 9e3e ae74 6f3e a797 293e d11f 00bd
000001d0: dd5c 3ebd 3d72 1fbc bab2 a03e 542f 6fbe
000001e0: 4059 82be 8b91 973d 0842 713e 0c02 0f3c
000001f0: 7bf8 053e 6ac7 87be fa98 913e 6397 2d3e
00000200: 5faf 8abd 578d 8abe 23d6 fcbd 36e6 b5bd
00000210: 05c7 873e 2ecd 353e 787e 133e 05a8 49be
00000220: 6349 773d 4271 183e 3029 1ebe a5bd bc3d
00000230: 59ff a13e ae3d 2e3e 7097 27be d455 c3bd
00000240: 8902 5bbd 881b f8bc c913 8a3e 9f15 863e
00000250: d26c 8f3e 0190 93bd 84b7 9dbc cf70 0abe
00000260: 1f26 84be 9d47 aa3d 14eb 41be 4252 b33e
00000270: 847e a43e 3cd3 2d3e f794 0c3e eea0 82bc
00000280: dac3 e1bd 5328 2b3e 005e a53e f7a7 94be
00000290: 35fc 273e 028d 61be 705c 753e 7f44 9abe
000002a0: 4fda 673e 353f 1fbe 3cdd b5bc da34 19be
000002b0: bc55 c9bd 03d5 913e 09e4 19ba f845 bdbd
000002c0: 7e80 0cbe 5120 843e 5579 423e 1d9d 2f3e
000002d0: 9209 edbd 2684 80be 8202 4e3e d90d 1ebc
000002e0: 6b2e 213e a62b 533e 6046 87be 57c5 58be
000002f0: d82a 483e ddd3 933d 5770 68bc 79d7 83be
00000300: b08a f1bd 9b59 8d3e 5749 b9bc c63e d9bd
00000310: f2ba e9bd 28ac 303d 37a4 a5bc 7cf9 ab3b
00000320: 6b4c 22be 2091 c6bc 38fc bdbe 5e6c 84be
00000330: 8fc3 49bd 29df f53a 45bc 91be 00f3 963e
00000340: c72c 55be 1458 2f3e 4f51 4ebe 7ddf 063d
00000350: 1027 173e acda 9dbe 7b89 943e 23f7 1cbe
00000360: 00a8 43be cd91 263e bb64 973e b3c1 983e
00000370: 8771 27be ff7d 77be a137 a43d 61b5 b43d
00000380: f66c dd3d 45db 2e3e 9e56 123e 8287 223e
00000390: 2517 8dbe eee2 903e 1391 aa3d 267c a8be
000003a0: 449a 3abd 25ff 8a3e b16e d13b cb9b 27bd
000003b0: 6777 e9bd ea01 e0bd e4d2 dcbd 807a 603e
000003c0: 0025 083d 15dd e33d 2083 59bc 93bf 4abe
000003d0: 504a 8c3e 234f 2dbe 6b33 f03d 3e82 533e
000003e0: af8c 57bd 9238 8d3e 0d39 f3bd c274 3abc
000003f0: d44a afbe fdc4 ec3d 6cad 3a3e 2c14 87be
-0.169956 0.13770895 -0.1666572 -0.2793373 -0.23066926 0.15924825 -0.11176581 0.08495445
-0.2654216 -0.15467641 0.032783158 0.09799912 -0.15113276 -0.041468207 0.13805534 -0.2863754
0.004803422 0.035001073 0.03248919 0.3117409 0.26902652 0.1890463 -0.13263927 -0.09132496
-0.1596701 -0.09642812 0.04144242 -0.22809388 -0.19564478 -0.0043246336 -0.02317698 -0.18230583
0.008407754 0.20806861 -0.33194914 0.044194274 0.046334635 -0.24000761 -0.08712674 -0.2911892
0.28750122 0.043284953 -0.25631583 0.16864893 -0.20013201 0.09661973 -0.29130998 -0.25246334
-0.096997574 0.18793294 -0.08292074 0.31055006 0.24024591 -0.25847268 -0.15025178 -0.059705373
-0.048328023 0.21670505 -0.2945171 -0.19205324 0.06500628 -0.2809724 0.13907021 -0.21653916
0.2040911 -0.11696314 -0.12806524 -0.17271769 -0.18111064 0.00847598 -0.17474067 -0.025084008
0.26863235 -0.27622432 0.078239314 -0.17016125 0.26180115 -0.23830482 -0.24855909 -0.12977347
0.07543791 0.27847666 0.21462932 0.058866356 0.25516504 -0.29962152 -0.2890877 0.2910037
0.25744754 0.10077846 -0.12189254 0.053297997 -0.3334787 0.09780394 0.23211814 -0.16600665
-0.12608832 -0.041660056 -0.123841494 0.07683993 0.24319513 0.13033609 -0.20646638 0.117283575
0.100174636 -0.16293165 -0.15940306 0.05780562 -0.058033507 0.3230779 -0.24045822 -0.07490665
0.30864564 0.23384354 0.16561757 -0.031280342 -0.04647528 -0.009731826 0.31386358 -0.23357898
-0.25458717 0.07400807 0.23560345 0.008728515 0.13083069 -0.26519328 0.28437024 0.1695228
-0.06771731 -0.2706096 -0.12345531 -0.088818 0.26519027 0.17754051 0.14403713 -0.19693
0.06037272 0.14886954 -0.154454 0.09215859 0.31640127 0.17015716 -0.16366363 -0.09537855
-0.053469215 -0.030286565 0.2696822 0.2618837 0.2801271 -0.07205201 -0.019252546 -0.13519596
-0.25810334 0.083144404 -0.18937331 0.35023695 0.32127774 0.16975111 0.137287 -0.015945878
-0.11023684 0.16714601 0.3229828 -0.29034397 0.16404803 -0.22026446 0.23961043 -0.30130383
0.22641872 -0.15551455 -0.02220022 -0.14961568 -0.09830806 0.28482828 -0.00058704667 -0.09241861
-0.13720891 0.25805905 0.18991597 0.17149778 -0.11574091 -0.2510082 0.20118144 -0.009646856
0.15740363 0.2062212 -0.2642088 -0.21169029 0.19547594 0.07218144 -0.01418694 -0.2575033
-0.11794031 0.27607426 -0.022617979 -0.10607676 -0.1141261 0.04313293 -0.020219905 0.0052482467
-0.15849464 -0.024239123 -0.3710649 -0.25863928 -0.049258765 0.0018758524 -0.2846395 0.2948227
-0.20817862 0.17123443 -0.20148204 0.03292798 0.14760995 -0.30830896 0.2901114 -0.1532865
-0.19107056 0.16266556 0.2956904 0.2983528 -0.16351901 -0.24169157 0.08018423 0.08823658
0.10811798 0.17075832 0.14290854 0.15872005 -0.2755672 0.28298134 0.08328452 -0.32907218
-0.045557275 0.27147785 0.0063913693 -0.04092006 -0.11399727 -0.10937865 -0.10782412 0.2192173
0.03323841 0.111261524 -0.013275892 -0.19799642 0.27400446 -0.1692472 0.11728557 0.20655152
-0.0526244 0.27582222 -0.11876116 -0.011380376 -0.34236777 0.1156101 0.18230218 -0.26382577

model.0.bias f4 [40]
00000000: 6b86 ce3c 7823 763d 43df 9f3e b165 7f3e
00000010: 067e 023e 337d c7bd d65e 90be ce0a 63be
00000020: 6412 f23d daaf 263d a833 f8bc 7130 91be
00000030: 68ac f9bd 3262 4bbe 2c28 533e 769c 033d
00000040: 927f 053e 89e7 47bc ad5c 7f3c c7e3 04be
00000050: 41c0 b13d 1600 9c3d 2306 15be e4dc 753d
00000060: 0bf5 f9bd 378d a0be 18b3 073e 2312 4dbe
00000070: a6cf 9f3e de89 703d d4e3 8fbe 7518 e33d
00000080: adb1 3ebd 5a16 2a3e 711a 6a3e 9333 6e3e
00000090: 81b3 fabd 1ed9 10be c187 17be d81c e33d
0.02521058 0.06009242 0.31225023 0.24941136 0.12743387 -0.09740677 -0.28197354 -0.2217209
0.11819914 0.04069505 -0.03029807 -0.2835727 -0.12191087 -0.19861677 0.20620793 0.032131635
0.13036945 -0.012201198 0.0155860605 -0.12977515 0.08679248 0.07617204 -0.14553122 0.06002511
-0.12204941 -0.31357738 0.13251913 -0.2002645 0.3121311 0.05872523 -0.28103507 0.11088649
-0.046556164 0.16610089 0.22861649 0.23261862 -0.12241269 -0.14145324 -0.1479788 0.11089486

model.2.weight f4 [40, 40]
00000000: 6c14 bebd b2e5 b93c 3a94 873d f32e d1bd
00000010: 2733 593d 694d 913d 29e6 c2bd c9b6 d83d
00000020: 46c6 bf3d d233 0d3d 5882 b9bd 9f8e 863c
00000030: c736 3abd a364 f43d fd1e 23bc b7bc 493e
00000040: 457d be3d 5a05 7ebd 7591 813d 6f5c 573d
00000050: f2be f5bd 4b9e d1bc 8529 043d fdd0 23be
00000060: 1ef2 233d cf39 36bd f7f6 16be 5168 22be
00000070: 55ab 043e 44ed 6a3d d1a2 3a3c fae1 0cbe
00000080: 433a ff3d 3167 913d 4c0a 82bc 588f e13d
00000090: 5e2a 233d c20b 2abd fa35 193e bff3 d1bd
000000a0: 79dd acbd fd75 1dbe 977f f4bb f05e cdbd
000000b0: 8804 5abd 563a 45bd 3bf6 f8bd 48d4 b63c
000000c0: 1a44 263d a78e 183e 0d00 543d 9583 e73d
000000d0: bf66 2fbd 4e0d cb3d bb00 0fbd f771 99bd
000000e0: 4c4c 0fbc f86e 183e 293b ca3d 78b7 053d
000000f0: 6884 fc3d 6658 983d 00fe 15be b2a8 10bc
00000100: cd63 15bd 5fa1 05be 1a9f 0b3d d77e fcbc
00000110: bb3a e33d 2ddb c8bd 29a9 da3d 4c22 1d3e
00000120: c484 2e3c 029a 9dbc 1a97 c9bd a5c4 cdbc
00000130: 3a82 4fbc fd9d bebd cab0 423c 9a6f 8abd
00000140: afa8 1ebe 5eba 09be a97f 4dbd be47 8dbe
00000150: fcab 48be 8f83 01be c3d1 ebbd 22be af3d
00000160: 78e7 09be 3f3f 853d 3964 0fbe 838d 1b3e
00000170: 4613 a03d 27a1 88bd 8537 9dbd 79d6 dcbd
00000180: dd1c a13d c393 debd 0195 81be 0077 06bd
00000190: 7640 b7bb aaec 40bc 3a56 0abe 1ba8 8ebd
000001a0: c2eb d53d 8ca6 1fbd 0b63 9c3d afb9 f53c
000001b0: cf0b 5a3d 87ca e1bd 37c1 46be 01e1 d13c
000001c0: 06d0 20be eed0 9bbd b05e 2abc 30a9 c2bd
000001d0: 694d c33d 01b4 a83d 1b5b 1d3d 9503 fabc
000001e0: f7a8 10be aa81 0dbd f486 c13d f219 183d
000001f0: facd c0bd 519a e93b 0d0c 063e 2916 a3bd
00000200: 0087 dfbb f28d b23c 4b5b c8bd cb07 05be
00000210: 88ab 793d 6018 9e3d 0188 fd3d 95a8 3fbc
00000220: 0044 803c 7f01 65bd 7633 49bd a39e 3c3d
00000230: 2471 0fbe 6c90 f9bd 3123 13be 1e32 c93d
00000240: f3e4 22be aeb5 143d bb3c 033e 2306 353e
00000250: 0e4e 113d 47f4 87bc 1111 933d 46b0 a23d
00000260: 2cb8 6f3d 3913 03bb 5c7c 433b a358 49bd
00000270: 39cb 76bd d52f 19be 1c82 983c cb32 a7bc
00000280: e840 343d 9077 20be 062f 4abd 1222 8bbd
00000290: b43d 673d fc0a 8abd 106e 413d dcb5 79bd
000002a0: 60de 90bd 2912 1abe cb53 b5bd 7b80 b13d
000002b0: 8a73 0c3e 4e08 c6bd 489c bebd 09d4 33bc
000002c0: 6252 323d 524a 1ebe 705c 663c a090 253c
000002d0: 8ef8 72bd f840 143d cf58 62bd 984b b73d
000002e0: 3d43 893d de6a 4bbd e20d aa3d 80df b2bb
000002f0: 6679 f6bd e000 1c3c 6872 f6bd cc2b 6d3d
00000300: 35de 1e3e f194 1f3e 69c8 96bd d4d8 b23c
00000310: 9e67 8d3d 0a7c 18bd 9c92 18be 2ff4 13be
00000320: a054 d6be caa9 a8bc 0633 69be db8d edbd
00000330: eb8b 59be 9392 cc3c 9a0c f5bd 7c6b 2b3d
00000340: cb08 b7be 192d 0f3d facb 3dbd 4b38 bb3c
00000350: 1d50 ee3d 54b2 b6bd 9e05 31be f046 9d3d
00000360: 6beb 003e a6de 8fbd f4ea 98be c0c2 65bb
00000370: 06eb d2bd 83a9 f6bd 4dbb 40bd 0e88 b9bd
00000380: 6751 efbd cc41 d6bd bc09 093e a65d 3ebe
00000390: a758 a03c 430b adbd 0360 27be fa59 15bd
000003a0: f8b3 2bbe 78a7 4b3d e0ad adbd e6ac 4bbe
000003b0: ab30 fa3d bf28 17be e1ce ddbb a1fc 033e
000003c0: 13e2 f2bd d051 633d 4809 c2bd c602 e2bd
000003d0: 26c5 36be bca9 8abd 7859 bc3d 94be c8bd
000003e0: 9a04 30be 9b28 133d 3ca8 a4bc 2e9f ebbd
000003f0: 7f75 0ebe a47b 313d ef09 1bbe f02d 013d
-0.09281239 0.022692535 0.06620069 -0.10214033 0.0530273 0.07094843 -0.09516556 0.105817385
0.093639895 0.034473248 -0.09058064 0.016425429 -0.045462396 0.119332574 -0.009956119 0.19700895
0.09301237 -0.062016822 0.06326572 0.052578386 -0.119993106 -0.025588175 0.03226616 -0.15997691
0.040025823 -0.044488724 -0.14742647 -0.15860106 0.12955983 0.05735518 0.0113913575 -0.13758078
0.124622844 0.0709976 -0.01587405 0.11013669 0.039835326 -0.04151512 0.14961997 -0.10251569
-0.0844068 -0.1537704 -0.007461499 -0.100278735 -0.053226978 -0.048151337 -0.1215634 0.02231802
0.04059229 0.14898168 0.05175786 0.11304394 -0.042822596 0.09914647 -0.034912806 -0.0749244
-0.008746218 0.14886081 0.09874565 0.032645673 0.12329942 0.07438736 -0.14647675 -0.008829283
-0.03647213 -0.1304984 0.034087278 -0.0308222 0.11095186 -0.098074295 0.10676796 0.15345114
0.010651771 -0.019238476 -0.098432735 -0.025118181 -0.012665326 -0.093074776 0.01188297 -0.067595676
-0.15494035 -0.1345 -0.050170574 -0.27593797 -0.19596857 -0.12647842 -0.11514618 0.08581187
-0.13467205 0.06506204 -0.14003076 0.15190701 0.07816176 -0.06671362 -0.07676605 -0.10783095
0.07866833 -0.10868027 -0.25308993 -0.03282833 -0.005592401 -0.011775175 -0.13509455 -0.06965657
0.10445358 -0.03897719 0.076360784 0.029995767 0.053233918 -0.11024957 -0.19409643 0.025619986
-0.15704355 -0.076082096 -0.010398552 -0.09504926 0.09536249 0.08237458 0.038416963 -0.030519286
-0.14126955 -0.034547485 0.094495684 0.03713412 -0.09414287 0.0071289917 0.13090535 -0.07963211
-0.006821513 0.0217962 -0.09783038 -0.12991254 0.0609546 0.07719493 0.12379456 -0.011697908
0.015657425 -0.05590963 -0.049121343 0.046049725 -0.14008003 -0.121857494 -0.14368893 0.09824012
-0.1590765 0.036306076 0.12816136 0.17678122 0.03547483 -0.016595973 0.071809895 0.07943778
0.05852525 -0.0020000471 0.0029828763 -0.049156796 -0.060252402 -0.14959653 0.018616728 -0.020409962
0.044007212 -0.1567061 -0.04936125 -0.06793608 0.05645533 -0.06740376 0.047224104 -0.06096445
-0.07073665 -0.1504599 -0.08853873 0.08667084 0.1371595 -0.09669553 -0.09307152 -0.010975846
0.043535598 -0.15458038 0.014060125 0.010105282 -0.05931907 0.03619477 -0.055260476 0.08949965
0.06702278 -0.049662463 0.08303429 -0.005458772 -0.12034874 0.009521693 -0.1203354 0.057903096
0.15514453 0.1558416 -0.07362444 0.021831907 0.06904529 -0.037227668 -0.14899677 -0.14448617
-0.4186144 -0.020588774 -0.2277337 -0.115993224 -0.2124478 0.024972236 -0.11965294 0.041850552
-0.35748896 0.034955118 -0.046337105 0.022853991 0.11636374 -0.08920732 -0.17287299 0.07679546
0.12589805 -0.07024889 -0.29866755 -0.0035058707 -0.102987334 -0.120440505 -0.047053624 -0.090591535
-0.11685448 -0.104617685 0.1338262 -0.18590412 0.019573523 -0.084494136 -0.1634522 -0.03646276
-0.16767871 0.049720258 -0.0848043 -0.19890174 0.12216314 -0.14761637 -0.0067690467 0.12889339
-0.118595265 0.055497944 -0.094744265 -0.11035685 -0.17848644 -0.067706555 0.09196752 -0.09801975
-0.17189255 0.035927396 -0.020099752 -0.115049705 -0.13912009 0.043330804 -0.15140508 0.03153795

model.2.bias f4 [40]
00000000: 6ffb 2c3e e1d7 eb3d 9e0f 70bd 3937 6a3d
00000010: a380 9cbd 597d 20be 5f60 bdbd 19d1 8cbc
00000020: d592 4e3d ac75 d9bc a137 2e3d 2da2 81bb
00000030: c86d 46bd 2b65 293e 005f 95bc c38d 81bd
00000040: 772a 613d 766d 703d 79a8 393d 79eb 8dbd
00000050: 8819 47bd 604f a63d 04d8 aabd 9d88 db3d
00000060: d751 16be 9f9f 9bbd 2bea 81bc c2c1 0c3e
00000070: b720 673e d8ba 643d 4f9a b93d e984 c1bc
00000080: 3dd3 233e f569 9e3b 3952 da3b 7121 5d3e
00000090: 0f22 99bd 74e3 983d fb64 f4bd ab41 aabc
0.1689279 0.11515785 -0.058608644 0.05718157 -0.07641723 -0.15672816 -0.09246897 -0.01718955
0.050433 -0.026545368 0.04253352 -0.0039561004 -0.04844454 0.16542499 -0.018233776 -0.06325867
0.05497214 0.05869814 0.045326684 -0.069296785 -0.048608333 0.08120608 -0.08341983 0.10719416
-0.14679657 -0.07598805 -0.01585873 0.13745788 0.22571073 0.05584225 0.09062635 -0.023622947
0.1599855 0.0048344084 0.0066626337 0.21594788 -0.07477199 0.07465258 -0.11933323 -0.020783266

model.4.weight f4 [40, 40]
00000000: e96e e73d 25bc c53d d8c9 7c3d cf16 133e
00000010: 2ea0 9b3d a10d 9dbb 8066 c0bd b83a 4c3d
00000020: e3ff 91bd 9484 f43d 5dce 47bd 3f0c e03d
00000030: f33e bbbc 9424 723d 0439 b0bc 2239 013e
00000040: 82c1 54bd d310 07be 2419 a7bd 3d8b 97bd
00000050: 2ffc 81bd be41 00be e620 18bd cc18 b33c
00000060: de9f e13d c2b9 fcbd 5f91 33bd 8e51 f3bb
00000070: 8cf3 97bc 013c 07be 916b 1c3c 2b9f c43d
00000080: 80e8 3c3e 9b4c 1f3e 5699 88bc d998 53bd
00000090: d5ab 713d 8a58 063e 195f 863d 4595 e73d
000000a0: aa10 013e 37d6 81bd 8281 2d3d 8abe e0bd
000000b0: 8559 0b3e b513 01be b165 ed3d 12d2 16bd
000000c0: f7de babd 5cc6 8dbb 3b35 9b3d fcad 90bd
000000d0: 7ed3 3f3d 5e9e 553d 77a2 363d d502 403d
000000e0: c1ac 04be f5e5 da3d 3ab5 8c3d a278 233c
000000f0: 5430 29bd 246b f0bd 7000 043e b093 6abd
00000100: 320a 923d a5b8 033d a5c0 d3bd 6016 debd
00000110: 8386 5ebc 3f46 9dbc 3f07 8fbc adae 083e
00000120: 8c11 13bd c5bd d3bc fdc9 bd3d 7e9a d2bd
00000130: a087 35bd 491a f2bd b0e4 97bd eba1 65bc
00000140: 1229 333e a10a ec3c 4c20 c5bd 6d7c e3bd
00000150: 5c4f 04be f0d0 fabd 99b4 49be 5d65 04be
00000160: ec82 9bbd e3a3 70bc 12a1 dbbd 1f2e 2fbd
00000170: 66ca ccbc fe42 8c3d cee5 d4bd 3eaf 6ebd
00000180: e7df d0bd 704b a03d 859b 01be 5411 eb3d
00000190: c38a 75bd 4510 08be ba80 013d f848 cb3d
000001a0: aeb9 813d 06f6 df3d b7e3 c5bd 902a 16be
000001b0: b3e8 0c3e 692a 80bd 81d3 52bd 63f8 9c3c
000001c0: fae4 bdbd 36c8 1f3c 034e 5ebd 4f4f 1a3e
000001d0: 16d4 5b3d dff6 92bd eeab 92be f20b 1cbe
000001e0: 914c 92bd 0ef9 3e3a af1b 8fbd 9b38 9dbd
000001f0: 5243 083e eb38 f5bd d629 1bbd af86 d03d
00000200: 4fb3 f63d 39ff 0cbe 68f3 c13d 67bd a6bd
00000210: 2645 853d 4e0e 0f3e 4e85 adbc 8965 f3bd
00000220: a20d 7cbc f6af a9bd 4404 a43d 1246 c9bc
00000230: 3b2f 57bd 9f6a 403d 2a73 023e 4da8 603d
00000240: 9e07 4fbd 3457 8c3c c4f2 39bc f654 9abc
00000250: 36fb 2dbd 4fc5 d23d 374e 26be db61 b13d
00000260: 403e e03d 444c b43d 17a3 9dbd b6a8 fbbd
00000270: 67a6 ed3c 1c16 6ebc 29ec 8d3d c48d 4d3d
00000280: 97e8 853d bfae e5bd 8c85 d0bd d0cd 6c3d
00000290: 6cac 2bbd b1b4 54bc 4666 023e ce36 173d
000002a0: 44f1 6cbd de60 bd3c bd27 683b bc0e 8cbc
000002b0: c063 983d d86e 193e 4455 f4bd fcff 7bbd
000002c0: 9a73 32bd f786 cabc c263 143c 0be9 903d
000002d0: d45a 8d3c e086 213e a09d b6bd 2853 81bd
000002e0: 7837 073e afb2 e6bd 44d4 35bd 630e 0f3e
000002f0: ddf0 173e ae55 fabc 2ae3 fb3d 0682 b73b
00000300: 16d8 673d b425 9e3d e06f 5a3d ea0a 04be
00000310: a8de 153e 8939 e9bd 4ba7 08be 85b6 82bd
00000320: bee0 a8bb 6f54 24bd 0c5a a9bc a6a3 2f3c
00000330: e67d a93d 75f3 b43c d798 b73c 3796 0f3e
00000340: b67d e93d f0fb 9a3d 1ad0 98bd d73f 11be
00000350: 36d9 1bbe 4e27 84bc cdb6 12bd e1a2 1fbe
00000360: 0ee5 f33c d273 2ebd e0c7 4abc 56ca f63d
00000370: 7296 7e3d a54f 813d 6c1d 3c3d 62f7 973d
00000380: 8333 34bc 675a 903d 0967 26be 94f5 a8bd
00000390: c080 c1bc a45e 17be 1731 c93d 4ab5 1e3e
000003a0: 8452 a2bd 4ebe cabd 42b4 30bc d7f8 933d
000003b0: eb34 8c3d cc88 0dbe 8c2e 9cbd 8d94 083d
000003c0: 393b 063e 4e0d 38bc ed49 193e 9d82 f83d
000003d0: 83e8 073e 1655 98bd 7b3e 203d 5283 863d
000003e0: bee7 943d cb57 b6bc 595d 263e b567 1e3e
000003f0: 17ff babc ce1b b5bd 7789 e5bd 83f2 dcbd
0.11300451 0.09655026 0.06171593 0.1436417 0.07598911 -0.0047928845 -0.0939455 0.049860686
-0.07128885 0.1193935 -0.048780788 0.10939836 -0.022857165 0.059116915 -0.021511562 0.1261945
-0.051942356 -0.13190012 -0.08159092 -0.073996045 -0.06346928 -0.12525079 -0.03714075 0.02186241
0.1101682 -0.12340118 -0.04383981 -0.0074254936 -0.01854875 -0.13206483 0.00954713 0.096006714
0.18448067 0.15556566 -0.016674679 -0.05165944 0.059001762 0.13119712 0.06561107 0.11307768
0.12604013 -0.06339686 0.042359836 -0.109738424 0.13608368 -0.12605174 0.11591662 -0.036821432
-0.091245584 -0.004326625 0.07578512 -0.07064435 0.046832554 0.052152984 0.044588532 0.0468777
-0.12956525 0.10688392 0.06870504 0.009977492 -0.041305855 -0.117391855 0.12890792 -0.057269752
0.07130851 0.032158513 -0.103394784 -0.108441114 -0.013581875 -0.019198535 -0.01745951 0.13347884
-0.035905406 -0.025847325 0.09267042 -0.10283373 -0.044318795 -0.1182142 -0.074166656 -0.014015655
0.17496136 0.028813662 -0.09625301 -0.11107717 -0.12920898 -0.12246883 -0.19697799 -0.12929292
-0.07593331 -0.014687511 -0.10724081 -0.042768594 -0.024998855 0.06848715 -0.10395394 -0.058272593
-0.10198956 0.078268886 -0.12656982 0.114779145 -0.059946787 -0.13287456 0.031616904 0.09926027
0.06334244 0.10935597 -0.09662574 -0.14664674 0.13760643 -0.06258089 -0.051471237 0.019161409
-0.092721894 0.009752324 -0.054273617 0.15069316 0.053669058 -0.07175993 -0.28646797 -0.15238932
-0.0714351 0.0007285037 -0.06987702 -0.07676812 0.1330693 -0.11973747 -0.037881695 0.10181939
0.12045919 -0.13769235 0.09470254 -0.081415944 0.0650733 0.139703 -0.021181729 -0.11884601
-0.01538411 -0.08285515 0.08008626 -0.024569545 -0.052535277 0.04697668 0.12739244 0.054848004
-0.050544374 0.017131425 -0.011349384 -0.01883934 -0.0424759 0.1029154 -0.16240774 0.086612426
0.10949373 0.08803609 -0.076971225 -0.122880384 0.02901001 -0.0145316385 0.069298096 0.050184026
0.065385036 -0.11214971 -0.10181722 0.057813466 -0.04191248 -0.012982533 0.12734327 0.0369175
-0.057847276 0.023117479 0.0035424076 -0.01709687 0.07440901 0.1498369 -0.119303256 -0.061523423
-0.043567277 -0.02472256 0.009056987 0.070756994 0.017255224 0.15774107 -0.08916783 -0.06314689
0.13204753 -0.1126455 -0.044391885 0.13970332 0.14837976 -0.030558433 0.122991875 0.005600217
0.05660256 0.07722035 0.05332935 -0.12894788 0.14635718 -0.11387927 -0.13345067 -0.06382469
-0.0051537445 -0.040119585 -0.02067282 0.010720169 0.08275966 0.022088746 0.022411747 0.14022146
0.114009306 0.075675845 -0.07461567 -0.14184509 -0.15219578 -0.016132023 -0.035818864 -0.15589477
0.029772308 -0.042590924 -0.0123767555 0.12050311 0.062155195 0.06314019 0.045926496 0.074202314
-0.0109986095 0.07048493 -0.16250242 -0.08249965 -0.023620963 -0.14782196 0.09823816 0.15498844
-0.07925895 -0.09899579 -0.010785164 0.07225197 0.06846031 -0.13821715 -0.076260656 0.033344794
0.13108529 -0.011233641 0.14969607 0.121342875 0.1327229 -0.07438104 0.039122086 0.06568016
0.07270764 -0.02225866 0.16246547 0.15469249 -0.022826714 -0.08843194 -0.1120786 -0.10788443

model.4.bias f4 [40]
00000000: f33f e6bc 88d5 c6bc 02eb d0bd 6524 3c3c
00000010: 8701 f6bd 7841 dfbd b217 64bc 89fe 8cbd
00000020: f5ae 91bd fd9d bdbc e9eb d5bd 6c04 483d
00000030: 6ee8 93bd 3d70 c53c 32cb 313e 8afb 0c3e
00000040: 5c37 553c 792d 91bd f4af d7bd 515b 613d
00000050: d0dd ebbd 698d a8bd 50c3 1d3d 1bc5 953d
00000060: 4482 00be 0c42 3a3d be4f 33bd 1b1b a4bd
00000070: e81f 1dbe db84 edbc 8104 713d 03a2 cbbc
00000080: 8c6c 293e fb53 efbd 1cb4 07be 84c9 e53d
00000090: 5c9a 0d3e 38b8 adbb 09b5 07be 0cd1 9e3d
-0.028106665 -0.024271742 -0.10201074 0.0114832865 -0.1201201 -0.10901159 -0.013921665 -0.06884486
-0.071134485 -0.023146624 -0.10445387 0.048832342 -0.07222067 0.024101371 0.17362669 0.1376783
0.013013687 -0.07088751 -0.10531607 0.055018727 -0.11516917 -0.08230097 0.038516343 0.073129855
-0.12549692 0.045473143 -0.04377722 -0.080129825 -0.15344203 -0.028994014 0.058842186 -0.024857527
0.16545314 -0.1168594 -0.132523 0.11220077 0.13828415 -0.0053015016 -0.13252653 0.07754716

model.6.weight f4 [40, 40]
00000000: adfd da3c a68f c3bd 11f4 05be a25a e1bc
00000010: 0e93 8f3d bbd4 10be 7c61 263d 924d 04bc
00000020: a140 1e3e 78c9 8f3d 930d 6bbd 19dc dfbd
00000030: e441 cf3c 192f c9bd 3e82 b13d 5d2b c1bd
00000040: f483 8f3d 778c 07bd 9e9c f2bc ab99 e03d
00000050: 81d7 fdbd dcde f23a 159f ba3d b7e4 fc3d
00000060: 2675 4ebb 29e0 0338 8f5c abbd d75c 3bbc
00000070: 0fce 2abd 31b2 623d 9867 17bd 93ae c03d
00000080: af24 d93d 3100 c4bc 359c 05be 228a 06be
00000090: 615a 963d 3ee5 84bd cb79 0e3d 614a 56bc
000000a0: ccfc 93bd db8a 10be c9d8 04bd 3332 8abd
000000b0: 2f47 a43d 3211 d63d 4a4b c6bd 2950 243e
000000c0: a6dd 46bd 69a2 523d a7c0 8d3c bed1 c53d
000000d0: baa3 e23c 3efb 93bd 5804 e7bb da8f 23bc
000000e0: 79e2 6dbd a087 86bb d809 ae3d 58ff b5bd
000000f0: 83c6 233e 70d8 013e cf03 75bd 667a afbd
00000100: 6902 acbc 09a7 163e 3aa9 96bd de7e df3c
00000110: 62e6 bc3d 918c 00be 8eb4 0d3e fe13 94bc
00000120: 2092 67bd b1b5 abbd 0621 f93d d816 1cbe
00000130: 8cb9 11be 23b1 a7bd f47a 04be 360f d03d
00000140: 0920 263e aaee 053e d1a8 3e3c b1e1 333e
00000150: 400e 93bd be60 d9bd 3529 5fbd 0aef be3c
00000160: 743c 1f3d 5532 87bd a413 d63c 73fc 13be
00000170: 1d7f 1e3c 5223 10bd 1792 c2bd bbf5 573c
00000180: e63b 55bb b014 01bd d5c2 2bbc c221 14be
00000190: 5fac b43c f2b3 003e ccee d83d 37a2 9b3d
000001a0: 1c53 f8bd bd7a a53d 5747 933d 75a6 00be
000001b0: 716d f1bd 38f6 bfbd 9068 3b3d 797d ad3b
000001c0: 31de 103d 61c9 fdbd 7e96 dd3d f770 eebd
000001d0: 40a5 ffbd ced6 073e f97e ee3d 2e67 6cbd
000001e0: 031f 50bd 8640 b8bc 6f0d 1e3e b645 6ebd
000001f0: d0a5 36bd 9a36 ab3d 1422 dcbd e897 86bd
00000200: f680 cf3d d736 16be 612c 9cbd 297d f43c
00000210: c4a9 003c f6c4 af3d cf20 4fbc 6a4b c7bc
00000220: 968f 0bbd a5a1 053e 6b6f c33d c06d 863d
00000230: c68c 7e3d f29f 14be 6be7 58bd 33cf fe3d
00000240: 6993 7d3d 48e7 ad3b d421 e93d 30e2 8e3d
00000250: ab8f 863c ee4e d33d 1c02 d1bb b412 c3bd
00000260: 7fd2 7dbd e9bb 393c e4ae e03d 6fc8 4cbc
00000270: d1f8 2d3c 38bb bbbd e7ff acbd 45a7 d3bd
00000280: 061d 4fbd fd76 ccbd 199e ca3b 8f66 7d3d
00000290: 3848 123c 204e b2bc 1725 6bbd 0511 77bd
000002a0: 8510 a13d 83f1 48be 7215 f13d 4666 2ebe
000002b0: 1fee febd c031 c2bd a147 813d abf8 9cbd
000002c0: d701 e3bd bc9f 123d 83a5 1cbe 481d 94bd
000002d0: 5f39 d9bd 53c5 43bd 1e15 1abd f9c2 08be
000002e0: 68c9 ce3d dad3 413b e95c 1cbe 5642 9d3d
000002f0: d3ff 1c3e 69dc b73d e653 673c d850 cebd
00000300: 3267 1bbe faa4 563d 9dae 073e b613 49be
00000310: eb88 98bd 21bb fe3d ed7c 1fbe 602d 7bbe
00000320: f97f 3d3d 913b 613d 1907 91bc b365 9ebc
00000330: e25b 8f3c 673f 92bd 159f 29bc ce46 fcbd
00000340: 0203 653d 3184 43bb 63d8 fbbd b4e2 513c
00000350: 8db4 02be 8164 7dbd b0bb c8bc ef73 e53d
00000360: 1605 eebd c63e 023e 70c3 88bd 168d 22be
00000370: 9cca f5bd 5fec 1f3e 9217 fe3d 3cac f0bd
00000380: cf77 67bd ad75 43bd a720 9c3c 136e 763d
00000390: 708a 1cbe 03f9 1abd b032 303e 7f74 07be
000003a0: 095f f23d e5b8 af3d c168 f0bd 2953 0bbe
000003b0: f91b 03be 748d de3b 899d 0d3d 2d6d 8b3d
000003c0: 33a8 97bd ee47 323d a8ae fbbd 4895 94bd
000003d0: 7424 bc3c 873d a5bd a8c7 1e3e dc04 d73d
000003e0: 7ae4 f83c 4750 cdbd f56d 02be dbc4 cbbd
000003f0: 45e6 ffbd a4f9 f33d 97c7 963d 2dfe e03c
0.02673229 -0.09548883 -0.13081385 -0.027509037 0.0701047 -0.1414365 0.040620312 -0.008075135
0.15454341 0.07020849 -0.057385992 -0.10930652 0.025299974 -0.09823436 0.0866742 -0.09432099
0.0700759 -0.033092942 -0.029615697 0.1096681 -0.1239462 0.0018529552 0.09112374 0.123483114
-0.0031502931 3.14416e-05 -0.083672635 -0.011435709 -0.04170042 0.055345718 -0.03696403 0.094082974
0.106027 -0.023925873 -0.1304787 -0.13138631 0.07341457 -0.06489037 0.03478412 -0.013079257
-0.072259516 -0.14115469 -0.032433305 -0.06747856 0.0802139 0.104524985 -0.09682329 0.16046204
-0.048551224 0.051424418 0.017303778 0.09659146 0.027665962 -0.07225655 -0.0070500784 -0.009983027
-0.05807731 -0.004105523 0.08497971 -0.088865936 0.15993695 0.1268022 -0.059818085 -0.085682675
-0.020997243 0.14712156 -0.07356496 0.027282175 0.092236295 -0.12553622 0.13838407 -0.01807594
-0.05653584 -0.08384264 0.12164502 -0.15243089 -0.14230937 -0.08188083 -0.12937528 0.10159151
0.16223158 0.13079324 0.011636929 0.17566563 -0.07180452 -0.10614155 -0.054482657 0.023307342
0.038876012 -0.06601397 0.026132412 -0.1445177 0.009673861 -0.035189934 -0.09500521 0.013181145
-0.0032536923 -0.03151387 -0.010483463 -0.14466003 0.02205485 0.12568644 0.10592422 0.075992994
-0.12125227 0.08080051 0.07191341 -0.12563498 -0.117884524 -0.093731344 0.045754015 0.0052944985
0.03536815 -0.123919256 0.1081972 -0.1164264 -0.12482691 0.13265535 0.11645312 -0.057715587
-0.050810825 -0.022491705 0.15434812 -0.05817195 -0.044591725 0.08360024 -0.107486874 -0.065719426
0.10132019 -0.14669357 -0.07625652 0.029844837 0.007852975 0.08582489 -0.0126420995 -0.024327952
-0.03407248 0.13049944 0.09542736 0.06563902 0.06214597 -0.1451414 -0.052955072 0.12441864
0.06190816 0.005307112 0.11383405 0.069767356 0.016425928 0.10317789 -0.0063784253 -0.09525052
-0.061968323 0.011336305 0.10970858 -0.012498959 0.0106184045 -0.091665685 -0.08447247 -0.103346385
-0.05056479 -0.09983633 0.0061833975 0.061865386 0.008928351 -0.021765769 -0.05740842 -0.060318965
0.07864479 -0.1962338 0.117716685 -0.17031202 -0.12447762 -0.09482145 0.0631249 -0.07664617
-0.11084335 0.035796866 -0.15297513 -0.072321475 -0.10606646 -0.047795605 -0.037617795 -0.13355626
0.10097009 0.0029575736 -0.15269817 0.07678668 0.15331964 0.08977587 0.014119124 -0.100740135
-0.15176085 0.052403428 0.13250203 -0.19636425 -0.0744799 0.12438036 -0.15574999 -0.24529028
0.046264622 0.054988448 -0.01770358 -0.019335603 0.017499868 -0.07140999 -0.0103528695 -0.123181924
0.05591107 -0.002983343 -0.12297132 0.012810398 -0.12764187 -0.061863426 -0.024503559 0.11203753
-0.11622064 0.12719259 -0.06677902 -0.15874133 -0.12001535 0.15617512 0.124068394 -0.11751601
-0.056510743 -0.047719646 0.019058539 0.06016357 -0.15287185 -0.037835132 0.17206836 -0.13228033
0.11834533 0.08580188 -0.1173873 -0.13605942 -0.1280364 0.006791765 0.034574065 0.06807933
-0.07405128 0.04352563 -0.122891724 -0.07255036 0.022966601 -0.08068376 0.1550585 0.10498974
0.030382384 -0.10025077 -0.12737258 -0.099496566 -0.12495092 0.119128495 0.073622875 0.02746495

model.6.bias f4 [40]
00000000: b3a8 41bd d0f4 03be c4cf 95bd b188 f4bc
00000010: e4e1 97bd df9f 9abd 3e36 44bd 2dd9 193e
00000020: c986 3c3e 1ee7 7c3d 6cbe cbbc a59a e4bc
00000030: 775b 85bc f675 693d ffe2 ed3d 190c 9fbd
00000040: 3910 a43d 8296 e0bc ba96 0ebd 4124 cb3d
00000050: 73ea 12be 4ff8 8e3e 8d69 983e 0cf8 223e
00000060: 864c 593e 053a acbd 321b 113e 8c9f 82bd
00000070: 8ba9 2a3e f7a0 ddbd dfe4 80bd 94ce 2d3e
00000080: d1ea 1cbe 2543 883d b1a9 76bd d1ef 90bc
00000090: 77b3 6e3c 4ce3 c03d 366b 05be 6169 a73e
-0.047280025 -0.12886357 -0.07315019 -0.029850336 -0.07416132 -0.07550024 -0.047903292 0.15024252
0.18410791 0.061743848 -0.024871074 -0.027905772 -0.016278965 0.056997262 0.11615562 -0.07765979
0.08010907 -0.027415518 -0.034811713 0.09919024 -0.14347248 0.2792382 0.2976803 0.15914935
0.21220598 -0.08409504 0.1417053 -0.063780874 0.16666238 -0.10821717 -0.06293654 0.16973335
-0.1532395 0.06653432 -0.060220424 -0.017692478 0.014569155 0.094183534 -0.13029179 0.32697585

model.8.weight f4 [40, 40]
00000000: e62e f1bd f824 1dbe b09b 1b3d 936a 20bd
00000010: 9da2 08be 0147 093e e32e 5bbd 2348 05bd
00000020: c37e 003e 4f0c 823d 4ce9 923d 4c45 013e
00000030: afca e7bd 6a71 943c dc69 95bd 4c59 d4bd
00000040: d5c7 8c3d 06f0 ca3d fc9b 343b 98b6 aebd
00000050: d8cb 90bb 2abf 963d 966a f0bd d23d 14be
00000060: 2720 20be 92ec bb3d f9d2 ee3d 30b2 c63d
00000070: a01d 30be 04ae 20be 8a6e 9b3d 340f 003e
00000080: 44e5 adbd 7d83 68bd 8c57 10bd b4b5 d63d
00000090: 3883 0b3d bf3a a43c 1fd8 86bd 8259 81bc
000000a0: 7996 a7bd c180 cb3d 2b13 0dbe 0d5b edbc
000000b0: 434a b4bd 5c74 983d 2d8e 3b3d df1e 12bc
000000c0: 7ca2 fabd c00e 50bc 0bd2 34bd c02a 133e
000000d0: a0c6 a3bc e9af 47bd d9ea 053e e9de 75bd
000000e0: 9e45 12bc 1904 ffbd 47e0 39be 1735 6f3d
000000f0: 9f65 89be f8d8 4dbc c4d2 ea3d 164f b9bc
00000100: e1aa 86bc 3a8d c4bd 81c9 513d 4134 bebd
00000110: 8d33 cbbc 08d2 e6bd 2d20 d0bd 0638 afbd
00000120: 3391 35bd 1869 0cbc 50ff 87bd f065 083d
00000130: 3ce8 ad3c 355f ccbc 430a 6fbc 8bf9 bfbd
00000140: 42e5 cd3c 5443 0ebe 7fb6 7ebd 03c8 143e
00000150: 7017 45bd 974a cbbd d818 03bb 8148 5dbd
00000160: f5f9 073e 81e7 033e f626 00be 9d29 84bd
00000170: 9b59 9dbd 3af0 14bd 057d 86bd 256b 12be
00000180: 1856 2b3d 70e9 173d ce51 cb3c 656a 50bb
00000190: 8901 32be 472a 8fbd 2dab 193c 8e80 f2bc
000001a0: aa08 f6bd d603 d1bc 3c4a be3d 3561 80bc
000001b0: a286 0e3d c1c7 d6bd fd98 3c3b cb32 31bd
000001c0: dadc d33d b470 f93d eaae 0f3c c91e dc3b
000001d0: 36b5 6c3d 71f7 06bc 5107 31be 0199 053d
000001e0: 8ba2 8e3b ce50 173d 8ea5 c53d db3e 3abd
000001f0: da82 aa3c b1a9 08be ebfc 0c3e b0ed 8cbc
00000200: 8cec 4c3d 0807 dcbd ff0c 113e 8fe9 eb3b
00000210: d822 303d 93ce 83bd 7efb c83d 1679 11be
00000220: c6ab a7bb 4bba dcbd a549 a83d 591e e73d
00000230: 011c 2bbd 3ba9 133c bf93 b4bd ae03 9d3d
00000240: c7ac d4bd 1f0b bcbd 9591 78bc 02ad d3bd
00000250: dbc8 0cbe 3b22 8abd f993 df3d c14e 503d
00000260: ca39 d83d 7273 113e 6935 4e3d 0250 72bd
00000270: 81c4 b03c 4e58 9e3c 372a 25be 9e82 b43d
00000280: c40d d9bd 428f d1bb 7127 f33c 80af 0d3d
00000290: 191f b23d 19fe fbbc 4762 19be 1517 f83d
000002a0: 8494 863d a707 b2bd 09d9 8d3d 76dd af3d
000002b0: 0dd2 0c3e 6544 8c3d aa54 a7bd 641a 963d
000002c0: 7e61 793d 00a1 93bd c959 5ebd 61d1 ad3d
000002d0: 79de f3bd a8bd b5bd 49be 653d 5303 e33d
000002e0: 9949 a1bd 04ab c03d 770e 3cbd e6d6 8cbc
000002f0: 70d5 963c 8f1e 493e 9bb7 1abe 206c ab3d
00000300: 8817 a83d 7018 da3d 0473 00be e39a 683d
00000310: 76b9 5a3d 8e4c 2b3d 34b7 d5bd a2d6 99bd
00000320: 46e2 e93d 20e7 2cbd e3b7 bcbd 586a b7bc
00000330: 89d5 d5bc f7a5 513d ff03 debd d754 ad3d
00000340: 968c 223d 1009 0cbe 3aa8 aa3d 25cc 52bc
00000350: 924d 13be 7b90 f3bd 35ff 8c3d 23bd cabb
00000360: 2f1a ffbd 16bf 08be 40c2 a13d 8023 f53d
00000370: 2398 193e 6b01 ae3d ff30 ccbd f060 c63d
00000380: 5776 cb3d bab1 f4bd 7601 663d 1693 60bd
00000390: 3496 17be 0dd1 423c 6cc6 16be d17a 31bd
000003a0: ee85 063d 3750 be3d dcfa aa3d ea96 733c
000003b0: 2da7 9dbd 590c 57bd ad0f 19be abc1 cc3b
000003c0: ead5 abbc da35 923d 6b7b 01bd 3dd1 71bd
000003d0: e489 acbd f72f 473d cb0a dabd 6eed 943d
000003e0: 1172 43be 5f1f 023c cadd 193d 5009 d5bc
000003f0: fa4c f63c d000 683d d261 60be 9a2a 3bbc
-0.11776523 -0.15346134 0.037990272 -0.039164137 -0.13343282 0.13405992 -0.05351151 -0.032539498
0.12548356 0.06350004 0.07173404 0.12624091 -0.11317956 0.018120486 -0.07295582 -0.103685945
0.068740524 0.09909062 0.0027558794 -0.08530921 -0.0044188313 0.073606804 -0.1173908 -0.14476708
-0.15637265 0.091759816 0.116613336 0.09701955 -0.17198801 -0.15691382 0.07589443 0.125058
-0.084909946 -0.056766022 -0.03523974 0.10483876 0.034060687 0.020047544 -0.065841906 -0.015789751
-0.08182997 0.09936667 -0.13776843 -0.02897408 -0.08803227 0.07444069 0.045789886 -0.008918493
-0.12238023 -0.012698829 -0.044145625 0.14371777 -0.019992173 -0.048751745 0.13077869 -0.060027037
-0.008927731 -0.124519534 -0.18151961 0.05840024 -0.26835343 -0.012563936 0.114659816 -0.022620719
-0.016438903 -0.09597249 0.05121756 -0.092873104 -0.024804855 -0.11270529 -0.10162387 -0.085556075
-0.044327926 -0.008569978 -0.06640494 0.03330034 0.021228902 -0.024947742 -0.014589849 -0.093737684
0.025133733 -0.13892871 -0.06218576 0.14529423 -0.048118055 -0.09926336 -0.0020003822 -0.054024223
0.13278945 0.1288128 -0.12514862 -0.064532496 -0.076831065 -0.03636191 -0.06566814 -0.14298685
0.041830152 0.037087858 0.024819281 -0.0031801697 -0.17383398 -0.06990486 0.00937919 -0.029602315
-0.12013371 -0.025514524 0.09291503 -0.015671352 0.034796365 -0.10487319 0.0028777712 -0.04326133
0.103448585 0.121796995 0.00876973 0.006717537 0.057790004 -0.008237706 -0.17287947 0.03261662
0.0043528727 0.036942296 0.09650718 -0.0454701 0.020814348 -0.13345982 0.13768356 -0.017203182
0.050030276 -0.107435286 0.14165114 0.007199473 0.04300198 -0.06435885 0.09813593 -0.14206347
-0.0051169125 -0.1077772 0.082171716 0.11285085 -0.041774753 0.009012516 -0.08817243 0.076667175
-0.10384517 -0.09181809 -0.015171428 -0.10335733 -0.13748495 -0.0674481 0.109168954 0.050856356
0.105578974 0.14204195 0.050343905 -0.059158333 0.021578075 0.019329216 -0.16129385 0.08813976
-0.10598329 -0.0063952515 0.029681893 0.034591198 0.08697338 -0.030760812 -0.14978896 0.121137775
0.06571296 -0.08692866 0.06926162 0.08587162 0.13752003 0.06848983 -0.08170445 0.07329252
0.06088399 -0.07208443 -0.054284845 0.084872015 -0.11907668 -0.08874065 0.056089673 0.110846184
-0.07875366 0.09407619 -0.045912232 -0.017192315 0.018412322 0.19640563 -0.15109102 0.083702326
0.08207613 0.10649192 -0.12543875 0.056788336 0.053399526 0.041821055 -0.10435334 -0.07511641
0.11420111 -0.042212605 -0.09214761 -0.022389576 -0.026102798 0.051183667 -0.10840606 0.084634475
0.039684854 -0.13675332 0.08332868 -0.012866055 -0.1438506 -0.11892792 0.068846144 -0.0061870976
-0.12456166 -0.13354144 0.07898378 0.11969662 0.14999442 0.08496364 -0.09970283 0.09686458
0.09934681 -0.11947961 0.056153737 -0.054827772 -0.14803392 0.011890662 -0.1472413 -0.043330017
0.03284257 0.092926435 0.08348629 0.014867524 -0.07697902 -0.05250201 -0.14947386 0.006248673
-0.020976026 0.071391776 -0.03161184 -0.059037436 -0.08424738 0.048629727 -0.1064659 0.072718486
-0.19086482 0.00794205 0.03756503 -0.026005417 0.030066002 0.0566414 -0.21912315 -0.011423731

model.8.bias f4 [40]
00000000: e092 aebd 0ee8 19bd e020 f9bd 1195 71bd
00000010: 4443 fdbd bdde 7b3c 8dd5 823f b84a ccbd
00000020: 3922 e0bd 0ae5 7e3e a185 e43d 570e 59bd
00000030: 2d0e 363e 1ad4 ad3c 7e10 0a3d 310a 77bc
00000040: 7709 81be f329 03be 2f92 af3d b058 6e3d
00000050: 3067 a93e 6373 aabd 704f eabd c2c4 5cbd
00000060: 7e4c f6bc 4aa3 9b3e 9636 f8bd 68cc 11be
00000070: 381a 203d c19b d2bd f269 16be 5009 1ebe
00000080: cd82 753e 8185 073e b6b4 a7bd 9989 863d
00000090: 60a1 eabd 7460 173c 0349 78bd 01af 843e
-0.08524108 -0.03757482 -0.121644735 -0.05898005 -0.123663455 0.015372929 1.022142 -0.09975189
-0.109440275 0.24892059 0.111583 -0.05299219 0.17778845 0.021219302 0.033707134 -0.015078113
-0.25202534 -0.12808971 0.08572804 0.058190048 0.33086538 -0.083227895 -0.11440933 -0.05389858
-0.030065771 0.30398017 -0.121197864 -0.14238131 0.039087504 -0.10283614 -0.14688852 -0.1543324
0.23975678 0.13234521 -0.08188765 0.065692134 -0.11456561 0.009239305 -0.060616504 0.25914767

model.10.weight f4 [1, 40]
00000000: 9ff6 a5be 123a 3abf 10c5 91be ae35 ed3c
00000010: dc18 16be 4080 97bd 5964 8d3f 10c0 b8be
00000020: 2643 6f3d bbd6 b1be f2a1 6ebe 4588 aabe
00000030: 227b f13d 934f ddbd 3d39 b7bd d557 1cbd
00000040: 48fc afbe 1cba bfbd 2de0 4cbe cdad 9e3d
00000050: 0438 d73e 8e85 e9bc c6c3 ffbd 02b3 203e
00000060: 1854 cabd a68f b33e 0f05 8cbc 6ad7 7cbe
00000070: ac8c bdbd 4129 d7bd 3ca3 43be fd74 25be
00000080: c75a 3bbf f355 8bbe d965 13be 705f 18be
00000090: 389c 86be 8910 4ebd 7d36 c93c 5a8e 7d3e
-0.3241472 -0.7274486 -0.2847066 0.02895626 -0.1465792 -0.073975086 1.1046249 -0.36084032
0.058413647 -0.3473414 -0.23303965 -0.3330709 0.11791064 -0.10806193 -0.08946464 -0.0381697
-0.34372163 -0.093616694 -0.20007391 0.077479936 0.42034924 -0.028506067 -0.12488513 0.15693286
-0.09879321 0.35070533 -0.017092256 -0.24691549 -0.09255347 -0.105059154 -0.19105238 -0.16157909
-0.7318539 -0.27214012 -0.1439432 -0.14880157 -0.2629106 -0.050308738 0.024562115 0.24761334
