nn4_40.pt (torch, 32034 bytes, 11 tensors)

model.0.weight f4 [40, 10]
0	0xbe29777e	-0.16549489
1	0x3e299392	0.165602
2	0x3e4807d0	0.1953423
3	0x3ca6bff7	0.020355208
4	0xbe95ce51	-0.2925897
5	0x3e9ce162	0.30640703
6	0xbe51a27e	-0.20472142
7	0x3e500bc7	0.20316993
8	0xbcf9b035	-0.03047953
9	0xbdc4614f	-0.09588873
10	0xbe50ec56	-0.20402655
11	0x3e06693b	0.1312608
12	0x3e8c98dd	0.27460375
13	0xbe6b192d	-0.22958823
14	0xbe1eb628	-0.15499175
15	0xbd9e76da	-0.07737513
16	0xbe260733	-0.16213684
17	0x3de349b0	0.11098039
18	0xbe07e976	-0.13272652
19	0xbc4f96b6	-0.01267021
20	0x3e82dfb1	0.25561288
21	0xbe2d9f41	-0.16955282
22	0xbe5ba442	-0.21449378
23	0x3ddbe118	0.107362926
24	0x3d8b9f59	0.068175025
25	0x3e5b0612	0.21389034
26	0xbd9e7734	-0.0773758
27	0x3e26eba9	0.16300835
28	0xbd19a185	-0.037507553
29	0xbe650fa3	-0.22369246
30	0x3d13d6ed	0.03609364
31	0x3da4f081	0.08053685
32	0xbb73a1a3	-0.00371752
33	0x3de1594b	0.110033594
34	0x3e7d6abf	0.24747752
35	0xbebe7d55	-0.37204996
36	0xbc8a1953	-0.016857779
37	0xbcd82d48	-0.02638878
38	0x3df4ba88	0.119496405
39	0x3e5fa9f3	0.21842174
40	0x3d3cda52	0.046106644
41	0x3eaaab63	0.33333883
42	0x3e92543e	0.28579897
43	0x3e3effee	0.18652317
44	0x3e41a6b9	0.18911256
45	0xbd7e4986	-0.062081836
46	0x3e9e043b	0.30862603
47	0x3e21b535	0.15791781
48	0xbc9ce7c5	-0.019153485
49	0xbe6eb823	-0.2331243
50	0x3d2a3529	0.041554604
51	0x3dfdb2f3	0.123876475
52	0x3ebdd7ae	0.37078613
53	0x3e2d8cdd	0.16948266
54	0x3e9d660d	0.3074192
55	0xbd9f1f4f	-0.077696435
56	0x3e619a10	0.22031426
57	0x3dba487e	0.09095858
58	0x3e0beb90	0.13664079
59	0x3c6f2dc1	0.014598311
60	0x3cf071d9	0.029351162
61	0xbdaeff43	-0.08544781
62	0xbe890328	-0.2676022
63	0x3e758580	0.23976707
64	0x3e8a2734	0.26983035
65	0x3b7ab7ca	0.003825652
66	0x3e19c59e	0.15016791
67	0xbea16630	-0.31523275
68	0x3cb0b034	0.021568395
69	0x3e6a3ebf	0.22875498
70	0x3e123c75	0.14280875
71	0xbeb104fc	-0.34574115
72	0xbe34fba7	-0.17674123
73	0x3dfc6829	0.123245545
74	0x3e2ea446	0.17054853
75	0xbe23d068	-0.1599747
76	0x3dec7266	0.11545257
77	0x3df6caba	0.12050386
78	0x3dc16786	0.09443574
79	0xbd1a2b4d	-0.03763895
80	0xbdd1ddd6	-0.1024739
81	0x3d7a952e	0.061177425
82	0xbe2cf339	-0.16889657
83	0x3e43b417	0.19111668
84	0xbd094616	-0.033514105
85	0xbe708741	-0.23489095
86	0xbd9fd196	-0.07803647
87	0x3e8e7a17	0.27827522
88	0xbe9bf15e	-0.30457586
89	0xbe61aa59	-0.22037639
90	0xbd02a37e	-0.0318942
91	0x3c7da61b	0.015481497
92	0x3df9a05c	0.12188789
93	0xbdf24f76	-0.11831562
94	0xbe31a78a	-0.17349067
95	0x3e59ee01	0.21282198
96	0xbe0dafdd	-0.13836618
97	0x3c9c2142	0.019058827
98	0xbeacda67	-0.33760378
99	0x3e41b58c	0.18916911
100	0xbe017e47	-0.12645827
101	0x3df54289	0.11975581
102	0x3b963a0e	0.0045845574
103	0x3d5450e0	0.05183494
104	0xbdd7f9e6	-0.10545711
105	0xbded6e55	-0.1159331
106	0xbe40352f	-0.18770288
107	0xbe962bce	-0.29330295
108	0xbe7d6d81	-0.24748804
109	0x3e945624	0.2897197
110	0xbca1141e	-0.019662913
111	0xbcc84c6b	-0.024450501
112	0x3d5c1ee3	0.053740393
113	0x3dd466fd	0.10371206
114	0xbeadb61c	-0.33928
115	0xb99a3f8e	-0.0002942052
116	0x3e04ade5	0.1295696
117	0x3e7167bd	0.2357473
118	0x3e9a7a29	0.30171326
119	0xbe8e9cd2	-0.2785402
120	0x3ccbe1f7	0.024888022
121	0xbd5642ad	-0.05230968
122	0xbe317ecb	-0.17333524
123	0xbe8a36be	-0.2699489
124	0xbc732e06	-0.014842516
125	0x3d12c39e	0.035831086
126	0x3d07ea16	0.033182226
127	0x3e70f833	0.2353218
128	0xbeac978e	-0.33709377
129	0x3e2ea643	0.17055611
130	0xbe0ef803	-0.13961796
131	0x3dcfbf91	0.1014396
132	0xbe05948f	-0.13044952
133	0x3e43cf7c	0.19122118
134	0xbb4443bc	-0.00299476
135	0x3e76174c	0.24032325
136	0xbddf5a84	-0.10905936
137	0xbce86d9a	-0.028372575
138	0x3d82b2d6	0.063817665
139	0xbe81362d	-0.25236645
140	0x3d460bf2	0.048351236
141	0xbe133bcc	-0.1437828
142	0xbdc48839	-0.09596295
143	0xbe836a88	-0.25667214
144	0xbe3d64d6	-0.18495497
145	0xbe98677a	-0.29766446
146	0x3e05558d	0.13020916
147	0xbd4141ee	-0.047182016
148	0xbda61c99	-0.08110923
149	0xbe69bd04	-0.2282601
150	0x3ca16258	0.019700214
151	0xbe9f13ff	-0.31069943
152	0x3ab69f07	0.0013932892
153	0x3e56478f	0.20925735
154	0xbe75df7c	-0.24011034
155	0xbdff58d9	-0.12468118
156	0x3d9c4d04	0.07631877
157	0x3ce620b7	0.028091772
158	0xbe1769f1	-0.14786507
159	0x3e163cd8	0.14671648
160	0x3df3545b	0.11881324
161	0xbe9c89a5	-0.30573764
162	0xbe584441	-0.21119787
163	0x3de23002	0.11044313
164	0x3dd4b649	0.10386331
165	0xbea01258	-0.31263995
166	0xbe95544e	-0.29165882
167	0xb7cd5c93	-2.4481013e-05
168	0x3e568e8e	0.20952818
169	0x3e9272e5	0.28603283
170	0xbe88a54d	-0.26688614
171	0x3e182704	0.14858633
172	0x3d73c092	0.05950982
173	0xbeb38b52	-0.3506723
174	0xbdd0dbb0	-0.10198152
175	0x3e883095	0.26599565
176	0x3e3ef0c4	0.18646532
177	0xbe9b945d	-0.3038663
178	0xbd6af687	-0.057364013
179	0x3e42bc46	0.19017133
180	0xbe716b7a	-0.23576155
181	0xbe0973a4	-0.1342302
182	0xbda8a365	-0.0823429
183	0x3d93e728	0.07221824
184	0xbe867562	-0.2626143
185	0xbea15f0e	-0.31517833
186	0xbe050cda	-0.12993184
187	0xbdebab60	-0.115072966
188	0xbc569531	-0.013097093
189	0xbd3dd744	-0.04634787
190	0xbd311d5f	-0.0432409
191	0xbe506968	-0.2035271
192	0xbe93015e	-0.2871198
193	0x3c90babf	0.017667172
194	0x3e45ff81	0.19335748
195	0xbe2eadb0	-0.17058444
196	0xbe4cf2d5	-0.20014508
197	0xbc37454a	-0.011185953
198	0x3cb1022c	0.021607481
199	0xbe153094	-0.14569312
200	0xbd998c3b	-0.0749745
201	0xbe12ce7f	-0.14336585
202	0x3d61e37c	0.055148587
203	0x3dceb699	0.100934215
204	0x3c0db94e	0.008650137
205	0xbc4f7645	-0.012662475
206	0xbd5ffae2	-0.05468262
207	0x3d63554c	0.055501267
208	0xbe6ea68c	-0.2330572
209	0x3e3dec1b	0.18547098
210	0xbe71410b	-0.23559968
211	0x3d9ed8ac	0.07756171
212	0xbe6a076c	-0.22854394
213	0xbe71e3d6	-0.23622069
214	0xbc88a41e	-0.01667982
215	0x3e8d109f	0.27551743
216	0xbe92d600	-0.28678894
217	0x3e8ba833	0.27276763
218	0x3e4a9189	0.1978208
219	0x3e7264d8	0.23671281
220	0xbe006ad5	-0.12540753
221	0x3d013e1f	0.031553384
222	0xbe4a8c50	-0.19780087
223	0x3ddbef12	0.107389584
224	0xbea1d433	-0.31607208
225	0xbb8d8d2c	-0.0043198075
226	0xbe0a9ea5	-0.1353708
227	0xbe9b03cf	-0.30276343
228	0x3e64f33f	0.22358416
229	0xbdc04924	-0.093889505
230	0xbe5ab663	-0.21358638
231	0x3da1deb8	0.07903808
232	0x3e394854	0.18093997
233	0x3d304a25	0.04303946
234	0x39e8ef5b	0.00044428822
235	0x3e9a9698	0.3019302
236	0x3d8b133f	0.0679078
237	0xbeb5eca4	-0.35532105
238	0xbd5c3ad7	-0.05376705
239	0xbe69601f	-0.22790574
240	0xbe65584d	-0.22396965
241	0xbda7428e	-0.08166991
242	0x3da92d52	0.08260597
243	0xbe0a6afa	-0.13517371
244	0xbc1221dd	-0.008919206
245	0x3ddf745f	0.10910868
246	0xbe569b84	-0.20957762
247	0x3e4d8180	0.20068932
248	0x3ea58989	0.32331493
249	0xbd4b9229	-0.049699936
250	0xbeaf3ef9	-0.34227732
251	0xbe7c02fb	-0.24610512
252	0x3c61ba41	0.013777317
253	0xbd506d71	-0.05088562
254	0x3e7ef099	0.24896468
255	0x3e076a9b	0.1322426

model.0.bias f4 [40]
0	0xbeaa3933	-0.33246765
1	0x3d5a32ab	0.053270977
2	0x3d770460	0.060306907
3	0x3d533926	0.051568173
4	0x3be75dac	0.007060727
5	0xbd96f632	-0.07371177
6	0xbddb252d	-0.1070045
7	0x3d4caaef	0.049967702
8	0xbc4f5165	-0.012653683
9	0xbd8bd4cc	-0.06827697
10	0x3d879da4	0.066218644
11	0xbe4a62f8	-0.19764316
12	0x3eb0fa0f	0.3456578
13	0x3e4cea96	0.20011362
14	0x3e42085f	0.18948506
15	0x3e00b9ca	0.12570873
16	0x3e1246b2	0.1428478
17	0xbd3dd7f0	-0.046348512
18	0xbcd1885f	-0.025577722
19	0xbe7517ee	-0.2393491
20	0x3eb1b5db	0.34709057
21	0xbe646f80	-0.22308159
22	0xbe9ae523	-0.30252942
23	0xbe9f46a4	-0.31108582
24	0xbe8d1fdc	-0.2756337
25	0x3e3999ad	0.18125029
26	0xbe7b7f8c	-0.24560374
27	0xbe08bd50	-0.13353467
28	0x3e481f20	0.19543123
29	0x3ec14bb2	0.37753063
30	0xbe03deac	-0.12877911
31	0x3e0ba09b	0.13635485
32	0x3b3fdb93	0.0029275164
33	0x3e82cdf3	0.25547752
34	0xbe04f26d	-0.12983103
35	0xbdd7ffa7	-0.10546809
36	0x3e1e739b	0.15473787
37	0xbe5d65e0	-0.21620893
38	0x3c350350	0.011048153
39	0xbe848312	-0.2588125

model.2.weight f4 [40, 40]
0	0xbd05947b	-0.032612305
1	0xbd79f499	-0.061024282
2	0x3b674525	0.0035289016
3	0x3d6199b4	0.055078223
4	0x3d449270	0.047991216
5	0xbdb12da6	-0.08651285
6	0x3d06b73a	0.032889582
7	0xbe101eb4	-0.14074212
8	0xbe1eaaf3	-0.154949
9	0xbe45cfd5	-0.19317563
10	0x3c7297dd	0.014806715
11	0xbdb0307c	-0.08602998
12	0xbe82e805	-0.25567642
13	0xbdc66a25	-0.09688214
14	0x3dbe5fa2	0.09295584
15	0x3cd60a17	0.026127858
16	0xbe00cc2f	-0.1257789
17	0xbd3e5fa5	-0.046477932
18	0x3cd918f3	0.026501155
19	0xbdb1329e	-0.086522326
20	0x3de7f6f7	0.11326402
21	0xbde93295	-0.11386601
22	0xbd55c08c	-0.05218558
23	0x3d414051	0.047180478
24	0xbde282a5	-0.11060075
25	0xbe18f3ba	-0.14936724
26	0x3df01354	0.117224365
27	0xbcc18719	-0.02362399
28	0xbdd42baa	-0.10359891
29	0x3a7d99ed	0.0009674121
30	0xbe211c04	-0.15733343
31	0xbe42f5a6	-0.1903902
32	0x3d1fc831	0.039009277
33	0x3daecb9c	0.08534929
34	0xbcc58cc1	-0.024114968
35	0xbcc8024f	-0.024415163
36	0x3d8900bf	0.066895954
37	0xbd448e78	-0.04798743
38	0xbd856551	-0.06513465
39	0xbd52c757	-0.051459637
40	0xbd9b65df	-0.0758779
41	0x3bc09cdd	0.0058780746
42	0xbe37b53c	-0.17940229
43	0xbe3fd207	-0.18732463
44	0xbe22f3f3	-0.15913372
45	0xbe2159eb	-0.15756957
46	0xbd3db09d	-0.04631101
47	0xbddc4ded	-0.10757051
48	0x3dcb818d	0.09936819
49	0xbdf9da0b	-0.121997915
50	0x3de12ce5	0.10994891
51	0x3d00d432	0.031452365
52	0xbdd640cb	-0.10461577
53	0x3d7e9cf6	0.06216141
54	0xbe14f64d	-0.14547081
55	0x3d6f7105	0.058457393
56	0xbe08e6ad	-0.13369246
57	0x3dfbbc36	0.12291758
58	0x3de6e544	0.11274198
59	0xbdf78f53	-0.12087884
60	0xbd79be92	-0.060972758
61	0x3cdf0f2c	0.027228914
62	0x3e0628b2	0.13101462
63	0x3dc36b37	0.09541934
64	0xbcbf60f9	-0.02336167
65	0xbdb772d0	-0.089574456
66	0x3d2a87ea	0.041633524
67	0xbe8c29fd	-0.27375785
68	0x3c8c67a8	0.01713927
69	0x3c2ba625	0.010476624
70	0xbd98a75e	-0.07453798
71	0xbe2b54c4	-0.16731554
72	0xbe202bdb	-0.1564173
73	0x3dad86f4	0.08473006
74	0xbdecb3e8	-0.11557752
75	0xbd0b02f3	-0.03393836
76	0xbd91b381	-0.07114316
77	0xbe05c6a6	-0.1306406
78	0xbca2e7c8	-0.019885913
79	0x3d12c67b	0.035833817
80	0xbd3a647b	-0.045505982
81	0xbc6bef3e	-0.0144003015
82	0xbe2f4f36	-0.1712006
83	0xbde1c926	-0.11024694
84	0xbdcd8acd	-0.1003624
85	0xbdc99199	-0.09842224
86	0xbdb9a992	-0.09065546
87	0x3d3bf80b	0.04589085
88	0xbdfd4c59	-0.12368078
89	0xbd9b382f	-0.075790755
90	0xbdcae415	-0.099067844
91	0x3cc69230	0.02423963
92	0x3ca9294f	0.02064958
93	0xbe078ee6	-0.13238105
94	0x3c5ae862	0.013361068
95	0xbd585097	-0.05281123
96	0x3d8175b5	0.06321279
97	0x3d85a880	0.065262794
98	0xbe14b1df	-0.14520977
99	0xbe1b3173	-0.15155582
100	0xbc0645f7	-0.008195392
101	0x3c98c688	0.018649355
102	0xbb612819	-0.0034356175
103	0xbd75e9fd	-0.0600376
104	0x3ca22881	0.019794704
105	0xbd2981af	-0.04138344
106	0xbcab24b2	-0.020891521
107	0xbcbcf32a	-0.023065168
108	0x3e03e4e8	0.1288029
109	0xbcd135af	-0.025538294
110	0xbcad73e9	-0.021173434
111	0x3ce74678	0.028231844
112	0x3cc208e6	0.023685884
113	0xbb7442a1	-0.003727116
114	0x3d5c7474	0.053821996
115	0x3d73d805	0.059532184
116	0x3ddbf946	0.107409045
117	0x3dc17f33	0.094480895
118	0xbc883a49	-0.016629355
119	0x3dd6cf68	0.10488778
120	0x3d836c23	0.0641711
121	0x3dc7d3c1	0.09757186
122	0xbe0549c3	-0.13016419
123	0xbd4bb65c	-0.04973446
124	0xbdc27fec	-0.094970554
125	0xbda90857	-0.08253544
126	0xbda120bc	-0.07867572
127	0xbe0dfec3	-0.13866715
128	0x3d9604ca	0.07325132
129	0xbe01d428	-0.12678587
130	0x3a9d4b39	0.0012000568
131	0xbe4a3c3b	-0.19749539
132	0xbdad1569	-0.08451349
133	0x3d1827b7	0.03714725
134	0x3d9c2dbd	0.076259114
135	0x3d6c2cf9	0.057660077
136	0xbde2f51a	-0.11081906
137	0x3dd9e836	0.10639994
138	0xbdda6081	-0.10662938
139	0x3d4a214c	0.04934816
140	0x3d9eca0f	0.07753383
141	0xbd585d9a	-0.05282364
142	0x3e15636a	0.14588705
143	0x3cce5d89	0.025191085
144	0xbd2b6084	-0.04184009
145	0x3cb394a5	0.021921465
146	0x3de27cfc	0.11058995
147	0xbd71a258	-0.058992714
148	0xbd359475	-0.044331033
149	0xbdc692a7	-0.096959405
150	0xbdf09334	-0.11746827
151	0x3cac33cd	0.021020794
152	0xbb71acae	-0.0036876607
153	0x3db04642	0.086071506
154	0x3df78df3	0.120876215
155	0x3d9e1548	0.07718903
156	0x3d27916b	0.040910166
157	0xbcd982c2	-0.026551608
158	0x3b2fbb2c	0.0026814444
159	0x3b50d56f	0.0031865498
160	0x3ddfa5fa	0.109203294
161	0xbbdb8800	-0.006699562
162	0x3dce70cb	0.10080107
163	0xbe320388	-0.1738416
164	0xbd45834f	-0.04822093
165	0x3d5a703b	0.053329688
166	0xbb6aea4c	-0.0035845218
167	0x3c898adf	0.016789852
168	0xbda35117	-0.07974451
169	0xbd849274	-0.06473246
170	0xbe03ed46	-0.12883481
171	0xbe1383ce	-0.14405748
172	0xbe47592c	-0.1946761
173	0xbdb35a63	-0.08757474
174	0x3dc89dc0	0.097957134
175	0x3ca4a547	0.020098342
176	0xbe226baf	-0.1586139
177	0xbe17d5a5	-0.14827593
178	0x3d03173d	0.032004584
179	0x3d686161	0.056733493
180	0xbdc4c3f0	-0.096076846
181	0xbe3272b8	-0.17426574
182	0x3df9cc82	0.1219721
183	0x3e09df00	0.13463974
184	0xbb18d881	-0.0023322406
185	0xbd412bd8	-0.047160953
186	0x3c1b026f	0.009461029
187	0xbe0c371a	-0.13692895
188	0xbcc08b1d	-0.023503834
189	0xbcfba04a	-0.03071608
190	0xbd4078c2	-0.046990164
191	0xbd2ae356	-0.04172071
192	0x3d95e8aa	0.07319768
193	0xbd824ac1	-0.063619144
194	0xbdf8f785	-0.121565856
195	0xbd474f93	-0.048659872
196	0xbd621e9a	-0.055204965
197	0x3d404ea6	0.046950005
198	0xbdced8ef	-0.100999705
199	0xbda6d0f8	-0.081453264
200	0xbe3edb92	-0.18638447
201	0x3de5d64b	0.11222514
202	0x3db5e265	0.08881072
203	0xbd6bb3b5	-0.05754443
204	0x3bdfb0da	0.0068265023
205	0x3c1e8009	0.009674081
206	0xbe47e027	-0.19519101
207	0xbe09c3c3	-0.13453583
208	0x3dd83ac3	0.10558083
209	0xbcc811dc	-0.024422579
210	0x3dc84349	0.097784586
211	0x3dd05aca	0.10173567
212	0xbd8031ad	-0.06259475
213	0xbd1d2bd0	-0.03837186
214	0x3ce2a53b	0.027666679
215	0x3b561d8f	0.0032671427
216	0x3c158fdb	0.009128536
217	0x3dc43e80	0.095822334
218	0x3db43da5	0.0880082
219	0x3e18c08f	0.14917205
220	0x3da92e58	0.082607925
221	0xbc82582a	-0.01591118
222	0x3cbbbd16	0.022917312
223	0xbd311920	-0.04323685
224	0x3e124d76	0.14287362
225	0xbd9a30a3	-0.07528808
226	0x3e356078	0.17712581
227	0xbe4cc5c5	-0.19997318
228	0x3bb0e402	0.0053982744
229	0x3db9e5b2	0.09077014
230	0xbd2294dd	-0.03969275
231	0xbdec12bf	-0.11527013
232	0xbd032ab4	-0.032023147
233	0x3decd2d5	0.115636505
234	0xbdec9401	-0.11551667
235	0x3d109372	0.035296865
236	0xb90e2eae	-0.00013559565
237	0x3d73bd8f	0.05950695
238	0xbce40307	-0.027833475
239	0xbe16f079	-0.1474017
240	0xbdb5e52e	-0.08881603
241	0xbcfe1f71	-0.031020852
242	0x3cb16fe5	0.0216598
243	0xbe074407	-0.13209544
244	0xbe12c857	-0.14334236
245	0xbded0e2c	-0.11574969
246	0x3e0be0b7	0.1365994
247	0x3d140b14	0.036143377
248	0xbd9ff923	-0.07811191
249	0x3dfedf28	0.124449074
250	0xbe0467cc	-0.1293022
251	0x3df42fa2	0.11923148
252	0xbdfa4082	-0.12219335
253	0x3d981bbf	0.07427167
254	0x3e01dca9	0.12681831
255	0xbe103c8f	-0.14085601

model.2.bias f4 [40]
0	0x3ddedb24	0.108816415
1	0x3b856771	0.004071169
2	0x3d66b7fe	0.056327812
3	0xbde1592a	-0.11003335
4	0x3e0e8697	0.1391853
5	0xbc874b0c	-0.016515277
6	0xbe27626d	-0.1634614
7	0x3dd53ea1	0.10412336
8	0xbd9e71ac	-0.07736525
9	0x3e51e338	0.20496833
10	0x3e560606	0.20900735
11	0xbdc916d2	-0.09818806
12	0xbd082d10	-0.0332461
13	0x3d7427c7	0.059608247
14	0x3da939c6	0.082629725
15	0xbce41274	-0.02784083
16	0x3e1c97e5	0.15292318
17	0xbde2a44b	-0.11066493
18	0xbd91a8c9	-0.07112271
19	0xbd9906cd	-0.07472
20	0xbd30c4b7	-0.043156352
21	0xbcc40330	-0.023927301
22	0x3c33f967	0.010984755
23	0x3d8b3d4c	0.06798801
24	0x3e130e08	0.14360821
25	0x3d82ad02	0.06380655
26	0xbcca3d33	-0.024687385
27	0xbe03fab6	-0.12888607
28	0x3d508e84	0.050917163
29	0x3d5c9343	0.053851377
30	0x3d4b822e	0.049684696
31	0x3de8bc61	0.113640554
32	0xbd14a4c1	-0.036289934
33	0xbc09bd13	-0.008406895
34	0xbd194e93	-0.03742845
35	0x3cb7c248	0.022431508
36	0x3d47dccd	0.048794556
37	0x3e0a6686	0.13515672
38	0x3d940b73	0.07228746
39	0xbdf20f1f	-0.1181929

model.4.weight f4 [40, 40]
0	0xbdae201a	-0.08502217
1	0xbdd4b1fc	-0.1038551
2	0xbda6f6ee	-0.08152567
3	0xbd9fdc2a	-0.07805665
4	0xbe13752f	-0.1440017
5	0x3daa028e	0.083012685
6	0x3d13ac20	0.036052823
7	0x3c49f162	0.012325617
8	0x3dbcca4d	0.09218273
9	0x3df5a66b	0.11994632
10	0x3e5588b3	0.20852928
11	0xbce853d9	-0.028360294
12	0xbdf2d0d7	-0.11856239
13	0xbdd4d183	-0.10391524
14	0xbd829f18	-0.06378001
15	0x3db3614b	0.087587915
16	0x3caedf3d	0.021346683
17	0x3c4db706	0.012555843
18	0x3d282a25	0.041055817
19	0xbde26af8	-0.11055559
20	0xbca2c4f2	-0.019869301
21	0xbe137116	-0.14398608
22	0x3de6a3e5	0.11261729
23	0xbd6d9d56	-0.058011375
24	0x3dac5702	0.08415033
25	0x3e08d9ca	0.1336433
26	0xbdadd928	-0.08488685
27	0xbd280565	-0.04102077
28	0x3d235b8e	0.039882235
29	0xbe2915da	-0.16512242
30	0xbe1cb58a	-0.15303627
31	0xbda6cec4	-0.08144906
32	0xbdafaf04	-0.085783035
33	0xbe1a6fbc	-0.15081686
34	0x3b0d2f33	0.0021543026
35	0xbe0c6413	-0.1371005
36	0x3d07b39b	0.03313027
37	0x3e1f2ba0	0.15543985
38	0x3e2bb63e	0.16768739
39	0xbc190ec0	-0.009341896
40	0xbd178fc3	-0.037002336
41	0xba337840	-0.0006846227
42	0x3ca3a892	0.019977842
43	0xbe1dbc20	-0.15403795
44	0xbd0a1bb1	-0.033717815
45	0xbe3c6359	-0.18397273
46	0x3d9c8a58	0.076435745
47	0xbdddd6dc	-0.10831997
48	0xbe1f6b57	-0.1556829
49	0x3e244fc1	0.16046049
50	0x3e73383f	0.23751925
51	0x3d7b8b28	0.061412007
52	0x3d69eb92	0.057109423
53	0x3d7f5933	0.062340926
54	0x3d5711fa	0.05250738
55	0xbddebc74	-0.10875788
56	0xbd8bac41	-0.06819964
57	0xbda25c4f	-0.07927763
58	0x3dcc64bd	0.09980152
59	0xbd051615	-0.032491762
60	0xbe230bd0	-0.15922475
61	0xbdcdbc50	-0.100456834
62	0xbe052a2c	-0.13004369
63	0x3e4a3c22	0.19749501
64	0xbd0cbfad	-0.034362484
65	0xbcd93cb6	-0.026518207
66	0xbde0eb6e	-0.10982405
67	0x3e1828e1	0.14859344
68	0x3e40e888	0.18838704
69	0x3d9a48d7	0.07533424
70	0xbe0aaac1	-0.135417
71	0x3dd27153	0.10275521
72	0x3d523224	0.05131735
73	0x3d7fc010	0.062439024
74	0x3dc5c2e3	0.09656312
75	0xbc2f80c1	-0.01071185
76	0x3df24ec1	0.11831427
77	0xbdc11a15	-0.09428803
78	0x3e0de5bd	0.1385717
79	0x3b48ac92	0.0030620438
80	0xbe0dc6a6	-0.1384531
81	0xbe091372	-0.13386324
82	0xbdce5cf0	-0.1007632
83	0x3dcf771c	0.1013014
84	0x3d850a36	0.06496088
85	0x3e4bc425	0.19899042
86	0x3e020881	0.12698556
87	0x3e14bc61	0.14524986
88	0x3de28664	0.11060789
89	0x3e0529b6	0.13004193
90	0xbe1f40ec	-0.1555211
91	0x3ccd39e7	0.025052024
92	0x3dd0cf69	0.1019581
93	0xbae14916	-0.0017187919
94	0xbd5d174b	-0.053977292
95	0x3dd7e860	0.10542369
96	0x3e1605c0	0.14650631
97	0xbcc5db3b	-0.024152389
98	0x3dc5c35b	0.09656402
99	0x3d3ead1e	0.046551816
100	0xbc4564bf	-0.0120479455
101	0xbdabe060	-0.083924055
102	0x3e06984d	0.13144036
103	0xbcfc606c	-0.030807696
104	0xbe1f679e	-0.1556687
105	0x3ba1ea4b	0.00494126
106	0xbe185793	-0.14877157
107	0xbb2bc861	-0.0026211964
108	0x3de59e5f	0.112118475
109	0x3e256614	0.16152221
110	0xbdb3967f	-0.08768939
111	0x3c5bd437	0.013417295
112	0x3d8140dd	0.063112
113	0x3dca8278	0.09888166
114	0xbe090ff0	-0.13384986
115	0x3e1d97ab	0.15389888
116	0xbd2f3c6f	-0.042782243
117	0x3db623a6	0.08893518
118	0xbd54f40d	-0.051990557
119	0xbe012f75	-0.1261576
120	0x3c510d00	0.012759447
121	0x3cd82e72	0.026389334
122	0x3d7fb765	0.062430758
123	0xbe19bac5	-0.15012653
124	0x3d9c591d	0.076341845
125	0x3e17f274	0.14838582
126	0xbe0b4309	-0.1359979
127	0x3e44890e	0.19192907
128	0x3e188dc1	0.14897825
129	0xbcaef529	-0.021357136
130	0xbd137af2	-0.03600592
131	0xbda6ece0	-0.08150649
132	0x3df63290	0.12021363
133	0xbde80602	-0.11329271
134	0xbd1a7fd9	-0.03771958
135	0xbc4216db	-0.0118462695
136	0xbe1c98d9	-0.15292682
137	0x3e2c21b8	0.16809738
138	0xbdba6a31	-0.09102286
139	0x3ced8d5e	0.028998073
140	0x3d9bc429	0.07605774
141	0x3deea68d	0.11652861
142	0xbdf1e9a7	-0.11812144
143	0x3cfcedd3	0.030875122
144	0xbc90cd8f	-0.017676143
145	0xbddf8c1f	-0.10915398
146	0x3cf94ab6	0.030431133
147	0x3da97b63	0.08275487
148	0x3d943db6	0.07238333
149	0xbdd66fde	-0.10470556
150	0x3dadd9aa	0.08488782
151	0xbae447b1	-0.0017416385
152	0xbd02ffc2	-0.03198219
153	0x3e040219	0.12891425
154	0xbd47c488	-0.04877141
155	0x3c47f254	0.012203772
156	0xbafc87cc	-0.0019266545
157	0xbdf184c1	-0.11792899
158	0x3db6ec7e	0.08931826
159	0xbc9b69f5	-0.018971423
160	0xbdca3205	-0.09872822
161	0x3e17793b	0.1479234
162	0xbb536891	-0.0032258371
163	0xbd307249	-0.04307774
164	0xbdf3b6a1	-0.11900068
165	0x3deed529	0.11661751
166	0xbda9a36e	-0.08283125
167	0xbd691836	-0.056907855
168	0x3c36c57b	0.011155481
169	0xbdeae8d6	-0.11470191
170	0xbcc026e7	-0.02345605
171	0x3c1d9fd6	0.009620627
172	0xbd636344	-0.05551459
173	0x3e1d7795	0.15377648
174	0xbdc413da	-0.09574099
175	0x3de736d6	0.11289756
176	0x3cd272bc	0.025689475
177	0xbcaf30d3	-0.021385586
178	0x3dcd4779	0.10023398
179	0xbb61f138	-0.0034476053
180	0xbdc1dc55	-0.09465853
181	0x3d6a2761	0.05716646
182	0xbd076332	-0.033053584
183	0x3c3a8f56	0.011386713
184	0xbdaf540d	-0.08560953
185	0xbdd90236	-0.10596125
186	0xbd77024a	-0.060304917
187	0xbde239ae	-0.11046158
188	0xbe04bcaa	-0.12962595
189	0x3cb90805	0.022586832
190	0xbbb19fba	-0.005420652
191	0xbe1f3a99	-0.15549697
192	0xbe036116	-0.12830004
193	0x3e21a3a8	0.15785086
194	0xbaae6de4	-0.0013307896
195	0xbdf4555d	-0.11930344
196	0x3da2405e	0.07922433
197	0xbdf21f03	-0.11822321
198	0x3db77391	0.089575894
199	0xbdec3e04	-0.11535266
200	0xbd25fdf4	-0.04052539
201	0x3d5bf373	0.05369897
202	0xbddd7210	-0.10812771
203	0xbdbc9b85	-0.092093505
204	0x3dc60cad	0.096703865
205	0xbe1f9fe1	-0.15588333
206	0x3d99c038	0.07507366
207	0x3e22ef3d	0.15911575
208	0xbde9c165	-0.1141384
209	0xbd77b528	-0.0604755
210	0xbcc3dc2e	-0.0239087
211	0x3de27556	0.11057536
212	0xbbdbc170	-0.006706409
213	0x3dc308de	0.09523176
214	0xbe160fb7	-0.14654432
215	0xbd98a808	-0.074539244
216	0x3e1d211a	0.15344658
217	0xbba76bff	-0.0051093097
218	0xbe0630f3	-0.1310461
219	0x3e0ca60e	0.1373522
220	0xbd40c9f4	-0.047067598
221	0xbd3e60e3	-0.046479117
222	0x3dc1d4cb	0.09464415
223	0xbd3cce17	-0.04609498
224	0x3d76f92c	0.060296223
225	0xbe1530bd	-0.14569373
226	0x3d9be7e5	0.0761259
227	0xbdc74f44	-0.097319156
228	0x3e012263	0.12610774
229	0xbdde32ee	-0.10849558
230	0x3dc3d9ba	0.095630124
231	0x3e03acac	0.12858838
232	0xbd9dbc64	-0.07701948
233	0xbd69e6aa	-0.057104744
234	0xbd8cfea4	-0.06884506
235	0xbdd5ba2f	-0.10435902
236	0xbd6a5c76	-0.057217084
237	0x3da7f183	0.082003616
238	0x3983cceb	0.00025138943
239	0xbd94a4cc	-0.07257995
240	0xbdc78df8	-0.09743875
241	0xbd997319	-0.07492656
242	0xbdc1a7fb	-0.09455868
243	0xbdf106ec	-0.11768898
244	0x3b7e0bca	0.003876435
245	0xbe20b1ca	-0.15692821
246	0xbc05a734	-0.00815754
247	0xbdada202	-0.08478166
248	0xbc99ad35	-0.01875935
249	0xbdf97221	-0.121799715
250	0xbe1d5c1f	-0.15367173
251	0xbdd495aa	-0.10380109
252	0xbdd8b102	-0.105806366
253	0xbe05df45	-0.13073452
254	0x3dae6fed	0.08517442
255	0x3d780ba6	0.060557984

model.4.bias f4 [40]
0	0xbb8e093f	-0.0043345983
1	0xbbe96c16	-0.0071234806
2	0xbd41686d	-0.04721873
3	0xbc3b6011	-0.011436478
4	0xbe02fa9d	-0.12790914
5	0x3cc974a6	0.024591755
6	0x3daea156	0.08526866
7	0x3e1624b8	0.14662445
8	0x3d8f2ec0	0.06991339
9	0x3deb06d2	0.1147591
10	0xbc92c0b1	-0.017914148
11	0x3d2e43f0	0.04254526
12	0x3de85809	0.113449164
13	0xbccbd009	-0.024879472
14	0x3cb7779a	0.022395898
15	0x3c010b93	0.007876295
16	0xbdb4e0ef	-0.08831965
17	0x3e40f94a	0.18845096
18	0xbd3c8efc	-0.046034798
19	0xbd4e0e22	-0.050306447
20	0x3ddff3f8	0.10935205
21	0x3d509ef1	0.05093283
22	0x3d735e2e	0.05941599
23	0xbe192d1b	-0.14958613
24	0x3dd0a1c8	0.10187107
25	0x3de832b8	0.11337799
26	0x3dd3077d	0.10304163
27	0xbd61b04a	-0.055099763
28	0xbde7033e	-0.11279915
29	0xbd2790e6	-0.04090967
30	0xbd10e750	-0.035376847
31	0x3e014631	0.12624432
32	0xbe3511b8	-0.1768254
33	0x3e0e7abc	0.13914007
34	0x3e0097b3	0.12557869
35	0x3c1140cf	0.008865549
36	0xbe0715e8	-0.1319195
37	0xbd91814a	-0.07104738
38	0x3d856cd4	0.06514898
39	0xbc86ffa8	-0.016479328

model.6.weight f4 [40, 40]
0	0xbdd3196d	-0.10307584
1	0xbd8a1ce8	-0.06743795
2	0x3dde56e1	0.108564146
3	0x3df0c66d	0.11756597
4	0xbc8b193c	-0.016979806
5	0x396fc332	0.00022865532
6	0x3d1ab0e2	0.037766345
7	0xbd60f6df	-0.054922935
8	0xbe2cec9f	-0.16887139
9	0xbd9dea78	-0.07710737
10	0xbdf8ba65	-0.12144927
11	0xbdb4d5bc	-0.08829829
12	0x3cefa979	0.029255616
13	0x3dea0282	0.114262596
14	0xbb9a232d	-0.0047039003
15	0xbe084081	-0.13305856
16	0x3a847219	0.0010104805
17	0x3d7f1ee1	0.062285308
18	0x3d7e1879	0.062035058
19	0xbb7e1e64	-0.0038775438
20	0xbd37d5ba	-0.04488156
21	0xbdbd9101	-0.09256173
22	0x3d53e6b4	0.051733688
23	0xbe1fc2ff	-0.15601729
24	0xbe27a9af	-0.16373323
25	0x3d7d4567	0.061833765
26	0x3d33af8b	0.043868583
27	0xbc5642cc	-0.013077449
28	0x3de1c8b8	0.11024612
29	0x3db21dce	0.08697091
30	0x3e183a65	0.14866026
31	0xbe06564e	-0.1311886
32	0xbdbd69d0	-0.09248698
33	0x3c929a24	0.017895766
34	0x3ceb7eef	0.02874705
35	0x3da95572	0.082682505
36	0xbdf65d25	-0.12029485
37	0x3cd5075d	0.026004488
38	0x3dedecd4	0.11617437
39	0x3d38ce87	0.045118835
40	0x3e06afe9	0.13153042
41	0x3e2953a6	0.16535816
42	0xbd291c29	-0.04128662
43	0xbe3b5ee4	-0.18297917
44	0xbd8d91ca	-0.06912573
45	0x3bbc50f8	0.005746957
46	0x3da065ae	0.07831894
47	0xbd9b61de	-0.07587026
48	0xbc2a3d67	-0.010390616
49	0xbd95efee	-0.073211536
50	0xbd61c7dd	-0.055122245
51	0xbe123a07	-0.14279948
52	0xbcd11970	-0.025524825
53	0xbd9ff528	-0.07810432
54	0x3da975b2	0.08274402
55	0x3e4a215e	0.19739291
56	0x3dcdc5c2	0.10047485
57	0x3d91ff4f	0.071287744
58	0x3deb0417	0.114753895
59	0x3d262385	0.040561218
60	0xbc6f31c3	-0.014599266
61	0xbc1d4bf1	-0.009600625
62	0xbe0522d1	-0.13001563
63	0xbe33747d	-0.17524906
64	0xbdd11d58	-0.10210675
65	0xbe408ec9	-0.18804468
66	0xbe2106c9	-0.15725245
67	0xbd9cdb5a	-0.076590255
68	0xbe1b4588	-0.15163243
69	0xbe1d30bd	-0.15350623
70	0x3e315a11	0.17319514
71	0xbe059ae7	-0.13047372
72	0xbd41e4a6	-0.047337197
73	0x3db9d8e7	0.09074574
74	0xbda497ad	-0.08036742
75	0x3e966dbb	0.29380593
76	0xbe315325	-0.17316873
77	0x3d907fa9	0.07055599
78	0x3d39e4ce	0.04538422
79	0x3d8cb6f7	0.06870835
80	0x3e0af0c5	0.13568409
81	0xbcf74127	-0.030182434
82	0xbe34bf12	-0.17651013
83	0x3ce4e802	0.027942661
84	0xbdd8e25a	-0.10590048
85	0xbe0f4a01	-0.13993074
86	0xbde54fbb	-0.11196848
87	0xbce150ed	-0.027504409
88	0x3daf402e	0.08557163
89	0xbe15a507	-0.14613734
90	0x3de59d51	0.11211646
91	0xbc3c8669	-0.011506655
92	0xbe1b74ea	-0.15181318
93	0xbe185b31	-0.14878537
94	0x3cdf6222	0.027268473
95	0xbc9626bf	-0.018329022
96	0xbcbdc289	-0.02316405
97	0x3d4fa7d9	0.05069718
98	0x3d97e85b	0.07417365
99	0xbe0baa95	-0.1363929
100	0xbde7cd67	-0.11318474
101	0x3dca3a10	0.09874356
102	0xbdd5a937	-0.10432666
103	0xbdf3af0a	-0.118986204
104	0xbdfe9f7f	-0.12432765
105	0xbe12af5b	-0.14324705
106	0x3c6cff20	0.014465123
107	0x3d8c5ee3	0.06854036
108	0x3d54cb5e	0.05195176
109	0xbb9bb073	-0.004751259
110	0x3bb754b0	0.0055948123
111	0x3da8376c	0.08213696
112	0x3c4f6068	0.012657262
113	0xbcce49fb	-0.025181761
114	0xbd8b1366	-0.06790809
115	0x3da56375	0.080756105
116	0x3de81f33	0.11334076
117	0x3d7276df	0.059195396
118	0xbd85ac81	-0.06527043
119	0x3d71c0e8	0.05902186
120	0xbc3cba30	-0.011519
121	0xbc12c7a9	-0.0089587355
122	0xbca98a0d	-0.02069571
123	0xbd699360	-0.057025313
124	0xbd4df374	-0.050281003
125	0x3d8a5a54	0.0675551
126	0xbda9cc9b	-0.082909785
127	0xbe3c25be	-0.18373773
128	0x3dd35b7e	0.10320185
129	0xbe26e6f5	-0.1629904
130	0xbe1ce4a8	-0.153216
131	0xb940c82f	-0.00018385121
132	0xbe27f3da	-0.16401616
133	0xbdf81c19	-0.12114734
134	0x3dfb9483	0.12284186
135	0xbc3c61c5	-0.011497919
136	0xbe0936bb	-0.13399784
137	0xbe0daaa6	-0.13834628
138	0x3ba93e57	0.005164902
139	0xbd3a3dab	-0.045468967
140	0xbd3f8b29	-0.046763573
141	0xbdc7f960	-0.097643614
142	0x3db2e964	0.08735922
143	0xbe174253	-0.14771394
144	0xbcb7e034	-0.022445776
145	0x3d34bb4c	0.044123933
146	0x3e1841f2	0.14868906
147	0xbd38a7aa	-0.045081772
148	0xbe0579d5	-0.13034756
149	0x3cebb385	0.028772125
150	0x3e117bf7	0.14207445
151	0xbe39b401	-0.18135072
152	0x3d45ef6b	0.04832403
153	0x3c0fb275	0.008770575
154	0x3dd468ca	0.103715494
155	0x3d79fb6d	0.061030794
156	0xbdc2461f	-0.09486031
157	0xbd28fd97	-0.041257467
158	0xbdd06128	-0.10174781
159	0xbd84bde5	-0.06481532
160	0x3e411017	0.18853794
161	0x3c37d3f6	0.011219969
162	0x3d85b27a	0.06528182
163	0xbe0197d8	-0.1265558
164	0x3daa5fab	0.083190285
165	0xbd09098a	-0.033456363
166	0x3d94c551	0.072641976
167	0xbd927297	-0.071507625
168	0xbd494b32	-0.049143977
169	0xbacb60ea	-0.0015516554
170	0x3b63efb9	0.0034780337
171	0xbe08c882	-0.13357738
172	0xbdbe956d	-0.093058445
173	0x3dc43f2b	0.09582361
174	0x3cbbeb8f	0.022939472
175	0x3e3e3513	0.18574934
176	0xbdbdfde2	-0.0927694
177	0xbdc3de1c	-0.095638484
178	0x3dfe49e5	0.12416438
179	0xbdf3f9ec	-0.11912903
180	0x3e22ddf1	0.15904976
181	0xbd9fd2ab	-0.078038536
182	0xbd0a504a	-0.033767976
183	0x3d6d181a	0.057884313
184	0x3d27c764	0.040961638
185	0xbdd4b789	-0.10386569
186	0x3dd15e80	0.102231026
187	0xbd19394f	-0.03740817
188	0xbdb2c162	-0.08728291
189	0xbd7f33f9	-0.062305424
190	0x3e56769f	0.20943688
191	0xbe526601	-0.20546724
192	0xbdc3bc90	-0.0955745
193	0xbdb32907	-0.0874806
194	0x3d71111b	0.058854204
195	0x3e23de59	0.16002788
196	0x3da64ebb	0.081204854
197	0x3cf64a1c	0.030064635
198	0x3e37a668	0.17934573
199	0x3e0ea03c	0.13928312
200	0x3d7a0147	0.061036374
201	0xbc6eacb3	-0.014567542
202	0xbd99fec0	-0.07519293
203	0xbdcac9ac	-0.09901747
204	0xbe27ccc8	-0.16386712
205	0x3d056877	0.03257033
206	0x3dc88c21	0.097923525
207	0x3ca86c5d	0.020559484
208	0x3c8c9df7	0.017165167
209	0xbd6613b6	-0.05617114
210	0x3c2f2564	0.010690067
211	0x3d25e20c	0.04049878
212	0x3d87f44a	0.06638391
213	0x3d96f2a2	0.07370497
214	0xbcff16d6	-0.031138819
215	0xbe071e90	-0.13195252
216	0xbd479cfc	-0.048733696
217	0xbde6e46d	-0.112740375
218	0x3dbcd50c	0.09220323
219	0x3c830170	0.015991896
220	0xbe1be39e	-0.15223548
221	0x3c5e2bf4	0.013560284
222	0xbdf83da3	-0.12121131
223	0xbdda6bf8	-0.10665125
224	0x3dadda91	0.08488954
225	0xbe0e6823	-0.13906913
226	0xbd28853e	-0.041142695
227	0x3da4992e	0.08037029
228	0x3c9d57b3	0.019206857
229	0xbcbb12e9	-0.022836166
230	0x3d75c3b1	0.06000108
231	0xbde793c2	-0.113074794
232	0x3d34bd92	0.0441261
233	0x3d7bd073	0.06147809
234	0xbdd5be83	-0.10436728
235	0xbd339064	-0.043838874
236	0xbe1f89eb	-0.15579955
237	0x3cf7f1a3	0.030266589
238	0x3d971fe5	0.0737913
239	0xbdfb69ba	-0.12276025
240	0xbd3505dd	-0.044195045
241	0xbc9358cd	-0.01798668
242	0xbd6183b9	-0.05505726
243	0x3da8c296	0.08240239
244	0xbe1b74be	-0.15181252
245	0x3dde16a4	0.10844162
246	0x3c9e6175	0.01933358
247	0xbe1e77b4	-0.1547535
248	0xbc951531	-0.018198581
249	0xbcb757a1	-0.022380652
250	0xbdb73cd0	-0.08947146
251	0x3e05d839	0.13070764
252	0xbe2666bf	-0.16250132
253	0x3dc4a783	0.09602263
254	0xbe27a07c	-0.16369814
255	0xbdf63bd2	-0.120231286

model.6.bias f4 [40]
0	0xbde102d2	-0.10986866
1	0x3df88cd1	0.121362336
2	0x3dcb6ce0	0.09932876
3	0x3e187dec	0.14891785
4	0x3dc3a901	0.09553719
5	0xbe155f06	-0.1458703
6	0xbac989f2	-0.0015376194
7	0x3d8f8121	0.07007051
8	0x3d2a32d9	0.0415524
9	0x3e3bf16e	0.18353817
10	0x3dfb3850	0.122666
11	0xbdf080ff	-0.11743354
12	0x3d0aa9eb	0.033853453
13	0x3c01d064	0.007923219
14	0xbddb763a	-0.10715909
15	0xbc98a910	-0.018635303
16	0xbd3cc94a	-0.0460904
17	0x3e18af13	0.14910536
18	0xbd5154c5	-0.051106233
19	0x3dc98f0e	0.09841739
20	0x3df2c2d3	0.11853566
21	0x3e6e7800	0.23287964
22	0xbc76cb77	-0.015063158
23	0x3d94768a	0.07249172
24	0xbe344501	-0.17604448
25	0xbd0f7abd	-0.03502916
26	0xbc4afe40	-0.0123897195
27	0x3e2703e8	0.16310084
28	0xbdd58477	-0.10425656
29	0x3dca56e0	0.09879851
30	0xbd38c75b	-0.045111995
31	0xbd3897e0	-0.045066714
32	0x3d405dd1	0.04696447
33	0xbdbceb23	-0.09224536
34	0x3c8159e3	0.015789932
35	0xbc66777b	-0.014066572
36	0xbdf7ba19	-0.12096042
37	0xbd6b5702	-0.057456024
38	0x3e108f46	0.14117154
39	0x3e18ee68	0.14934695

model.8.weight f4 [40, 40]
0	0x3e05bbcb	0.13059919
1	0x3cfd7713	0.030940568
2	0x3d110fa3	0.035415303
3	0x3e37846e	0.17921612
4	0x3c64ee65	0.013972853
5	0xbe0b5288	-0.13605702
6	0xbdbf68e4	-0.09346178
7	0x3dfb0fd2	0.12258877
8	0xbbd45640	-0.0064800084
9	0x3dd4bb61	0.10387302
10	0xbde91619	-0.11381168
11	0xbe5ba024	-0.21447808
12	0xbc5054f1	-0.012715564
13	0x3d792f28	0.060835987
14	0x3de07594	0.10959926
15	0xbc23ba77	-0.009993187
16	0xbe00f28b	-0.12592523
17	0xbe0a8c7b	-0.13530152
18	0x3ddebdb7	0.10876029
19	0xbb88ab1b	-0.004170788
20	0xbe03324e	-0.12812158
21	0xbd7890f1	-0.060685102
22	0x3de7c2a8	0.113164246
23	0x3e11fba7	0.14256154
24	0x3e0c9cd8	0.13731706
25	0x3dca6ea3	0.098843835
26	0x3c9ecb21	0.019383969
27	0xbdf28797	-0.11842268
28	0x3de3a588	0.11115557
29	0x3dbc17e0	0.09184241
30	0xbde5354e	-0.11191808
31	0x3e004004	0.1252442
32	0x3e07d12e	0.1326339
33	0xbd2e1489	-0.042500053
34	0x3d81f18e	0.06344901
35	0xbe19d524	-0.15022713
36	0xbd9d6ea9	-0.076871224
37	0x3d87ba9b	0.06627389
38	0xbbdb4f34	-0.0066927914
39	0x3df3e8d8	0.11909646
40	0x3dc439e8	0.09581357
41	0x3dfe1061	0.12405468
42	0xbc5a0d4f	-0.013308837
43	0x3d3436fa	0.043997742
44	0xbd827b0a	-0.06371124
45	0xbb840d3b	-0.0040298975
46	0xbc8c5126	-0.017128538
47	0xbdaff1af	-0.08591019
48	0xbd200799	-0.039069746
49	0xbcc113f1	-0.02356908
50	0x3de8bde5	0.113643445
51	0xbe002324	-0.12513405
52	0xbd487569	-0.048940096
53	0xbe611e93	-0.2198432
54	0x3e060295	0.13086922
55	0x3d17059b	0.03687058
56	0x3caf19c3	0.021374589
57	0xbdcfe510	-0.10151112
58	0x3b823fe4	0.0039749015
59	0x3da0c569	0.07850153
60	0xbe414c73	-0.1887682
61	0xbcc190ad	-0.023628557
62	0x3d8b2f1f	0.06796097
63	0xbdec02b7	-0.11523955
64	0x3d78c342	0.060733087
65	0x3db56968	0.08857995
66	0x3cc529bd	0.024067754
67	0x3e0a8e7c	0.13530916
68	0x3dcd096e	0.10011564
69	0x3cbd5790	0.023113042
70	0xbe0088de	-0.1255221
71	0xbe02acaf	-0.12761186
72	0xbd8c0bfc	-0.06838223
73	0x3deaefaa	0.114714935
74	0x3c9df5a3	0.019282168
75	0x3deda3e4	0.11603525
76	0xbd74c27f	-0.0597558
77	0x3d3a7339	0.04552004
78	0x3d2fbc34	0.042904094
79	0x3ca3cf5f	0.019996343
80	0x3df8bc24	0.1214526
81	0x3d168caa	0.03675524
82	0x3d74d8cc	0.059777066
83	0xbdfc52d4	-0.12320486
84	0x3d7ef659	0.062246654
85	0xbd321089	-0.0434728
86	0x3dd3128e	0.103062734
87	0x3de01001	0.109405525
88	0xbe1921d5	-0.14954312
89	0xbe1bd58c	-0.1521818
90	0xbd9c3a1c	-0.07628271
91	0x3e0aafeb	0.1354367
92	0xbdc9c4b2	-0.0985197
93	0xbdb4674c	-0.08808765
94	0xbe195276	-0.14972863
95	0x3e57f935	0.21091159
96	0xbdbcb00d	-0.092132665
97	0x3dd0e45b	0.10199805
98	0x3d9a9702	0.07548334
99	0xbd1b6f3a	-0.03794787
100	0xbe09cc92	-0.13456944
101	0xbce9a659	-0.028521704
102	0xbe172c5e	-0.14763018
103	0x3b1e55d2	0.002416004
104	0x3d4264e4	0.047459498
105	0x3d6642f1	0.056216184
106	0xbdaa76cf	-0.08323442
107	0xbdbdd152	-0.0926844
108	0xbd31c021	-0.04339612
109	0xbdf8f8e1	-0.12156845
110	0xbdbf2383	-0.09332945
111	0x3dfa292b	0.122148834
112	0x3e03b192	0.12860706
113	0x3de52ed5	0.11190573
114	0xbcb25dd1	-0.02177325
115	0xbd667d4b	-0.056271832
116	0xbb1aa80b	-0.0023598697
117	0xbe0a3306	-0.13496026
118	0x3cd294f4	0.025705792
119	0x3d63a816	0.05558022
120	0xbda95e02	-0.08269884
121	0xbd65d3af	-0.05611008
122	0x3d5a8462	0.053348906
123	0x3c9d1edc	0.019179754
124	0xbc35ca16	-0.011095544
125	0x3dbc8ae9	0.092061825
126	0xbc67525d	-0.014118758
127	0xbddecd83	-0.10879042
128	0x3d8ad846	0.06779532
129	0x3d9d3613	0.076763295
130	0x3d11d940	0.035607576
131	0xbd928b0c	-0.07155427
132	0x3d5c8676	0.05383917
133	0xbb4ff57e	-0.0031732018
134	0xbdc1b84a	-0.094589785
135	0x3d65abf5	0.056072194
136	0x3bf0f172	0.0073530013
137	0xbd8bf1b8	-0.068332136
138	0xbd66d971	-0.056359712
139	0x3d3215b4	0.04347773
140	0xbe291639	-0.16512384
141	0xbde275de	-0.11057638
142	0xbd963721	-0.07334734
143	0xbe1ced3b	-0.15324871
144	0xbbe683dc	-0.007034762
145	0x3e1ca39e	0.1529679
146	0x3da8ed85	0.08248428
147	0x3d926da6	0.0714982
148	0x3dd7cdd6	0.10537307
149	0xbc3e6418	-0.011620544
150	0x3e1ce756	0.15322623
151	0xbe1ed383	-0.15510373
152	0xbe056c65	-0.1302963
153	0x3d298ec9	0.041395936
154	0x3da1d1e1	0.07901359
155	0xbd7ca32d	-0.061679054
156	0x3d631fd4	0.055450276
157	0xbd331cdf	-0.043728705
158	0xbdcee6d4	-0.10102621
159	0x3d98c7be	0.07459973
160	0xbd8dad02	-0.06917764
161	0x3ca4e5f2	0.020129178
162	0x3db6834c	0.08911762
163	0x3cca7a69	0.024716573
164	0x3d7a0206	0.061037086
165	0xbe531e09	-0.20616926
166	0xbca667ca	-0.020313162
167	0x3ce934d9	0.028467583
168	0xbdd93776	-0.106062815
169	0xbc12a98a	-0.008951554
170	0x3d11a6e6	0.035559557
171	0x3c4332d7	0.011913977
172	0xbe4b1285	-0.19831283
173	0xbe54afdb	-0.20770209
174	0x3dcac9e0	0.09901786
175	0xbe358f0e	-0.17730352
176	0xbbf5ae9d	-0.007497622
177	0xbe150b9f	-0.14555214
178	0x3cf658e2	0.03007168
179	0xbe218717	-0.15774189
180	0x3dd8440f	0.10559856
181	0x3d716e98	0.05894336
182	0xbe0426a5	-0.12905367
183	0x3d4395a6	0.047750138
184	0xbc4ef594	-0.012631793
185	0xbd498996	-0.049203478
186	0x3d564a46	0.052316926
187	0xbcfde9f7	-0.030995352
188	0x3e13f591	0.14449145
189	0xbe1a08bb	-0.15042393
190	0xbddd6433	-0.10810127
191	0x3e253d24	0.16136605
192	0xbc33faf5	-0.010985126
193	0xbc38f2ff	-0.0112884035
194	0x3d085452	0.03328354
195	0x3d6fd8bd	0.058556307
196	0x3d7855d7	0.06062874
197	0x3c83b64f	0.016078142
198	0xbda4a944	-0.08040097
199	0xbe143ebe	-0.14477059
200	0xbda497ac	-0.080367416
201	0xbcb941b0	-0.02261433
202	0xbda40e7a	-0.08010574
203	0x3e0554be	0.13020608
204	0x3e047fc2	0.1293936
205	0xbd42e402	-0.047580726
206	0x3d74d5d2	0.059774227
207	0xbdddb8e2	-0.10826279
208	0xbdbd54c2	-0.09244682
209	0xbc5942bc	-0.01326054
210	0xbd89e857	-0.067337684
211	0xbcf08ef0	-0.029365033
212	0xbc331bd6	-0.01093193
213	0xbd34cb30	-0.044139087
214	0x3db55ffe	0.088562
215	0xbc4126bb	-0.011789019
216	0x3d9f9212	0.077915326
217	0xbda9ed3b	-0.08297201
218	0x3d6f651e	0.058446042
219	0xbd79ccde	-0.060986392
220	0xbe066097	-0.13122784
221	0x3e0a888d	0.13528652
222	0x3cc7876e	0.02435657
223	0xbd401fc3	-0.04690529
224	0x3e0f21ff	0.13977812
225	0x3e1dd023	0.15411429
226	0xbca6449c	-0.020296387
227	0xbdfb521b	-0.1227152
228	0x3d5e17b9	0.054221842
229	0xbdc8396b	-0.097765766
230	0x3dba45a3	0.090953134
231	0xbc9d35f2	-0.019190762
232	0xbe119b15	-0.14219315
233	0xbe0cb3ce	-0.13740465
234	0xbd3f36e0	-0.046683192
235	0xbdbf469e	-0.09339641
236	0xbd865d32	-0.06560744
237	0xbd449717	-0.047995653
238	0xbdca4701	-0.09876824
239	0xbb9a82ae	-0.0047152853
240	0xbdc5ab4c	-0.09651813
241	0xbd68ca7b	-0.056833725
242	0x3d94b838	0.072616994
243	0xbd95b3f2	-0.073097125
244	0xbe2e932b	-0.17048328
245	0x3d76560b	0.06014065
246	0x3d5d93f1	0.054096166
247	0xbdea0365	-0.11426429
248	0xbe0ea9f3	-0.13932018
249	0xbe0f2722	-0.13979772
250	0xbb75d3f4	-0.0037510367
251	0xbbc4c539	-0.006004956
252	0xbe6077d4	-0.21920711
253	0xbbb15b40	-0.005412489
254	0xbbc2b91f	-0.0059424783
255	0xbc8d2b6d	-0.017232621

model.8.bias f4 [40]
0	0x3d3ccb5b	0.046092372
1	0xbe0edd0c	-0.1395151
2	0xbe3a8083	-0.18213086
3	0xbd87c657	-0.06629627
4	0x3c9c55eb	0.019083938
5	0x3d14c32f	0.036318954
6	0xbd00dc3d	-0.031460036
7	0xbcc2d817	-0.02378468
8	0x3d95c78f	0.073134534
9	0x3df0ddf6	0.11761086
10	0xbc981a17	-0.018567128
11	0xbdf48835	-0.11940042
12	0xbe3629d8	-0.177894
13	0xbe5eb27a	-0.21747771
14	0x3d04d2df	0.032427665
15	0xbde602bb	-0.112309895
16	0xbc8c18a3	-0.017101591
17	0x3d260397	0.040530767
18	0x3ea6a52e	0.32547897
19	0x3e7b9e26	0.24572048
20	0xbde4eb8f	-0.11177742
21	0x3dedfcad	0.1162046
22	0xbde2d269	-0.11075289
23	0xbce241de	-0.027619299
24	0xbdfd5a1c	-0.123707026
25	0x3e87d46e	0.26529258
26	0x3f543852	0.8289844
27	0xbe0a3520	-0.13496828
28	0x3dacfb1b	0.08446332
29	0xbde3f0b4	-0.11129895
30	0x3eb014f3	0.34390983
31	0x3ecce3fa	0.40017682
32	0x3ccfa679	0.025347935
33	0xbdcda3fc	-0.10041043
34	0xbd35fd8c	-0.044431254
35	0xbd75e8d4	-0.060036495
36	0xbdf3046b	-0.11866077
37	0x3d93718e	0.07199393
38	0xbd80dbe0	-0.06291938
39	0xbdaf7920	-0.08568025

model.10.weight f4 [1, 40]
0	0xbdfcd8eb	-0.12346061
1	0xbe1b829e	-0.15186545
2	0xbe29457e	-0.16530415
3	0xbe63cb3e	-0.222455
4	0xbda7b723	-0.081892274
5	0xbd3e6f42	-0.046492822
6	0xbe0dd8ca	-0.1385223
7	0xbe16bebc	-0.14721197
8	0xbf00c142	-0.5029489
9	0xbed4abc8	-0.4153731
10	0xbd8a4a89	-0.06752498
11	0xbe14c2d9	-0.14527453
12	0xbdd4f295	-0.10397831
13	0xbe61877d	-0.22024341
14	0xbd880ca0	-0.06643033
15	0xbe3097c9	-0.17245401
16	0xbd8d0992	-0.06886591
17	0xbd422f2f	-0.04740828
18	0x3ec880c9	0.39160755
19	0x3f0f6bf5	0.56024104
20	0x3de5e04d	0.112244226
21	0x3d34853b	0.04407237
22	0xbd38d332	-0.045123287
23	0xbe26bd4a	-0.16283146
24	0xbe62209c	-0.22082752
25	0x3eb32200	0.34986877
26	0x3f8a6f27	1.0815171
27	0xbdcf6e1e	-0.10128425
28	0xbe5a88f6	-0.21341309
29	0xbdb6f4d0	-0.08933413
30	0x3f060613	0.5235302
31	0x3efc4a4b	0.4927543
32	0xbe38dda2	-0.18053296
33	0xbe2b7ce8	-0.16746867
34	0xbd6997be	-0.05702948
35	0x3d94a23e	0.07257508
36	0xbde58a1d	-0.11207984
37	0xb9d6028f	-0.00040819167
38	0xbcbf180a	-0.023326892
39	0xbdea0a66	-0.114277646
