nn_model.pt (torch, 5656 bytes, 3 tensors)

weight f4 [50, 10]
-0.07955385 0.20175998 0.25113726 -0.09462728 -0.05900926 0.12236019 0.062933564 -0.06271824
0.33847165 0.21428025 0.06389456 0.11677929 -0.1609683 0.03398845 -0.29024863 -0.3431166
-0.11383165 -0.030497203 -0.05100057 0.027193464 0.24470985 0.27824685 0.01883642 -0.21838625
-0.21157934 0.12602939 0.24645735 0.22418873 -0.07922097 0.27532765 -0.02951981 -0.23519103
0.10856393 -0.034648295 0.108582966 -0.34858266 0.2348788 -0.314652 -0.110490024 0.13729529
0.0555223 -0.05344546 0.23938806 -0.12799491 -0.23144464 0.23496981 0.17424211 0.077314965
-0.06609862 -0.011762152 -0.21522804 0.103875645 0.25007755 -0.13907793 0.26779926 -0.11651757
-0.2994792 -0.009473976 -0.22398326 0.1635905 0.07766261 -0.046200458 0.25055048 0.012761873
0.096925616 0.19862607 -0.07749284 0.009467905 -0.2488946 -0.20017381 -0.16423906 -0.121674895
0.08995124 0.26378736 -0.082955904 0.15937349 -0.19943607 -0.22385594 -0.17284983 0.20517291
0.14368087 -0.123188026 0.20247953 0.041003145 0.034658782 0.10416629 -0.021193642 -0.060093455
0.21006592 0.11145422 0.11414615 -0.09740993 -0.28104645 -0.30619907 -0.17464411 0.1055783
-0.04997552 -0.3271966 0.060587585 -0.0408801 0.2805823 -0.020185184 0.024099948 -0.12865756
0.009935129 0.016418727 -0.16340746 0.08090287 0.11889756 -0.1651293 -0.1095684 -0.007356694
-0.17032282 0.076079145 0.079597436 -0.16298984 -0.111103244 -0.12875773 0.2579818 0.25083575
0.24596371 0.1609961 -0.15531994 0.26584712 -0.15696485 0.20911373 -0.041926555 0.07192047
-0.22964163 -0.2507515 -0.3269411 -0.08331703 0.12770909 -0.15281934 -0.19430931 0.09948453
0.12707782 0.31200656 0.23012267 0.2743121 0.23440884 0.23656292 0.0025675993 0.052192554
0.16340417 0.27893537 -0.115060024 -0.18989025 0.13675378 0.23645167 -0.3765608 0.12795065
-0.12821755 0.30262908 -0.10671736 0.1624177 0.2801649 0.08809964 -0.20932336 0.25431982
0.2879385 0.24318141 0.049776997 -0.022216322 0.005220498 0.2923918 -0.23529984 0.2424771
0.047736015 -0.21568307 -0.4363981 -0.14897403 0.13481377 0.011444188 0.13083197 -0.61843574
-0.62331724 0.014706734 -0.3137148 -0.1931906 -0.28829235 0.26211494 0.087984316 -0.28055683
0.10979841 0.15567225 0.26926687 0.2734755 0.091257714 -0.14242955 -0.3632119 0.09557191
-0.43477178 0.1793007 -0.34433237 0.17675543 -0.05470504 0.0004956119 0.040574037 -0.02111266
0.094623774 -0.28827503 0.017444888 0.17757317 -0.31561086 -0.2802127 0.1471824 0.042814907
-0.3305875 0.09536491 0.34425837 0.044929627 -0.13198353 0.2922258 0.30095991 -0.24950829
-0.08458 0.18783161 0.07005461 -0.068364725 0.28285742 -0.016125234 -0.26637223 -0.10152424
0.010735883 -0.036432635 -0.2352832 -0.13972577 0.040804468 -0.12121695 -0.12017357 -0.3004844
-0.016069947 0.16962308 -0.014558875 0.18425232 -0.095717326 0.026353125 -0.024582304 0.301258
0.13704187 -0.25224787 -0.06839331 -0.18750861 0.27360547 -0.07745127 0.21695893 0.2890084
-0.13324422 -0.17810908 0.04362917 0.14714272 -0.040667713 0.26039967 0.25265312 -0.37283716
00000000: 21ed a2bd 2b9a 4e3e 1095 803e f3cb c1bd
00000010: b2b3 71bd fb97 fa3d 50e3 803d 6c72 80bd
00000020: 284c ad3e 486c 5b3e 27db 823d fb29 ef3d
00000030: e0d4 24be 7937 0b3d 789b 94be fbac afbe
00000040: 9120 e9bd 45d5 f9bc f9e5 50bd d4c4 de3c
00000050: 3895 7a3e 5f76 8e3e d64e 9a3c a5a0 5fbe
00000060: 41a8 58be d90d 013e 515f 7c3e bb91 653e
00000070: 9b3e a2bd bff7 8c3e 87d3 f1bc ebd5 70be
00000080: c456 de3d 5feb 0dbd bf60 de3d 6d79 b2be
00000090: 1184 703e 111a a1be 9848 e2bd 2397 0c3e
000000a0: 5a6b 633d a0e9 5abd 2522 753e 1911 03be
000000b0: d3ff 6cbe ed9b 703e 866c 323e 4f57 9e3d
000000c0: b75e 87bd 0bb6 40bc bd64 5cbe c1bc d43d
000000d0: 2a0a 803e 726a 0ebe fc1c 893e c4a0 eebd
000000e0: 5655 99be bc38 1bbc de5b 65be 4584 273e
000000f0: 930d 9f3d b13c 3dbd 2748 803e 2d17 513c
00000100: f080 c63d a264 4b3e 91b4 9ebd 461f 1b3c
00000110: 3ade 7ebe 5dfa 4cbe 492e 28be b030 f9bd
00000120: 5b38 b83d 230f 873e c9e4 a9bd ce32 233e
00000130: f838 4cbe 7e3a 65be 8cff 30be d918 523e
00000140: 1421 133e 014a fcbd cb56 4f3e eaf2 273d
00000150: 5ef6 0d3d 2355 d53d 4a9e adbc 8e24 76bd
00000160: 851b 573e 1c42 e43d 75c5 e93d db7e c7bd
00000170: 52e5 8fbe 20c6 9cbe e8d5 32be 7039 d83d
00000180: 22b3 4cbd 5086 a7be b02a 783d e471 27bd
00000190: 7ca8 8f3e 665b a5bc 416d c53c cfbe 03be
000001a0: f4c6 223c 9180 863c 4954 27be 67b0 a53d
000001b0: 9080 f33d a817 29be 6665 e0bd 6c10 f1bb
000001c0: 1b69 2ebe 62cf 9b3d fb03 a33d cfe6 26be
000001d0: 198a e3bd 11d9 03be 3116 843e 8b6d 803e
000001e0: e9dd 7b3e 29dc 243e 310c 1fbe 1d1d 883e
000001f0: 65bb 20be e921 563e 2ebb 2bbd 0a4b 933d
00000200: 2d27 6bbe 8062 80be d364 a7be 1ea2 aabd
00000210: 2cc6 023e ac7c 1cbe 05f9 46be 8cbe cb3d
00000220: b020 023e 53bf 9f3e 47a5 6b3e a372 8c3e
00000230: df08 703e 8d3d 723e 2b45 283b dcc7 553d
00000240: 6c53 273e 9ed0 8e3e 97a4 ebbd 9772 42be
00000250: 2f09 0c3e 6320 723e 94cc c0be 7f05 033e
00000260: 764b 03be 33f2 9a3e a28e dabd d350 263e
00000270: c671 8f3e 966d b43d dd58 56be 3536 823e
00000280: ad6c 933e 8c04 793e f7e2 4b3d 01ff b5bc
00000290: b610 ab3b 61b4 953e 71f2 70be eb4b 783e
000002a0: d786 433d 06dc 5cbe 926f dfbe a68c 18be
000002b0: 9f0c 0a3e 6780 3b3c d1f8 053e ce51 1ebf
000002c0: b891 1fbf 83f4 703c 3a9f a0be c2d3 45be
000002d0: 0e9b 93be ee33 863e 1f31 b43d 25a5 8fbe
000002e0: fddd e03d 8c68 1f3e 59dd 893e fb04 8c3e
000002f0: 53e5 ba3d 0dd9 11be e9f6 b9be 35bb c33d
00000300: 689a debe 9a9a 373e 554c b0be 60ff 343e
00000310: 6412 60bd f4eb 013a f630 263d 75f4 acbc
00000320: 1cca c13d c998 93be 95e8 8e3c bed5 353e
00000330: bf97 a1be 0a78 8fbe fcb6 163e af5e 2f3d
00000340: c442 a9be ae4e c33d a242 b03e 2108 383d
00000350: b126 07be 9f9e 953e 6b17 9a3e 1a7f 7fbe
00000360: 4738 adbd ee56 403e cb78 8f3d ce02 8cbd
00000370: b0d2 903e 1119 84bc f161 88be f1eb cfbd
00000380: 8fe5 2f3c 633a 15bd 14ee 70be 4614 0fbe
00000390: 9622 273d 9840 f8bd 901d f6bd 17d9 99be
000003a0: 1fa5 83bc acb1 2d3e 5988 6ebc a4ac 3c3e
000003b0: 7207 c4bd 82e2 d73c d460 c9bc 7d3e 9a3e
000003c0: b454 0c3e a226 81be cb11 8cbd 4202 40be
000003d0: 0416 8c3e c59e 9ebd 7b2a 5e3e e9f8 933e
000003e0: 2c71 08be 3a62 36be 80b4 323d 95ac 163e
000003f0: 3093 26bd 1b53 853e c05b 813e 83e4 bebe

bias f4 [50]
-0.32061544 0.113797195 0.1804804 0.1856951 0.48417738 0.06097014 0.36507726 -0.100457236
0.30117896 0.24863337 -0.42775324 0.1831905 0.2947332 -0.16459037 -0.3862803 -0.31700188
0.016337426 0.36442393 -0.21134427 -0.46228084 0.3045341 -0.3872773 -0.32629317 0.08234709
0.041746464 0.24018352 0.38117135 -0.23765044 -0.22009198 0.27246064 0.08831673 0.078382015
-0.2727389 0.43074295 0.29296622 0.00095903757 0.1096402 -0.25170755 0.03315736 0.07282755
-0.15901832 -0.1664436 -0.07741181 -0.23812129 -0.3102998 0.27025998 0.3260143 0.46296683
0.34449503 0.09798214
00000000: b527 a4be 810e e93d dbcf 383e db26 3e3e
00000010: 19e6 f73e d3bb 793d 68eb ba3e 86bc cdbd
00000020: 2134 9a3e bf99 7e3e 7902 dbbe 4a96 3b3e
00000030: 45e7 963e 618a 28be 88c6 c5be 124e a2be
00000040: 11d6 853c c695 ba3e a26a 58be 13b0 ecbe
00000050: e5eb 9b3e 3649 c6be e60f a7be 97a5 a83d
00000060: 57fe 2a3d abf2 753e e428 c33e a35a 73be
00000070: cb5f 61be f67f 8b3e 67df b43d c086 a03d
00000080: 6fa4 8bbe 578a dc3e abff 953e ec67 7b3a
00000090: 0b8b e03d d0df 80be 03d0 073d 9c26 953d
000000a0: b3d5 22be 3170 2abe 158a 9ebd 11d6 73be
000000b0: 9edf 9ebe 845f 8a3e 59eb a63e fd09 ed3e
000000c0: a761 b03e dcaa c83d

weight f4 [1, 50]
-0.32378986 0.20964323 0.23453847 0.14284185 0.32292265 0.23085894 0.30289918 0.0072291465
0.09195909 0.19541597 -0.3855516 0.1283043 0.33542177 -0.27758363 -0.30827317 -0.32695353
0.07880121 0.7421611 -0.15647441 -0.560992 0.17780961 -0.42857847 -0.15609147 -0.06559387
-0.05581961 0.2172373 0.256533 -0.17753297 -0.81130934 0.13592115 -0.20318596 0.19812486
-0.32003143 0.23831154 0.36177593 0.1759278 -0.44615406 -0.33098868 -0.04848447 0.13575706
-0.01536671 -0.131169 0.023405671 -0.26978344 -0.28953287 0.1393645 0.14646737 0.40653074
0.21546762 0.093404375
00000000: c9c7 a5be b7ac 563e da2a 703e 2245 123e
00000010: 1e56 a53e 4966 6c3e 9a15 9b3e 7ae2 ec3b
00000020: 0c55 bc3d 201b 483e 0567 c5be 3462 033e
00000030: 67bc ab3e 711f 8ebe fbd5 9dbe 7466 a7be
00000040: 8762 a13d 45fe 3d3f d43a 20be 2c9d 0fbf
00000050: b913 363e a36e dbbe 71d6 1fbe 1456 86bd
00000060: 1aa3 64bd 7473 5e3e 4b58 833e 34cb 35be
00000070: f8b1 4fbf ea2e 0b3e fb0f 50be 3ee1 4a3e
00000080: 29db a3be f107 743e b23a b93e 6b26 343e
00000090: 4e6e e4be 5977 a9be a797 46bd e603 0b3e
000000a0: a7c4 7bbc 2b51 06be 40bd bf3c 0e21 8abe
000000b0: a73d 94be 91b5 0e3e 8bfb 153e cc24 d03e
000000c0: 8ba3 5c3e cb4a bf3d
