backend/models/nn_model.pt (torch, 3224 bytes, 3 tensors)

layer1.weight f4 [24, 10]
0	0xbec4686e	-0.38360924
1	0xbea3302e	-0.31872696
2	0x3e27dc6e	0.16392681
3	0xbe671ebf	-0.22570322
4	0xbe9a5233	-0.30140838
5	0x3e799474	0.24373037
6	0xbe48de9d	-0.1961617
7	0xbdb72cc5	-0.08944086
8	0x3d2b145b	0.04176746
9	0xbe0f8b38	-0.14017951
10	0xbeabde52	-0.33568054
11	0xbed17ed3	-0.40917072
12	0x3dc78a42	0.097431675
13	0x3d8d3e06	0.06896596
14	0xbdc95ed5	-0.09832541
15	0xbd59f841	-0.05321527
16	0x3e85a6db	0.26103863
17	0xbdf78844	-0.120865375
18	0xbe4bb5f0	-0.19893622
19	0x3e88b173	0.26697883
20	0xbd594642	-0.05304552
21	0xbe4a5f77	-0.1976298
22	0x3e9a5210	0.30140734
23	0xbe5459d9	-0.20737399
24	0xbe97a26a	-0.296161
25	0xbe24a11b	-0.16077082
26	0xbea6fd58	-0.3261516
27	0xbe866f2c	-0.26256692
28	0xbeed2f36	-0.46325082
29	0x3e838f62	0.2569533
30	0x3e1f3c65	0.15550382
31	0x3e81a446	0.25320643
32	0xbdfb6330	-0.12274778
33	0x3de107e1	0.10987831
34	0xbdef3481	-0.11679936
35	0xbd648757	-0.055793133
36	0x3daff299	0.08591194
37	0xbcc1653c	-0.023607843
38	0xbe26e72a	-0.1629912
39	0x3e0e46c7	0.13894187
40	0xbf2189ed	-0.63101083
41	0xbefaa057	-0.48950455
42	0xbf1d8ada	-0.61539996
43	0x3e2692fe	0.1626701
44	0xbeb560b4	-0.3542534
45	0x3e0faabe	0.14029977
46	0x3eaf7f15	0.34276643
47	0x3e2b79b4	0.16745645
48	0xbbca6935	-0.0061770924
49	0xbafff8df	-0.0019529125
50	0x3e24c027	0.16088925
51	0xbe41fa41	-0.1894312
52	0xbd3c3c86	-0.045956157
53	0xbe72ae36	-0.23699269
54	0xbd4a78fa	-0.04943178
55	0x3e2d864e	0.16945764
56	0x3daad9ca	0.08342321
57	0x3e8e0db5	0.27744833
58	0xbe8c114d	-0.2735695
59	0xbe020a41	-0.12699224
60	0xbebf9f04	-0.37426007
61	0x3c88dedf	0.016707836
62	0x3c8ca10c	0.017166637
63	0x3dac5001	0.08413697
64	0xbda6d3eb	-0.08145889
65	0xbed70301	-0.4199448
66	0xbea5befd	-0.32372275
67	0xbd82c973	-0.0638608
68	0x3b94997c	0.0045348983
69	0xbeaa8556	-0.33304852
70	0xbebbce07	-0.36680624
71	0x3e694751	0.22781111
72	0xbeaaccdd	-0.33359423
73	0xbd62d998	-0.055383295
74	0xbe26c023	-0.16284232
75	0xbe1a83e3	-0.15089373
76	0x3db135cc	0.08652839
77	0x3e82db9d	0.25558177
78	0x3e8a6664	0.27031243
79	0x3e8c097c	0.27350986
80	0x3e31c76a	0.17361227
81	0x3e2b77c9	0.16744913
82	0xbe0ba51f	-0.13637207
83	0x3e7ee87e	0.24893376
84	0x3d5681ce	0.052369885
85	0xbe0a38b1	-0.13498189
86	0xbe69d32c	-0.22834462
87	0x3d1ebe85	0.038755912
88	0xbe882658	-0.26591754
89	0x3e1649d3	0.14676599
90	0xbe43cbbe	-0.1912069
91	0xbea11634	-0.31462252
92	0x3cfd57fe	0.030925747
93	0x3d056d5c	0.032574996
94	0x3da6ff20	0.0815413
95	0xbebcc835	-0.36871496
96	0xbed13d50	-0.4086709
97	0xbd857776	-0.06516926
98	0xbedc4198	-0.43018794
99	0xbe002bb8	-0.12516677
100	0x3c70c893	0.014696258
101	0xbea48f2e	-0.32140487
102	0x3e03786f	0.1283891
103	0x3d9a4fc7	0.075347476
104	0xbdc870ab	-0.09787115
105	0xbdf8131e	-0.12113021
106	0xbe04df95	-0.12975915
107	0xbe6ed409	-0.23323072
108	0x3e7b568c	0.24544734
109	0x3e9657d4	0.29363883
110	0xbec57dfd	-0.38572684
111	0xbe710ed9	-0.2354082
112	0x3db458b3	0.088059805
113	0x3de0d5f6	0.1097831
114	0xbdb79e36	-0.08965723
115	0x3ec03742	0.37542158
116	0xbe62e939	-0.2215928
117	0x3d29ff8b	0.04150347
118	0x3e2b9a8a	0.1675817
119	0x3d85ee88	0.06539637
120	0xbe9c6de9	-0.30552605
121	0xbe39b3da	-0.18135014
122	0x3dac06ac	0.0839971
123	0x3c2c83a1	0.01052943
124	0x3e689f80	0.22717094
125	0x3e874fae	0.26427978
126	0x3ceba41f	0.028764782
127	0x3e947982	0.28998953
128	0x3d159f72	0.036529012
129	0xbc92195b	-0.017834356
130	0x3ea9b208	0.3314364
131	0xbe4491da	-0.19196263
132	0x3e047f40	0.12939167
133	0xbe81936a	-0.2530778
134	0xbe4a121b	-0.19733469
135	0x3e196a4e	0.14981958
136	0x3e83315a	0.2562359
137	0x3e3d0ede	0.18462703
138	0xbe3d419c	-0.18482059
139	0xbe82c8e5	-0.25543895
140	0x3e82e1c9	0.25562885
141	0xb90bc39d	-0.00013328945
142	0x3da5a004	0.08087161
143	0xbde20f9f	-0.11038136
144	0xbe17e87c	-0.1483478
145	0x3dabd60d	0.08390436
146	0x3e11743a	0.14204493
147	0x3d730b35	0.05933686
148	0x3e412ec0	0.1886549
149	0x3e7558b6	0.23959622
150	0xbe325e39	-0.17418756
151	0x3ea580c4	0.32324803
152	0xbe0ee301	-0.13953783
153	0xbd980e57	-0.0742461
154	0xbe5374b2	-0.20649984
155	0x3e5f7357	0.21821342
156	0xbe00837e	-0.1255016
157	0xbe8071f3	-0.25086936
158	0xbea0dd88	-0.31419015
159	0xbe2fa0eb	-0.17151229
160	0x3e835ca5	0.2565662
161	0xbbde20fe	-0.0067788353
162	0xbc9eb614	-0.019373931
163	0xbe14018a	-0.14453712
164	0x3e744c68	0.23857272
165	0xbe4c8aa2	-0.19974759
166	0xbe9c4385	-0.30520263
167	0xbe55fddc	-0.20897621
168	0x3c0981ec	0.008392792
169	0xbdbbde58	-0.09173268
170	0xbc609fb2	-0.013709949
171	0x3e1d9f98	0.15392911
172	0xbe5ea3e2	-0.21742204
173	0xbe924d56	-0.28574628
174	0xbe86a02e	-0.26294082
175	0xbe5c87c6	-0.21536168
176	0xbd09d28e	-0.033648066
177	0xbc2ea4b9	-0.01065939
178	0x3e9f2378	0.31081748
179	0xbb5e3046	-0.0033903285
180	0xbe238fd3	-0.15972833
181	0xbe009a3f	-0.1255884
182	0x3cb4528e	0.022012021
183	0xbd4a59e6	-0.04940214
184	0xbe23edac	-0.16008633
185	0xbf0e7e46	-0.5566143
186	0xbecb566f	-0.3971438
187	0xbdafa5cd	-0.08576546
188	0x3dc4547c	0.095864266
189	0x3d2560fa	0.040375687
190	0xbd406475	-0.046970803
191	0x3e6421c2	0.22278503
192	0xbe116afa	-0.14200965
193	0x3e5c02c0	0.21485424
194	0x3c1592b9	0.00912922
195	0x3e1256cf	0.14290927
196	0x3e101efd	0.14074321
197	0xbdbcce0d	-0.092189886
198	0x3c4139ea	0.011793593
199	0x3e6c927c	0.23102754
200	0x3ce60d65	0.028082559
201	0x3e5195c7	0.20467292
202	0xbe028fc3	-0.12750153
203	0x3e07e014	0.13269073
204	0x3df5d137	0.12002795
205	0x3de7faef	0.11327159
206	0x3e4f6d83	0.20256619
207	0xbdeb4d8e	-0.11489402
208	0x3e42a2a6	0.19007358
209	0x3e3c0662	0.1836181
210	0x3e496b92	0.19669941
211	0xbe276f8f	-0.1635115
212	0xbe73ffbc	-0.23828024
213	0xbdac3ca8	-0.08410007
214	0x3e01023b	0.12598507
215	0x3e2dc811	0.1697085
216	0x3d554aca	0.052073278
217	0xbe86ef94	-0.2635466
218	0xbd99d333	-0.07510986
219	0xbe150d16	-0.14555773
220	0xbf058578	-0.5215678
221	0xbeb44268	-0.35206914
222	0xbedc546a	-0.43033153
223	0xbdae8c04	-0.085227996
224	0x3dfe98da	0.12431498
225	0x3e599b90	0.21250749
226	0x3e75305a	0.23944226
227	0x3e175ff8	0.14782703
228	0x3df50aa7	0.119649224
229	0xbdfc6c04	-0.1232529
230	0x3e0fdd92	0.14049366
231	0xbd9168bf	-0.07100057
232	0x3e700efa	0.23443213
233	0xbc6f4f62	-0.014606329
234	0xbe9b9b91	-0.30392125
235	0x3e05ba68	0.1305939
236	0xbe93a488	-0.28836465
237	0xbe8e87ed	-0.27838078
238	0xbe5960ad	-0.21228285
239	0x3e096a0c	0.1341936

layer1.bias f4 [24]
0	0x3e20308e	0.15643522
1	0xbef55f58	-0.47924304
2	0x3e4e221e	0.20130202
3	0x3f313119	0.6921554
4	0xbe8c57a0	-0.27410603
5	0x3e707fa2	0.23486188
6	0x3efc9962	0.49335772
7	0xbea0b594	-0.31388533
8	0xbe8ae3a6	-0.27126807
9	0x3e89a8dc	0.26886642
10	0x3d3e4384	0.046451107
11	0xbf031d85	-0.5121692
12	0x3d19fc11	0.037593905
13	0xbcf9c883	-0.03049112
14	0xbd17bfb1	-0.037048046
15	0x3eb68ece	0.35655826
16	0xbe064c99	-0.13115157
17	0xbe3390f7	-0.17535768
18	0x3e5441aa	0.20728174
19	0xbc95df9e	-0.018295106
20	0xbe15bdde	-0.1462321
21	0x3e97e5b5	0.2966744
22	0xbe8b6516	-0.2722556
23	0xbea18b5a	-0.3155163

output_layer.weight f4 [1, 24]
0	0xbe3e03fd	-0.18556209
1	0xbeea0432	-0.45706326
2	0x3ef8a7fc	0.48565662
3	0x3f107cdc	0.5644052
4	0xbf835496	-1.0260189
5	0x3e495a23	0.1966329
6	0x3f2154fd	0.63020307
7	0xbee93b20	-0.4555292
8	0xbdf60f31	-0.12014616
9	0x3efc50df	0.4928045
10	0xbd4f437e	-0.050601475
11	0xbf1ad90a	-0.60487425
12	0xbe01ca2e	-0.12674782
13	0x3d2462e2	0.040133364
14	0xbdaef136	-0.08542101
15	0x3ea45219	0.32093886
16	0xbd9695d4	-0.07352796
17	0xbe25bf2d	-0.16186209
18	0x3ef0cd76	0.47031754
19	0xba030ee5	-0.0004999473
20	0xbe8c6c80	-0.2742653
21	0x3e785620	0.24251604
22	0xbf350197	-0.7070555
23	0xbe3be4a4	-0.18348938
